Model/Pre Trained Model/Results/2000000 Initial Capital/10 Properties/real_estate_ai_model_valuation.pt (torch, 50708 bytes, 7 tensors)

fc1.weight f4 [128, 10]
0	0x3e8b8b4f	0.27254722
1	0xbd504937	-0.050851073
2	0x3c7d5a38	0.015463404
3	0x3f1a6b1a	0.60319674
4	0x3defae46	0.11703162
5	0xbe3aa734	-0.18227845
6	0xbe079ba0	-0.1324296
7	0x3fbc6920	1.4719582
8	0x3f6aa97e	0.91664875
9	0x3e79acaf	0.2438228
10	0x3ef77d7e	0.4833793
11	0xbe4a169c	-0.19735187
12	0xbe1103dd	-0.1416163
13	0x3f7d879a	0.99035037
14	0x3e9462a1	0.28981498
15	0x3e3e519e	0.18585822
16	0x3d29ef8c	0.041488215
17	0x40298106	2.6485
18	0x401547ca	2.3325067
19	0x3f2295bb	0.6350972
20	0x3eb4d333	0.35317382
21	0xbe44e98a	-0.19229713
22	0xbe07ea0f	-0.1327288
23	0x3f2fb0c0	0.68629074
24	0xbd6f2baf	-0.05839127
25	0xbe71ec84	-0.2362538
26	0xbe0587cb	-0.13040082
27	0x3fbae22c	1.4600272
28	0x3fbaf2ce	1.4605348
29	0xbe353595	-0.17696221
30	0xbe167762	-0.14693978
31	0x3d200e49	0.039076123
32	0x3daa3a60	0.083119154
33	0x3e9d69f3	0.30744895
34	0x3cd81df3	0.026381468
35	0xbceb28e4	-0.028706022
36	0xbdc75860	-0.09733653
37	0x3fa9ddf8	1.3270864
38	0x3f9c9342	1.223244
39	0x3d20e2d2	0.039278813
40	0x3f3fa545	0.74861556
41	0xbe461972	-0.19345644
42	0xbe16b0ec	-0.14715928
43	0x3f420d4a	0.7580153
44	0x3eee4ce7	0.46543047
45	0x3f287bdd	0.65814
46	0x3d044ff7	0.032302823
47	0x4034aadd	2.8229287
48	0x3ffca5cd	1.9738098
49	0x3f2cc679	0.67490345
50	0xbf5af8f0	-0.855361
51	0xbe51ac46	-0.20475873
52	0xbe44f498	-0.1923393
53	0xbf09c7d7	-0.53820556
54	0xbe894f3a	-0.26818258
55	0x3f143bbe	0.5790366
56	0xbf16334c	-0.5867202
57	0xc04963f1	-3.146725
58	0xc02c431a	-2.6915956
59	0xbe8e72f6	-0.27822083
60	0x3e7201bf	0.23633479
61	0xbe043d7e	-0.12914082
62	0xbd53880a	-0.05164341
63	0x3e1538aa	0.14572397
64	0xbb50def9	-0.0031871183
65	0xbe134160	-0.14380407
66	0xbd52303d	-0.051315535
67	0x3fade45d	1.3585316
68	0x3fb47b51	1.4100133
69	0xbe34fc73	-0.17674427
70	0x3edc2d56	0.4300334
71	0x3e9d9181	0.30775073
72	0xbec030fd	-0.37537375
73	0x3d8e30cb	0.069429
74	0x3f04bc60	0.5184994
75	0x3f911195	1.1333491
76	0xbd62e577	-0.055394616
77	0x4009f3aa	2.155497
78	0x3fb1db85	1.3895117
79	0xbe5546e4	-0.20827824
80	0x3eae93af	0.3409705
81	0xbe669132	-0.22516325
82	0xbe40bce9	-0.18822064
83	0x3ee8e30a	0.45485717
84	0xbda10c55	-0.0786368
85	0xbd4dc946	-0.050240777
86	0xbe5d31e5	-0.21601065
87	0x3fd742df	1.6817282
88	0x3f79e0da	0.9760872
89	0x3ea15a0c	0.31514013
90	0xbd3131cc	-0.04326038
91	0x3e35b5ae	0.17745087
92	0x3e7eaf78	0.24871624
93	0x3eaac67a	0.3335455
94	0x3d399006	0.045303367
95	0xbdcdded4	-0.10052267
96	0x3d23fff1	0.040039007
97	0x3fd8b49c	1.6930118
98	0x3f836152	1.0264075
99	0xbc539742	-0.012914481
100	0x3f4613e8	0.77374125
101	0x3d36d571	0.044637147
102	0x3d9d1fa4	0.076720506
103	0x3f77efd5	0.9685033
104	0x3d6204f7	0.055180516
105	0xbcd98f5b	-0.026557615
106	0xbc53fb79	-0.012938374
107	0x40116327	2.2716768
108	0x3fed81b1	1.8555204
109	0x3e9bf06a	0.3045686
110	0x3ecb8b4d	0.39754716
111	0x3c471c7f	0.01215279
112	0x3d698df2	0.057020135
113	0x3ebc445b	0.367709
114	0xbddd2b86	-0.10799317
115	0xbdfe1218	-0.12405795
116	0xbc7c7818	-0.015409492
117	0x3fc91ce9	1.5711948
118	0x3f81f4a3	1.0152782
119	0xbe3e4998	-0.18582761
120	0xbf16da03	-0.5892641
121	0x3e98994b	0.29804453
122	0xbe62b823	-0.22140555
123	0xbefff7e8	-0.49993825
124	0xbe713589	-0.23555578
125	0x3e8832ed	0.26601353
126	0xbeb57559	-0.35441092
127	0xc0269757	-2.602987
128	0xc00c30be	-2.190475
129	0xbe89ef14	-0.26940215
130	0xbd01bc51	-0.031673733
131	0x3dc5980d	0.09648142
132	0x3e278d90	0.16362596
133	0x3f42c467	0.76080936
134	0x3e27aa00	0.16373444
135	0x3e02f8ba	0.12790194
136	0x3e8dd1c1	0.27699092
137	0x3fd6cf45	1.6782004
138	0x3fbf8827	1.4963425
139	0x3ecb7ef0	0.39745283
140	0xbf51d796	-0.81969583
141	0x3d884e0a	0.0665551
142	0x3daf4013	0.08557143
143	0xbf2c43c9	-0.6729093
144	0xbe20f522	-0.15718511
145	0x3f4f765b	0.8103997
146	0xbf254464	-0.6455748
147	0xc009dd96	-2.1541495
148	0xc0009595	-2.0091298
149	0xbe95eed3	-0.2928377
150	0xbe97569d	-0.29558268
151	0xbdf14cf1	-0.117822535
152	0xbe000466	-0.12501678
153	0x3eb226e1	0.34795287
154	0x3e076a16	0.13224062
155	0xbd35c363	-0.04437579
156	0xbe2f74d5	-0.17134412
157	0x3fbe082f	1.4846247
158	0x3f869eee	1.0517251
159	0xbc82a7f7	-0.015949233
160	0x3ed3ee2a	0.41392642
161	0x3b0db38a	0.0021621906
162	0x3d405180	0.046952724
163	0x3eb66c9a	0.3562973
164	0xbdb55e7a	-0.088559106
165	0xbe11935a	-0.14216366
166	0x3dc61c13	0.096733235
167	0x3fd9f0c6	1.7026603
168	0x3f862838	1.0481024
169	0xbb7927d4	-0.0038018124
170	0xbf1a875a	-0.6036278
171	0xbe93cb56	-0.2886607
172	0xbe922408	-0.28543115
173	0xbeffe28a	-0.49977523
174	0xbe6529ca	-0.22379223
175	0x3f3e69ad	0.7438
176	0xbee44b8b	-0.44588885
177	0xc0139e37	-2.3065317
178	0xc00640dd	-2.097709
179	0xbe83569b	-0.25652012
180	0x3eb4ffe5	0.35351482
181	0x3d2267d6	0.039649807
182	0x3dc1344b	0.09433802
183	0x3ea668b9	0.32501772
184	0x3e084169	0.13306202
185	0xbc0ce0c3	-0.008598509
186	0xbe621f8c	-0.22082347
187	0x3ff08769	1.8791324
188	0x3fa2d35a	1.2720749
189	0xbe1f3323	-0.15546851
190	0x3e15f903	0.14645772
191	0x3ebcba11	0.36860707
192	0xbdc20aa1	-0.094746836
193	0xbeaadc12	-0.33371025
194	0xbd104bc4	-0.035228506
195	0x3e9fc82a	0.312074
196	0xbe12b8da	-0.14328328
197	0x3fd9d3e4	1.7017789
198	0x3f237ea0	0.6386509
199	0xbe26fd50	-0.16307569
200	0x3ee49f26	0.4465267
201	0xbea3ce49	-0.3199332
202	0xbe913f3d	-0.2836856
203	0x3ead5c7c	0.33859622
204	0xbdd5ce69	-0.1043976
205	0xbe42d67a	-0.19027129
206	0x3d3e48ff	0.046456333
207	0x3fbc54f7	1.4713429
208	0x3fc1a410	1.5128193
209	0x3e869074	0.26282084
210	0x3e026239	0.12732781
211	0x3dadc192	0.08484186
212	0x3e0a17d4	0.13485652
213	0x3eeb4a4a	0.45955116
214	0xbe072b14	-0.13200027
215	0xbd825ce7	-0.06365376
216	0x3df823c9	0.121162005
217	0x3fb0bd03	1.3807682
218	0x3f9153ac	1.135366
219	0x3e15e819	0.1463932
220	0xbdc385ce	-0.095470056
221	0x3d28d593	0.041219305
222	0x3ddb6928	0.10713416
223	0x3ea3a309	0.31960323
224	0xbd55cc66	-0.052196883
225	0xbe024868	-0.12722933
226	0x3dd20ef8	0.10256761
227	0x3fb7f83d	1.4372631
228	0x3fc63ef5	1.5487963
229	0xbe35d357	-0.17756401
230	0x3f2352a1	0.63797957
231	0xbda96927	-0.08272009
232	0xbda09d99	-0.07842559
233	0xbebf1ed0	-0.37328196
234	0x3e71dbf8	0.23619068
235	0x3f7a4515	0.9776166
236	0x3df83009	0.12118537
237	0x3ffd98cd	1.9812256
238	0x3f919eda	1.1376603
239	0xbe30aebe	-0.17254159
240	0x3f5333a7	0.8250069
241	0x3eac9ac0	0.33711815
242	0x3e52a3d0	0.20570302
243	0x3f111590	0.56673527
244	0xbe1d7d20	-0.15379763
245	0xbe1ab7e6	-0.15109214
246	0xbd1a360a	-0.037649192
247	0x3fdc2a5d	1.7200428
248	0x3fa78831	1.3088437
249	0xbef46371	-0.47732118
250	0x3ea9d7f8	0.33172584
251	0xbddb8214	-0.1071817
252	0xbd905fe9	-0.070495434
253	0x3e3d9c06	0.1851655
254	0x3e64db27	0.22349225
255	0xbe2432c8	-0.16034997

fc1.bias f4 [128]
0	0x404bc06f	3.1836202
1	0xbe2a845a	-0.1665205
2	0x40410273	3.0157745
3	0x4049f459	3.1555388
4	0x3e8db3e4	0.27676308
5	0x4050f54b	3.2649715
6	0x405885db	3.38317
7	0x4021306a	2.51858
8	0x4060875f	3.5082624
9	0x4058a555	3.385091
10	0x3fa56c53	1.2923683
11	0x405e46e2	3.4730763
12	0x403c8f3c	2.9462423
13	0x402b1c32	2.673596
14	0x4036b738	2.8549328
15	0x4048d2d6	3.1378684
16	0x40650e9c	3.5790167
17	0x4036a69e	2.8539195
18	0x40577b46	3.366899
19	0x404381c5	3.0547955
20	0x403a8166	2.9141479
21	0x40540afe	3.313171
22	0x405ebd76	3.4803138
23	0x4049e182	3.154389
24	0x404923b4	3.1428041
25	0x405ec981	3.4810488
26	0x3fdb3b27	1.7127427
27	0x3f67f83d	0.90613157
28	0x402cf4b7	2.7024362
29	0x401b9d35	2.4314702
30	0x3f6efae9	0.9335161
31	0x4053dbc8	3.3102894
32	0x3f917466	1.1363647
33	0x404c490c	3.1919584
34	0x3f98d7f6	1.1940906
35	0x404d6c69	3.2097418
36	0x40481973	3.1265533
37	0x40511357	3.2668054
38	0x403d424c	2.9571714
39	0x401eae8e	2.479404
40	0x402eba0b	2.7301052
41	0x40367a26	2.8512053
42	0x403dc2d2	2.965016
43	0x40600005	3.5000012
44	0x40585b84	3.3805857
45	0x403c5df1	2.9432337
46	0x4055c0e8	3.339899
47	0x405aabf6	3.4167457
48	0x4052d77f	3.2944028
49	0x40417c19	3.0231993
50	0x3fd138b7	1.6345433
51	0x40588ddf	3.3836591
52	0x3e96cc1c	0.29452598
53	0x4033a2cb	2.806811
54	0x4044b19e	3.073341
55	0x4049d249	3.1534598
56	0x404ff048	3.2490406
57	0x404a46e4	3.1605768
58	0x402c258c	2.6897917
59	0x4002330d	2.034366
60	0x402af4de	2.6711955
61	0x405259d6	3.2867332
62	0x3eb6e6a3	0.35722837
63	0x405ab538	3.4173107
64	0x406791ca	3.6182733
65	0x40603c7d	3.503692
66	0x40505ea6	3.255777
67	0x4053d94e	3.3101382
68	0xbf087a86	-0.53311956
69	0x402d4515	2.7073414
70	0x40489231	3.1339228
71	0x40003de8	2.0037785
72	0x404c7521	3.194649
73	0x4053265d	3.2992165
74	0x4059dc49	3.4040701
75	0x40370e18	2.8602352
76	0x405a82c0	3.4142303
77	0x4044cbfe	3.0749507
78	0x40574b64	3.3639765
79	0x40699d90	3.6502419
80	0x405ffb9c	3.499732
81	0xbe8c1b6d	-0.27364674
82	0x3f5d9188	0.8655019
83	0x4052ffd0	3.2968636
84	0x3e7a162d	0.24422522
85	0x404aeb29	3.170603
86	0x402ce416	2.7014213
87	0x40576df6	3.3660865
88	0x3f89b7ed	1.0759255
89	0x4050f82e	3.2651477
90	0x3f634988	0.88784075
91	0x40479db9	3.1190016
92	0x405097df	3.2592695
93	0x400fbacd	2.2457764
94	0x404f7087	3.2412431
95	0x404e8d2f	3.2273672
96	0x4011b6ff	2.2767942
97	0x405d797b	3.4605396
98	0x3f743293	0.9538967
99	0x3f917ab2	1.1365569
100	0x402b1352	2.6730542
101	0x405d6b51	3.459675
102	0x403d6772	2.9594388
103	0x4001df6e	2.029262
104	0x4052fd16	3.2966971
105	0x4061f965	3.5308468
106	0x405276ac	3.2884932
107	0x40498dc1	3.149277
108	0x40587995	3.3824208
109	0xbb3cafa3	-0.002879121
110	0x3f749aaf	0.9554853
111	0x4063d636	3.5599494
112	0x4034e019	2.8261778
113	0x3fe21d22	1.7665141
114	0x405c8f94	3.4462633
115	0x40573a08	3.362917
116	0x405e4b50	3.4733467
117	0x400b3888	2.1753254
118	0x3f9846fe	1.1896665
119	0x403baa8e	2.9322848
120	0x404ce624	3.2015467
121	0x3e4e450f	0.20143531
122	0x400a5de5	2.1619809
123	0x3f39aa42	0.7252542
124	0x405708ea	3.359919
125	0x402d020f	2.7032506
126	0x404e0d8f	3.2195776
127	0x3fef4b6b	1.8694891

fc2.weight f4 [64, 128]
0	0x3f9fdbad	1.2488915
1	0x3fdea730	1.7394772
2	0x3fb2549b	1.393207
3	0x3fde98a8	1.7390337
4	0x3f8ce350	1.100687
5	0x3f717538	0.94319487
6	0x3fab0534	1.3360963
7	0x3f1dd932	0.6165954
8	0x3f6e7497	0.9314665
9	0x3fe9af1a	1.8256562
10	0x3fbd93c8	1.4810724
11	0x3fd9e779	1.7023765
12	0x3f12eb00	0.5738983
13	0x3fbe02bd	1.4844586
14	0x3f366301	0.7124482
15	0x3fcbd56e	1.5924509
16	0x3f8c5bad	1.0965477
17	0x3f4da1f9	0.80325276
18	0x3f503960	0.8133755
19	0x3f2c6a8e	0.6735009
20	0x3fc9496c	1.5725532
21	0x3fd7616c	1.6826606
22	0x3f863306	1.0484321
23	0x3f71badd	0.94425756
24	0x3f4112e6	0.7541946
25	0x3fbb6dac	1.4642844
26	0x3f1ea1a8	0.6196542
27	0x3f87b9e2	1.0603602
28	0x3f2d3a76	0.6766733
29	0x3fcaea37	1.5852727
30	0x3f242fe6	0.6413559
31	0x3fd7a92a	1.68485
32	0x3f2a459f	0.66512483
33	0x3ffa7e08	1.9569712
34	0x3fcf5e67	1.6200684
35	0x3ff20776	1.8908527
36	0x3fe0d6c1	1.7565538
37	0x3fd48467	1.6602906
38	0x3f78b731	0.9715453
39	0x3f3f131d	0.7463854
40	0x3f186642	0.59531033
41	0x3faf1e0f	1.3681048
42	0x3fce6505	1.6124579
43	0x3f4f2337	0.8091311
44	0x3fd31d82	1.649338
45	0x3f39564b	0.723973
46	0x3fd3904f	1.6528414
47	0x3f387ea8	0.7206826
48	0x3fd7792a	1.6833851
49	0x3ff39d46	1.9032371
50	0x3fb366b3	1.4015716
51	0x3f71f0e6	0.94508207
52	0x3f99e8ca	1.2024167
53	0x3fe74319	1.8067352
54	0x3ed76751	0.42071012
55	0x3ffb8dfc	1.9652705
56	0x3f559785	0.83434325
57	0x3f601403	0.87530535
58	0x3f26d5f0	0.6517019
59	0x3fbf577e	1.4948575
60	0x3f4013d9	0.75030285
61	0x3fd257ca	1.6433041
62	0x3f80240b	1.0011
63	0x3f4fbe25	0.8114951
64	0x3f48a7d5	0.7838109
65	0x3f3b810f	0.732438
66	0x3fd7e4e1	1.6866723
67	0x3f391c2d	0.7230862
68	0x3fcec8c7	1.6155022
69	0x3f1921b2	0.5981704
70	0x3f35753d	0.70882016
71	0x3f1d735f	0.6150417
72	0x3fea43cb	1.8301939
73	0x3fc92874	1.571547
74	0x3fcd2fee	1.6030252
75	0x3f611135	0.8791688
76	0x3fc92883	1.5715488
77	0x3f660b6e	0.8986119
78	0x3f14a55b	0.5806481
79	0x3f595903	0.84901446
80	0x3f6928f5	0.9107812
81	0x3fa05399	1.2525512
82	0x3f5b2e86	0.85617864
83	0x3fdac0f6	1.7090137
84	0x3f3413ba	0.703426
85	0x3fc06cfd	1.503326
86	0x3fe69135	1.8013064
87	0x3f80f339	1.0074226
88	0x3f98e239	1.1944038
89	0x3fc82f02	1.5639346
90	0x3f36de3e	0.71432865
91	0x3fd957b1	1.6979886
92	0x3f2d1a7e	0.6761855
93	0x3fc3b30a	1.5289013
94	0x3f76ea81	0.96451575
95	0x3f6356c6	0.8880428
96	0x3f3bec4d	0.7340744
97	0x3f8f7006	1.1206062
98	0x3f31f8a8	0.69520044
99	0x3f4d9147	0.802998
100	0x3ffbb276	1.9663837
101	0x3f60b2c6	0.87772787
102	0x3ff1380b	1.8845228
103	0x3f7da3e9	0.9907823
104	0x3f1845ed	0.594817
105	0x3fbb4911	1.4631673
106	0x3f258a9b	0.6466462
107	0x3feb6767	1.8390931
108	0x3f9a5123	1.2056011
109	0x3f61add9	0.88155895
110	0x3f75b1fa	0.95974696
111	0x3f69b17f	0.9128646
112	0x3f3634f0	0.71174526
113	0x3efaf652	0.49016052
114	0x3fd7afed	1.6850563
115	0x3f267082	0.65015423
116	0x3fe6e732	1.8039305
117	0x3f372e3d	0.7155493
118	0x3fc399fe	1.528137
119	0x3f57e50e	0.84333885
120	0x3fcdf73c	1.6091075
121	0x3f78f911	0.97255045
122	0x3f196daf	0.5993299
123	0x3f2e2b91	0.6803523
124	0x3fd221de	1.6416585
125	0x3fcd5198	1.6040525
126	0x3fe84631	1.8146421
127	0x3f40e06f	0.7534246
128	0x3fb932b4	1.4468598
129	0x3fe22f79	1.7670738
130	0x3fabfc07	1.3436288
131	0x3fecf2d3	1.8511604
132	0x3f68a303	0.90873736
133	0x3f8ea61c	1.1144443
134	0x3fb0086e	1.3752573
135	0x3f284f98	0.6574645
136	0x3f74ebdf	0.9567241
137	0x3fd82180	1.6885223
138	0x3fadd12a	1.3579457
139	0x3fea167e	1.8288114
140	0x3f169f45	0.58836776
141	0x3fcee3a0	1.6163216
142	0x3f5bc388	0.8584523
143	0x3fda6e73	1.7064956
144	0x3f91c99f	1.1389655
145	0x3f6ec5cf	0.9327058
146	0x3f76f7b1	0.964717
147	0x3f388dfd	0.72091657
148	0x3fcb3fcf	1.5878848
149	0x3fd1808e	1.6367357
150	0x3f779034	0.9670441
151	0x3f56742b	0.8377101
152	0x3f537cb2	0.82612145
153	0x3fad45a5	1.3536879
154	0x3f2f6876	0.6851877
155	0x3f8bf6b7	1.0934666
156	0x3f54755b	0.8299157
157	0x3fd14ab5	1.6350924
158	0x3f3bc957	0.73354095
159	0x3fd3fd58	1.6561689
160	0x3f3b551d	0.7317675
161	0x3ff2c994	1.8967767
162	0x3fd4358a	1.6578839
163	0x3feb5f77	1.8388509
164	0x3fd86bc2	1.6907885
165	0x3fd3a81c	1.6535678
166	0x3f58f16f	0.847434
167	0x3f25f53a	0.6482731
168	0x3f068ec1	0.52561575
169	0x3fa73acc	1.3064818
170	0x3fceb9d8	1.6150465
171	0x3f242093	0.64112204
172	0x3fd5c547	1.6700829
173	0x3f2f0625	0.6836875
174	0x3fd0aa3e	1.6301954
175	0x3f5837d3	0.8446018
176	0x3fcb9a08	1.5906382
177	0x3fe64a65	1.7991453
178	0x3fa63989	1.2986308
179	0x3f6be2fe	0.9214324
180	0x3f82df21	1.0224344
181	0x3ff3a92a	1.9036
182	0x3f0691ea	0.525664
183	0x3ffcc6e9	1.9748203
184	0x3f662e8a	0.8991476
185	0x3f4fc2fa	0.81156886
186	0x3f456742	0.77110684
187	0x3fa5a1ce	1.2940004
188	0x3f2693ee	0.6506947
189	0x3fe03e76	1.7519062
190	0x3f62000b	0.88281316
191	0x3f534a24	0.82535005
192	0x3f589e07	0.8461613
193	0x3f4617c5	0.7738002
194	0x3fd889c3	1.6917042
195	0x3f3fd5f4	0.7493584
196	0x3fd6bc3c	1.6776195
197	0x3f2372f8	0.63847303
198	0x3f3aca88	0.7296529
199	0x3f224c9c	0.63398147
200	0x3ff33d32	1.900305
201	0x3fd4ccd6	1.6625011
202	0x3fd0aa29	1.6301929
203	0x3f5b5976	0.8568338
204	0x3fba2544	1.4542623
205	0x3f791116	0.97291696
206	0x3f1a4b71	0.60271364
207	0x3f502785	0.813103
208	0x3f56cc86	0.8390583
209	0x3faa2170	1.3291454
210	0x3f7c2464	0.9849303
211	0x3fe401fa	1.7813103
212	0x3f3c8754	0.73643994
213	0x3fcea625	1.6144453
214	0x3fdd3549	1.7281886
215	0x3f793dde	0.97360027
216	0x3f936f72	1.1518385
217	0x3fc72fe6	1.5561492
218	0x3f1c8663	0.6114256
219	0x3fea2a2e	1.8294122
220	0x3f1a0924	0.601702
221	0x3fca90da	1.5825455
222	0x3f827c8a	1.0194256
223	0x3f5b8426	0.8574852
224	0x3f3c9e03	0.73678607
225	0x3f86f429	1.0543262
226	0x3f2c9f2a	0.67430365
227	0x3f4042f3	0.75102156
228	0x400235ba	2.0345292
229	0x3f6617b4	0.8987992
230	0x3ff02cae	1.8763635
231	0x3f69a957	0.9127402
232	0x3f0479f7	0.51748604
233	0x3fa6f132	1.3042357
234	0x3f47b35c	0.78008056
235	0x3fed2c67	1.8529176
236	0x3f848e5a	1.0355942
237	0x3f5f823b	0.8730809
238	0x3f67e795	0.9058774
239	0x3f712e27	0.9421105
240	0x3f16541a	0.5872208
241	0x3f0ab40c	0.5418098
242	0x3fc17c9c	1.5116153
243	0x3f18b4f8	0.59651136
244	0x3feab2b6	1.8335788
245	0x3f3e2e20	0.7428913
246	0x3fc720c6	1.5556877
247	0x3f685a52	0.9076282
248	0x3fd502b0	1.6641445
249	0x3f774150	0.96584034
250	0x3f1385fd	0.57626325
251	0x3f4a36e1	0.7898999
252	0x3fdb3e85	1.7128454
253	0x3fc3af97	1.5287961
254	0x3fe27991	1.7693349
255	0x3f4a685d	0.79065496

fc2.bias f4 [64]
0	0x402a74dd	2.6633828
1	0x40337e46	2.804582
2	0x40358c83	2.8367012
3	0x4031f8eb	2.7808177
4	0x403851c1	2.8799899
5	0x402fbaaa	2.745768
6	0x402e3061	2.7217028
7	0x402d4dc9	2.7078726
8	0x402d116b	2.704188
9	0x4031e6e8	2.7797184
10	0x402c6006	2.6933608
11	0x4031e903	2.779847
12	0x402ecd4c	2.7312803
13	0x40301595	2.7513173
14	0x402dce63	2.7157218
15	0x403c16ac	2.9388838
16	0x402f2ba8	2.7370396
17	0x4023bd16	2.558416
18	0x402e896c	2.7271376
19	0x403803c9	2.875231
20	0x402a9b5a	2.665732
21	0x402e8be2	2.7272878
22	0x40314024	2.7695398
23	0x403167a0	2.7719498
24	0x40269732	2.6029782
25	0x402fcccc	2.7468748
26	0x402bde61	2.685448
27	0x40314b0f	2.7702062
28	0x403195d5	2.77477
29	0x402f01d4	2.7344866
30	0x4038731e	2.8820262
31	0x4033d8f6	2.8101172
32	0x403c607d	2.9433892
33	0x402bc187	2.683687
34	0x402deb7a	2.7174973
35	0x402f990e	2.7437167
36	0x402f5394	2.7394762
37	0x40325644	2.7865152
38	0x403115ce	2.7669559
39	0x40300759	2.7504485
40	0x402d8920	2.7114944
41	0x40321472	2.782498
42	0x4035152c	2.8294172
43	0x402e09d5	2.71935
44	0x40346ea2	2.8192525
45	0x40394346	2.894731
46	0x402e1625	2.7201016
47	0x40355a7d	2.833648
48	0x403531c8	2.8311634
49	0x40254a06	2.582643
50	0x4061a495	3.5256703
51	0x4040c18e	3.0118136
52	0x402c6959	2.69393
53	0x402fef02	2.7489629
54	0x40281d09	2.6267722
55	0x40332f8f	2.7997777
56	0x40399399	2.8996336
57	0x402a4ca1	2.660927
58	0x402770ef	2.616268
59	0x402df8e3	2.7183158
60	0x40322f8c	2.784152
61	0x402e82d2	2.7267346
62	0x403426a2	2.814858
63	0x4031c8cc	2.7778807

fc3.weight f4 [32, 64]
0	0x3f72ed00	0.94892883
1	0x3f80b483	1.0055088
2	0x3f67ed39	0.9059635
3	0x3f5d95e7	0.8655686
4	0x3f577095	0.8415616
5	0x3f5e329e	0.86795986
6	0x3f84fc7e	1.0389555
7	0x3f449bd9	0.76800305
8	0x3f5b0308	0.855515
9	0x3f526cb5	0.82197124
10	0x3f72851e	0.9473437
11	0x3f72746c	0.94708896
12	0x3f837471	1.026991
13	0x3f81d4a8	1.0143023
14	0x3f80f6bf	1.0075301
15	0x3f4d9f3b	0.8032109
16	0x3f44477d	0.7667158
17	0x3f65ae6b	0.89719266
18	0x3f67a39d	0.9048403
19	0x3f8148f4	1.0100389
20	0x3f787457	0.9705252
21	0x3f737edc	0.9511545
22	0x3f8151d6	1.0103099
23	0x3f69e744	0.9136851
24	0x3f547a95	0.82999545
25	0x3f4941d5	0.78616077
26	0x3f5995c2	0.8499414
27	0x3f67211f	0.90284914
28	0x3f6e96e8	0.93199015
29	0x3f83535b	1.0259813
30	0x3f49f82d	0.7889431
31	0x3f4f67f5	0.81018
32	0x3f7a5489	0.9778524
33	0x3f5ab427	0.8543114
34	0x3f4ad3da	0.7922951
35	0x3f714a57	0.9425406
36	0x3f83c690	1.0294971
37	0x3f821e9c	1.0165591
38	0x3f698788	0.9122243
39	0x3f7adfa5	0.97997504
40	0x3f652d8b	0.8952262
41	0x3f85d94a	1.0456936
42	0x3f5fc524	0.8741019
43	0x3f77f826	0.9686302
44	0x3f7dff72	0.99217904
45	0x3f6df43e	0.9295081
46	0x3f72d3cc	0.94854426
47	0x3f7dfe6e	0.99216354
48	0x3f61f51a	0.8826462
49	0x3f6df059	0.92944866
50	0x3f5ecb54	0.87029004
51	0x3f6d190b	0.9261634
52	0x3f5d3b25	0.8641837
53	0x3f71078f	0.9415216
54	0x3f61dc6c	0.8822696
55	0x3f52b8dc	0.82313323
56	0x3f57cdc4	0.8429835
57	0x3f705250	0.938756
58	0x3f5a4979	0.8526836
59	0x3f5ab4e2	0.85432255
60	0x3f857cb0	1.0428677
61	0x3f853bc5	1.0408865
62	0x3f633dd5	0.88766223
63	0x3f70f03c	0.9411657
64	0x3d2b60fc	0.04184054
65	0x3d5051e9	0.050859366
66	0xbd7a2809	-0.061073337
67	0x3d22af69	0.039718065
68	0x3cda2735	0.026630023
69	0xbe113f21	-0.14184238
70	0x3cbd770e	0.023128059
71	0x3de2bbb8	0.11070961
72	0x3cb54d75	0.022131661
73	0x3d3d58ed	0.046227384
74	0xbd2bfa9e	-0.041987054
75	0xbdb87e95	-0.090085186
76	0x3ca8e395	0.020616332
77	0x3c86242f	0.016374676
78	0xbdc79a97	-0.097462825
79	0xbe0718d9	-0.13193072
80	0xbbf98835	-0.007615114
81	0x3d5de1e1	0.054170493
82	0x3db5db72	0.088797465
83	0xbda134c9	-0.07871396
84	0xbc8f7eea	-0.017516572
85	0xbdf7cb9f	-0.120993845
86	0xbcd6278f	-0.02614191
87	0xbe0036a6	-0.12520847
88	0x3d4db734	0.050223544
89	0x3d033c5b	0.03203998
90	0x3c4631a7	0.012096799
91	0xbd44d4f1	-0.04805464
92	0x3da527b0	0.080642104
93	0x3dd14b68	0.10219461
94	0xbe08268d	-0.13295956
95	0xbce2ab64	-0.027669616
96	0xbdc85b69	-0.0978306
97	0xbd8fe524	-0.07026127
98	0xbcc99664	-0.024607845
99	0xbdffd905	-0.12492565
100	0xbdd42eed	-0.10360513
101	0xbd86b00e	-0.065765485
102	0x3c8a537a	0.016885508
103	0x3ca47233	0.020073986
104	0x3b1e83c7	0.0024187432
105	0xbd568c1c	-0.052379712
106	0xbc0c71e8	-0.008572079
107	0xbdc63b73	-0.09679308
108	0x3dc70358	0.09717435
109	0xbd4f5253	-0.05061562
110	0xbd82e9fe	-0.06392287
111	0xbdafbe26	-0.0858119
112	0xbdebe1d1	-0.115176804
113	0xbddc02a5	-0.10742692
114	0xbd934f85	-0.071929015
115	0xbd121790	-0.035667002
116	0x3b68d3df	0.0035526676
117	0x3d239ef0	0.039946496
118	0xbdb46685	-0.088086165
119	0x3dc68fe2	0.09695412
120	0xbd329c1b	-0.043605905
121	0x3dbc4d87	0.09194475
122	0x3dafb422	0.085792795
123	0xbd944a58	-0.072407424
124	0xbd294099	-0.04132137
125	0xbd69fa64	-0.057123557
126	0xbe01c00c	-0.12670916
127	0xbd95e01e	-0.073181376
128	0x3a86e3c9	0.0010291274
129	0xbd659035	-0.05604573
130	0xbd851c8a	-0.06499584
131	0xbde729c4	-0.11287263
132	0x3d98c811	0.07460035
133	0xbccad6cc	-0.024760626
134	0xbda7c5f7	-0.08192056
135	0xbde4c5ce	-0.11170541
136	0xbdc2d1ae	-0.095126495
137	0x3dbea261	0.09308315
138	0x3c871ed8	0.0164942
139	0xbc66912d	-0.014072699
140	0xbd886dbb	-0.066615544
141	0x3d40b29a	0.047045328
142	0xbe0db6cd	-0.13839264
143	0xbe03cc4d	-0.12870903
144	0xbdabb993	-0.08385005
145	0xbbd2fb42	-0.0064386437
146	0xbd3ffd3e	-0.04687237
147	0xbcb68417	-0.022279782
148	0x3c5fb8a8	0.013654865
149	0xbde353e3	-0.110999845
150	0xbde8349b	-0.11338159
151	0xbd958903	-0.073015235
152	0xbddaea2a	-0.106891945
153	0x3d9da3b7	0.07697242
154	0xbd532165	-0.05154552
155	0xbc3d4fd0	-0.011554673
156	0xbc39d827	-0.011343039
157	0x3da2bd90	0.079463124
158	0xbcbd7e56	-0.02313153
159	0xbde2d70a	-0.11076172
160	0x3d9fe652	0.07807602
161	0xbbfba61d	-0.0076797144
162	0x3cfbb343	0.030725127
163	0xbe00e259	-0.12586345
164	0xbdd4c069	-0.10388262
165	0xbc4f83cb	-0.012665699
166	0xbdb50108	-0.08838087
167	0xbe128d82	-0.14311793
168	0x3d9af3e6	0.07566051
169	0x3dae528b	0.085118376
170	0xbde89f2f	-0.11358487
171	0xbe09b0e3	-0.13446383
172	0xbdc7dacb	-0.09758528
173	0xbccb3c3f	-0.024809001
174	0xbd3cd260	-0.046099067
175	0xbd8279b7	-0.063708715
176	0xbddb8fa2	-0.10720755
177	0x3bb16e0f	0.0054147313
178	0x3d04d699	0.03243122
179	0x3c2f1d18	0.010688089
180	0x3ca5e9b0	0.020253032
181	0x3d328064	0.043579474
182	0x3d6d458c	0.057927653
183	0x3bacb91e	0.005271091
184	0x3dbf8abc	0.09352633
185	0x3b715bc3	0.0036828376
186	0x3d864922	0.06556918
187	0x3c5f2dd5	0.013621767
188	0xbc3e5953	-0.011617976
189	0x3b870a51	0.004121103
190	0xbe021ef1	-0.12707116
191	0xbdf2f2b8	-0.11862701
192	0x3f810fb0	1.0082912
193	0x3f75859c	0.95906997
194	0x3f552fe8	0.83276224
195	0x3f83d69f	1.0299872
196	0x3f69c361	0.9131375
197	0x3f684b24	0.90739655
198	0x3f7f9143	0.99831027
199	0x3f684f40	0.90745926
200	0x3f515014	0.81762815
201	0x3f7645d2	0.9620029
202	0x3f6b10cb	0.918225
203	0x3f593323	0.84843653
204	0x3f51e2d5	0.81986743
205	0x3f5c02ec	0.8594196
206	0x3f830903	1.0237125
207	0x3f59af2f	0.85032934
208	0x3f72c490	0.9483118
209	0x3f48f3f4	0.7849724
210	0x3f5682e8	0.837935
211	0x3f48eda9	0.7848764
212	0x3f772a67	0.96549076
213	0x3f4d8c9e	0.8029269
214	0x3f521e0b	0.8207709
215	0x3f5eabc6	0.86980855
216	0x3f733c0c	0.950135
217	0x3f52b352	0.8230487
218	0x3f61d914	0.8822186
219	0x3f821f01	1.0165712
220	0x3f6a63f6	0.9155878
221	0x3f814ae2	1.0100977
222	0x3f6b341f	0.91876405
223	0x3f780ed9	0.96897656
224	0x3f5fe257	0.8745474
225	0x3f6cc199	0.92482907
226	0x3f776977	0.966453
227	0x3f582902	0.8443757
228	0x3f6f4095	0.9345792
229	0x3f6c9c90	0.92426395
230	0x3f593ce7	0.84858555
231	0x3f6c8214	0.92385983
232	0x3f6562b5	0.8960374
233	0x3f528654	0.8223622
234	0x3f7f2cb0	0.9967756
235	0x3f5348c3	0.825329
236	0x3f821d0c	1.0165114
237	0x3f862f48	1.0483179
238	0x3f777c8f	0.96674436
239	0x3f4ceef4	0.80052114
240	0x3f54d7fe	0.8314208
241	0x3f50ac60	0.81513023
242	0x3f5620c7	0.83643764
243	0x3f4d03bf	0.8008384
244	0x3f773b48	0.9657483
245	0x3f652254	0.89505506
246	0x3f7b95d0	0.9827547
247	0x3f6626d4	0.89902997
248	0x3f47d54a	0.7805983
249	0x3f62e26c	0.8862674
250	0x3f6863c3	0.90777224
251	0x3f73e9f1	0.9527884
252	0x3f514aa1	0.817545
253	0x3f6b3b01	0.9188691
254	0x3f82ed30	1.0228634
255	0x3f82e3c4	1.0225759

fc3.bias f4 [32]
0	0x4086dfcf	4.2148204
1	0x3d18e321	0.037325982
2	0x3d1fd4f7	0.03902146
3	0x40861fab	4.1913657
4	0x3db1b8a3	0.08677795
5	0x4082a26f	4.0823283
6	0x408437ea	4.1318254
7	0x3d47da68	0.048792273
8	0xbda3a23f	-0.0798993
9	0x4085cf0c	4.1815243
10	0x4083c6d9	4.1180234
11	0x3966f18d	0.00022024494
12	0x4084e493	4.152902
13	0x4081f642	4.061311
14	0x40870ead	4.2205415
15	0x4084f98e	4.155463
16	0xbdb4b8df	-0.08824324
17	0xbd3a0dca	-0.045423307
18	0x407f5fe4	3.9902277
19	0xbd163063	-0.03666724
20	0x4083b05c	4.1152782
21	0xbdb56a2e	-0.08858143
22	0x407d73fb	3.960204
23	0x4082b438	4.0844994
24	0x3b508eb9	0.003182335
25	0x4082203b	4.0664344
26	0x408489cc	4.141821
27	0x3db5f2bd	0.08884189
28	0x4087f40b	4.2485404
29	0x40820764	4.063402
30	0x40816a16	4.0442
31	0x3dc9bdf8	0.09850687

fc4.weight f4 [1, 32]
0	0x3f757193	0.95876426
1	0xbd6ecd59	-0.058301304
2	0xbdc01a77	-0.09380048
3	0x3f8161ce	1.0107973
4	0xbdffc345	-0.124884166
5	0x3f732736	0.94981706
6	0x3f75b578	0.95980024
7	0xbd891cf8	-0.066949785
8	0xbd9e879e	-0.07740711
9	0x3f6f3a9f	0.93448824
10	0x3f847d46	1.035073
11	0xbe0d6728	-0.13808882
12	0x3f6f3568	0.93440866
13	0x3f8c0e20	1.0941811
14	0x3f77f2ef	0.9685506
15	0x3f873ee3	1.0566067
16	0xbd8425d0	-0.06452525
17	0xbdcad275	-0.09903423
18	0x3f8bdb58	1.0926313
19	0x3ce6150c	0.028086208
20	0x3f824a97	1.0179013
21	0xbd6afca1	-0.057369832
22	0x3f86940e	1.0513933
23	0x3f8b0aa4	1.0862622
24	0xbcaf9c7e	-0.021436926
25	0x3f7583f9	0.959045
26	0x3f7a6884	0.9781573
27	0xbe14b5ed	-0.14522524
28	0x3f75e8f1	0.96058565
29	0x3f7df009	0.9919439
30	0x3f79945e	0.97492015
31	0xbc2d5714	-0.010579843
