Model/Pre Trained Model/Results/2000000 Initial Capital/10 Properties/real_estate_ai_model_rental.pt (torch, 16368 bytes, 7 tensors)

fc1.weight f4 [64, 8]
000000 60 09 b2 3f 3f f5 d6 bd c8 52 68 3d 2f 64 c3 3d
       1.3909111 -0.10495996 0.05671957 0.09540593
000010 60 85 d3 3c a9 48 80 3c 7a bc e2 bc 00 f0 83 3d
       0.025820434 0.015659647 -0.027677763 0.06442261
000020 e6 80 8d 3f c5 5d 9c 3e b9 18 17 3e 15 24 01 3e
       1.1054962 0.3054029 0.14755525 0.1261142
000030 ed bb db bd 29 dd ab bb 03 15 0c bc 0f a6 70 3e
       -0.107292034 -0.00524487 -0.008549931 0.23500846
000040 9c c8 89 3f 2a e9 b8 bd 58 03 50 3e 95 6c 7b 3e
       1.0764346 -0.090288475 0.20313776 0.2455314
000050 5f c2 62 3c f9 a3 cc 3b a2 4c 31 bc ec e8 33 bd
       0.013840287 0.006245133 -0.010821493 -0.043923303
000060 67 a1 9e 3f 3f 0d 1e be 54 49 41 bd 23 cf b0 bc
       1.2393006 -0.1543474 -0.04718907 -0.021583145
000070 da 6e 68 3d 3f 32 7d be 82 e2 0a 3d 33 01 bd 3e
       0.05674634 -0.24726199 0.03390742 0.36914977
000080 d2 76 bd 3f 99 22 96 bd 19 50 59 3e 1d db 8a 3e
       1.4801886 -0.07330818 0.21221961 0.27120295
000090 c7 70 42 3e 69 65 20 bc f4 8e 24 3d 67 b3 b3 3d
       0.18988334 -0.009789803 0.040175393 0.08774453
0000a0 81 be a9 3f 3f b5 e9 3e 04 8e 83 3c bf e4 bf bd
       1.3261262 0.45646092 0.01605893 -0.09369802
0000b0 87 6a f0 bd e9 15 db bd b1 21 b0 3d 59 95 05 3f
       -0.117390685 -0.106975384 0.08600176 0.5218101
0000c0 fd e2 9b 3f 19 16 d3 bd d6 de 1d 3e 7f e6 45 3e
       1.2178646 -0.10306949 0.15417036 0.19326209
0000d0 ea ba ea bc 8f 08 56 bc 70 6f 0d 3c 20 b8 c5 be
       -0.02865358 -0.013063564 0.008632526 -0.3861704
0000e0 4f 88 c0 3f 0f d0 89 bc 62 b9 96 3d 82 e4 c0 3d
       1.5041598 -0.016822843 0.07359578 0.094185844
0000f0 e6 63 b3 bc ac 15 0e bc 22 57 db 3b 3b 28 86 3d
       -0.021898221 -0.008672159 0.0066937367 0.06550642
000100 24 a8 a1 3f 46 1e 81 3c 62 6b 93 be 1a 3e 8d be
       1.2629437 0.015761506 -0.28792864 -0.27586442
000110 47 cd a0 bc af 22 b4 3d 6a 44 87 3d 96 c4 32 3e
       -0.019629134 0.08795678 0.06604846 0.17457804
000120 c4 c8 9d 3f a9 fc 5d bb 28 a5 66 3e fc 84 8c 3e
       1.2326894 -0.003387252 0.2252394 0.2744521
000130 53 bd 3b 3c 74 bd 6b bd 04 9a a7 bb 61 db d0 3e
       0.011458713 -0.057553723 -0.0051147956 0.40792373
000140 a9 e9 bd 3f 88 b4 e4 3e 34 c4 50 3d 95 80 0b bd
       1.4836932 0.44668984 0.050968364 -0.034058172
000150 f0 b6 2a be f0 5d 5a be 2e 6e f5 3b b5 09 c5 bb
       -0.16671348 -0.21324897 0.007489941 -0.00601312
000160 d8 48 bc 3f 4e e4 fb 3e ec da fc 3d 9b 5f c3 bd
       1.470973 0.4919762 0.123464435 -0.0953972
000170 fb 47 82 bd a5 9d 0e be 58 9d cb 3c 94 e8 1c 3f
       -0.063613854 -0.13927324 0.0248553 0.61292386
000180 c9 b9 9b 3f d7 f0 24 be bd e7 22 3b 97 9c cc bc
       1.2166072 -0.16107498 0.0024857365 -0.024977012
000190 a4 b8 15 3d c3 f8 45 bc ee 26 2d bd 5f 5d f8 3d
       0.03655304 -0.012083235 -0.042273454 0.12127184
0001a0 20 47 c7 3f cc a8 f2 bb ae d3 4f be 0a 83 15 be
       1.5568581 -0.007405376 -0.20295593 -0.14600769
0001b0 44 16 b8 3c bd c2 1b bc e7 76 66 bd b4 79 b5 3d
       0.022471555 -0.009506878 -0.056265738 0.08861104
0001c0 a9 e5 a5 3f 87 8c 4e be f4 99 3b be ab 5d 30 be
       1.2960712 -0.20170794 -0.18320447 -0.17223231
0001d0 de 08 1f 3d d1 60 e1 3c 25 6f b3 3b 99 6e 94 be
       0.038826816 0.027511986 0.005475896 -0.2899063
0001e0 fe be 9a 3f 61 af a2 3d cc 68 24 3d 60 66 79 3d
       1.2089536 0.07943607 0.040139005 0.060888648
0001f0 a9 b0 e0 3d 36 a8 bf bd 9d a7 9d bd 76 60 67 3e
       0.10971195 -0.093582556 -0.07697985 0.2259539
000200 f4 cb 91 3f ce 93 80 be 77 1a 39 be 2e 11 61 be
       1.1390367 -0.25112766 -0.18076502 -0.2197921
000210 69 6b ab 3d 31 f6 96 3d 6c ec c0 bb df 48 3b bc
       0.08370096 0.07371176 -0.0058875587 -0.011430948
000220 93 d0 99 3f 58 01 b9 3e 17 e7 c5 bd cf d4 66 bd
       1.2016777 0.36133838 -0.096632175 -0.056355294
000230 06 18 08 be 5f 91 a6 3d b8 83 33 3e 7f ff 6e 3c
       -0.13290414 0.08133196 0.17530715 0.014587282
000240 10 d1 9e 3f 1c 9c b2 3e 29 52 2e 3e 46 1a 4d 3e
       1.2407551 0.34884727 0.17023529 0.20029554
000250 23 fe 6f 3c 88 35 83 bd 5e d2 de bc 02 7b 30 3e
       0.014647993 -0.06406695 -0.02719992 0.17234424
000260 c9 88 98 3f 3c 07 f4 bb a8 2c 88 3e 4a 35 a2 3e
       1.1916744 -0.0074471515 0.2659657 0.3168128
000270 c0 54 0e 3e 49 a7 48 bd 59 93 19 bd de 73 a1 3e
       0.13899517 -0.04898766 -0.037494037 0.31533712
000280 f3 5a a2 3f 09 4e 11 bd e5 6c 83 bd 91 a6 a0 bc
       1.2684005 -0.03547481 -0.06417254 -0.019610675
000290 0a d2 d9 3b 6b eb 88 3c bb 04 ce 3c 17 3d 70 3d
       0.006647353 0.016713819 0.02514874 0.05865201
0002a0 fb ea 88 3f 32 af 16 be ba f7 f7 bd 1a 85 a1 bd
       1.069671 -0.14715269 -0.12107797 -0.07886715
0002b0 17 ce d4 3c 1c 8c 89 bc 13 9b 25 bc 98 ed 2b 3d
       0.025977178 -0.016790442 -0.010107773 0.041974634
0002c0 bf f8 a3 3f 70 1b a4 bd 78 a8 9b bd 85 5f 95 bd
       1.2810286 -0.08013046 -0.07600492 -0.072936095
0002d0 e7 83 db bb c2 d6 26 3c 6c 92 0a bc 65 f7 2a be
       -0.0066990736 0.010183038 -0.008457761 -0.16695936
0002e0 5a 21 a7 3f f1 ac 6a 3b c9 d0 24 bd 27 97 92 3b
       1.3057053 0.0035808648 -0.040238176 0.004473585
0002f0 09 ed 19 bc ae 2c 33 3b 91 1b e6 bc 88 97 12 3e
       -0.0093948925 0.0027339864 -0.028089317 0.14315617
000300 be 22 aa 3f 9a 4d 5b bd 49 15 0b 3d 0e 1c 9f 3d
       1.3291852 -0.053540803 0.033955846 0.07769023
000310 2f 7f d0 bc 06 ec c1 bc 68 da 94 bc c0 8f 5f be
       -0.02545127 -0.023672115 -0.01817055 -0.2183218
000320 94 ca 9e 3f a2 02 89 3e 84 ab 94 3e 95 ec 5a be
       1.2405572 0.2675982 0.29037106 -0.21379311
000330 fc c5 d0 bb 03 57 7a 3e 93 64 99 bc dc 9c aa 3c
       -0.006371258 0.24447255 -0.018724715 0.02082675
000340 1a d3 82 3f 2e 75 0b 3f 84 74 47 3e d7 fd bb be
       1.0220673 0.54475677 0.19478041 -0.36717102
000350 3c 06 12 be 53 e9 68 be df 34 36 ba 19 b9 ec 3e
       -0.1426019 -0.22745256 -0.00069506274 0.46234968
000360 e8 83 55 3f 00 9f fd 3e 96 bb 7c be 69 3a 54 be
       0.834044 0.4953537 -0.24680933 -0.20725407
000370 81 cc 32 be 15 d6 bd 3e c3 4d 1d bf ba 8a 60 bd
       -0.17460825 0.37077394 -0.6144678 -0.0548198
000380 97 a5 9d 3f 06 39 db 3e 5f c0 83 3e ae fb 85 bc
       1.2316159 0.42816943 0.25732705 -0.016355362
000390 05 2d dc bd f3 cf 1e 3d 58 07 9c be 0c 90 66 3b
       -0.10750774 0.038772535 -0.30474353 0.0035181073
0003a0 3d 0b 97 3f 81 5c b2 3d 88 3a 80 be 56 46 55 be
       1.1800305 0.0870905 -0.25044656 -0.20827612
0003b0 fa 9b 85 bd b1 b5 4d bd 03 d3 2c bb c2 b2 54 be
       -0.06523891 -0.050222103 -0.002637089 -0.20771316
0003c0 e6 8b 8e 3f b7 a7 4f 3d 49 7a 90 be 76 3e 90 be
       1.1136444 0.050697055 -0.28218296 -0.28172654
0003d0 aa 51 36 bd 5c e8 22 bd bc 4b 8c bc 3b 54 17 be
       -0.044511475 -0.039772376 -0.017125957 -0.14778225
0003e0 6f f7 ab 3f 44 a1 35 3e a8 f0 98 be b9 13 90 be
       1.3434886 0.17737299 -0.29871106 -0.28140047
0003f0 a8 3d 95 bd 2d 55 da bc 6c ab 18 3a 6a db d1 3d
       -0.072871506 -0.026651943 0.00058238837 0.10246928

fc1.bias f4 [64]
000000 fc ba e8 3f 61 d0 f2 3f 1c 7e b0 3f 28 82 e8 3f
       1.8182063 1.8969842 1.3788486 1.816472
000010 34 6c df 3f 47 55 07 40 7d a1 a3 3f bd e5 fb 3f
       1.7454896 2.11458 1.2783657 1.9679486
000020 18 35 eb 3f 2b 2b e2 3f 52 33 fd 3f 7b 2f 03 40
       1.8375578 1.7669424 1.9781287 2.049773
000030 88 44 d5 3f af 66 01 40 5a f9 a6 3f b2 3c 01 40
       1.6661539 2.0218923 1.3044846 2.0193295
000040 8d f2 b5 3f 04 fe f2 3f 6d bf 07 40 59 ff f1 3f
       1.4214646 1.898377 2.1210587 1.8906051
000050 bd f8 d6 3f c0 20 ce 3f 4d 96 b3 3f ae 60 e6 3f
       1.6794659 1.6103745 1.4030243 1.7998254
000060 bd 69 bc 3f bf 4b 07 40 26 4c 16 40 68 17 ce 3f
       1.4719769 2.1139982 2.3483977 1.6100893
000070 35 e1 00 40 d7 86 b9 3f e6 91 b8 3f d4 19 f8 3f
       2.0137455 1.4494275 1.4419525 1.9382882
000080 54 90 a5 3f 6a 53 04 40 71 7d d5 3f b5 33 02 40
       1.293467 2.0675912 1.6678907 2.034406
000090 4a 2a dd 3f 9c a3 d0 3f a0 2e bc 3f 4c 7a d3 3f
       1.7278531 1.629993 1.4701729 1.6521697
0000a0 c8 b8 dd 3f a1 91 b2 3f 05 4c 97 3f 94 2a cc 3f
       1.7322016 1.3950692 1.1820074 1.5950494
0000b0 14 a5 08 40 c9 33 07 40 c2 81 c2 3f fb f4 11 40
       2.1350756 2.1125357 1.5195849 2.2805774
0000c0 c8 ea 91 3f 26 7d fc 3f 32 1d a9 3f 64 8b c4 3f
       1.1399775 1.9725692 1.3212035 1.5355039
0000d0 34 59 06 40 fa d4 e6 3f 44 ee a6 3f 4a d2 a2 3f
       2.0991945 1.8033745 1.3041463 1.2720425
0000e0 8b a0 9b 3f f0 db 9b 3f ff 4f e9 3f a7 0a a3 3f
       1.2158369 1.2176495 1.8227538 1.2737626
0000f0 d9 3b 04 40 4d 64 05 40 ce 93 e3 3f a1 7b 0c 40
       2.0661528 2.0842469 1.7779481 2.1950457

fc2.weight f4 [32, 64]
000000 a3 e0 eb 3e 15 ea 08 3f 9d 25 48 3f 82 e2 0a 3f
       0.46069822 0.5348218 0.78182393 0.54251873
000010 70 5b 06 3f e5 c2 87 3e 1c 81 40 3f 11 6a db 3e
       0.5248327 0.2651588 0.75197005 0.4285436
000020 69 38 e7 3e 65 f2 e4 3e f2 a3 c5 3e 9e b3 5d 3e
       0.45160225 0.44716182 0.38601643 0.2165055
000030 00 55 ec 3e 18 a8 d3 3e 2d 72 56 3f c8 ff 06 3f
       0.461586 0.41339183 0.8376797 0.5273404
000040 5e 71 27 3f f9 51 e8 3e e7 5f bb 3e f1 9c 1b 3f
       0.6540736 0.4537504 0.36596605 0.6078635
000050 00 57 22 3f 0c d4 0f 3f a3 55 40 3f f4 93 1a 3f
       0.63414 0.5618293 0.7513067 0.6038201
000060 e7 44 53 3f 01 ec 2e 3e 6b 05 ad 3e a0 8d 96 3e
       0.8252701 0.17082216 0.33793196 0.29404926
000070 33 5f 79 3e 2f 63 33 3f f7 88 42 3f 25 01 e7 3e
       0.24352722 0.7007322 0.7599024 0.4511806
000080 33 f3 44 3f c6 f0 df 3e 20 c0 18 3f 1f 3d db 3e
       0.7693359 0.43738383 0.5966816 0.4282007
000090 3a f2 35 3f e3 9a 28 3f ef 0c 30 3f ca 5f 1b 3f
       0.71072733 0.6586134 0.68769735 0.6069304
0000a0 d5 20 90 3e 55 46 18 3f 34 9e 69 3f 75 8f 00 3f
       0.2815005 0.5948232 0.91257024 0.502189
0000b0 fe 8b fd 3e f5 e4 b2 3e 9b e0 0d 3f 18 b4 b2 3e
       0.49520868 0.34940305 0.55420846 0.34903026
0000c0 a8 f1 58 3f a9 03 da 3e 45 cb 20 3f a0 01 3a 3f
       0.8474374 0.42580917 0.62810165 0.7265873
0000d0 14 f0 8a 3e 2f 9a 1a 3f bc 35 2a 3f ec 98 33 3f
       0.2713629 0.60391515 0.6648824 0.70155215
0000e0 08 14 56 3f 9b b5 53 3f 98 2a dc 3e 05 c9 4e 3f
       0.83624315 0.8269898 0.43001246 0.8077548
0000f0 34 07 d8 3e bf 13 48 3e b7 81 d8 3e 12 3d b7 3e
       0.42192996 0.19538783 0.42286465 0.3578878
000100 96 72 e4 3e 9d e5 cd 3e db 00 46 3f 92 a5 10 3f
       0.44618672 0.40214244 0.77345055 0.5650264
000110 77 df 19 3f 3c d0 9c 3e ed ca 56 3f 8d cd 0f 3f
       0.60106605 0.3062762 0.8390339 0.5617302
000120 5b 55 0a 3f 51 7c ff 3e c8 8c e4 3e 20 19 c9 3e
       0.5403649 0.49899533 0.44638658 0.3927698
000130 37 c7 00 3f 4d 66 fb 3e df 9d 55 3f 52 51 da 3e
       0.5030398 0.49101487 0.8344402 0.42640167
000140 a0 ea 3c 3f 4f 83 09 3f 1c a1 f0 3e 57 1c 23 3f
       0.7379551 0.53715986 0.46997917 0.6371512
000150 96 1b 21 3f 31 b0 16 3f b4 57 2d 3f 13 93 1f 3f
       0.6293272 0.58862597 0.6771195 0.6233379
000160 2e c0 42 3f bb 42 ce 3e 4d d1 b3 3e d9 bf e7 3e
       0.7607449 0.40285286 0.3512062 0.45263556
000170 58 e0 b2 3e 8f 0e 42 3f d0 1e 3d 3f 6a e5 f3 3e
       0.34936786 0.75803465 0.7387514 0.47635967
000180 31 12 74 3f c7 b8 93 3e da 1a 39 3f 7c 28 bb 3e
       0.9534026 0.2885191 0.723066 0.36554325
000190 d2 91 00 3f 81 f4 1e 3f 61 6d 33 3f 95 ba 37 3f
       0.50222504 0.62091833 0.70088774 0.71769077
0001a0 d4 73 f5 3e 8a 3a 57 3f fb 66 5b 3f 67 59 07 3f
       0.47939932 0.840737 0.8570401 0.5287079
0001b0 58 02 dd 3e 26 4d b0 3e 1e bd 34 3f a9 6a b9 3e
       0.4316585 0.3443386 0.7060107 0.36214188
0001c0 d0 b8 74 3f f4 cd a6 3e ab 48 36 3f 91 26 38 3f
       0.955945 0.32579005 0.7120463 0.7193385
0001d0 e3 46 de 3e 8d 84 04 3f 38 f5 42 3f 6c ff 5b 3f
       0.43413457 0.51764756 0.76155424 0.8593662
0001e0 35 72 4b 3f ed 98 70 3f 52 85 e2 3e b3 3c 52 3f
       0.7947114 0.93983346 0.4424234 0.8212387
0001f0 1a a6 fa 3e 44 a9 ef 3e 1a 61 e5 3e a6 83 b3 3e
       0.4895485 0.46808827 0.44800645 0.35061377
000200 a8 1b 0d 3f 5a e6 f9 3e bb b7 1a 3f 10 a2 f0 3e
       0.55120325 0.48808557 0.604366 0.46998644
000210 2e 0d 0e 3f 25 b8 84 3e da 95 45 3f 2c fb de 3e
       0.5548886 0.2592174 0.7718178 0.43551004
000220 90 54 ff 3e 32 bf 22 3f 93 3a 07 3f d2 aa d1 3e
       0.49869204 0.6357299 0.5282375 0.40950638
000230 14 d6 2b 3f 19 8a ab 3e bb f8 52 3f 6b c8 05 3f
       0.6712353 0.33503798 0.8241078 0.5225894
000240 e2 0f 38 3f bd 1f 0c 3f 65 06 90 3e 18 84 24 3f
       0.71899235 0.5473593 0.2812988 0.6426406
000250 ba 2c e8 3e 7f 2a 10 3f 33 1e 1e 3f bf b0 e3 3e
       0.45346624 0.56314844 0.6176483 0.44470784
000260 0e 9f 38 3f 08 81 98 3e 67 e8 af 3e c3 f5 cf 3e
       0.721177 0.29785943 0.34356996 0.4061719
000270 e2 b7 75 3e 69 cf 03 3f 91 d4 3f 3f eb 01 1b 3f
       0.23995927 0.5148836 0.74933726 0.605498
000280 a6 b7 4e 3f e9 bf 85 3e 6d 51 13 3f fe af 0d 3f
       0.80748975 0.26122978 0.5754612 0.5534667
000290 c8 5d 09 3f 2d 9c 08 3f 0a 3b 13 3f d1 ea 34 3f
       0.53658724 0.53363305 0.5751196 0.706708
0002a0 69 01 ad 3e fb c8 53 3f e9 98 71 3f 42 bc 0b 3f
       0.33790138 0.82728547 0.9437395 0.54584134
0002b0 ec 60 08 3f 66 e7 93 3e ed e0 33 3f 6b c9 a1 3e
       0.5327289 0.2888748 0.70265085 0.31598982
0002c0 b6 ee 47 3f 14 f1 a2 3e bb de 43 3f a1 02 3c 3f
       0.7809862 0.31824553 0.76511735 0.7344151
0002d0 8b 97 82 3e 62 95 16 3f 38 17 30 3f e9 a9 3e 3f
       0.25506243 0.5882169 0.6878543 0.7447801
0002e0 3a 80 43 3f a7 d2 7a 3f f0 23 f5 3e 36 56 4c 3f
       0.76367533 0.9797768 0.4787898 0.7981905
0002f0 5c 8c a6 3e 3f 18 bb 3e 3e bf e8 3e 1b da b2 3e
       0.3252896 0.36541936 0.45458406 0.34932026
000300 bc d0 f5 3e 76 f5 19 3f d8 6f 2c 3f 87 b4 0a 3f
       0.48010814 0.6014017 0.6735816 0.5418171
000310 bb 50 0c 3f 44 38 b1 3e 87 94 54 3f 58 83 05 3f
       0.54810685 0.3461324 0.83039135 0.5215354
000320 f7 10 21 3f 06 21 1c 3f 13 d7 b6 3e 0d ac b3 3e
       0.6291651 0.6098789 0.35710964 0.35092202
000330 84 6b 27 3f 8c 69 08 3f 65 10 50 3f 35 43 fb 3e
       0.6539843 0.5328605 0.81275016 0.49074712
000340 05 23 45 3f da 5c c8 3e f2 ad cb 3e 83 68 fd 3e
       0.7700656 0.3913334 0.39781147 0.494938
000350 d3 c2 12 3f 5c b3 26 3f 4f f2 34 3f 44 52 0d 3f
       0.5732853 0.6511743 0.70682234 0.5520365
000360 e8 c5 24 3f 01 f4 7a 3e e3 1a c9 3e 6f 3f 04 3f
       0.6436448 0.24507143 0.39278325 0.5165929
000370 68 0c c2 3e dd b2 17 3f 0c 0e 1f 3f 9d e3 fb 3e
       0.3790009 0.592573 0.6213081 0.49197093
000380 27 13 49 3f 93 f2 cc 3e fc 9d 2c 3f af 63 0a 3f
       0.7854485 0.4002882 0.67428565 0.54058355
000390 5c 56 34 3f e3 57 2b 3f 54 c1 26 3f ac f5 17 3f
       0.70444274 0.6693098 0.65138745 0.5935924
0003a0 3a aa e5 3e c6 78 40 3f 22 ac 43 3f ef 21 23 3f
       0.44856435 0.75184286 0.7643453 0.63723654
0003b0 38 3e 15 3f 72 e2 b1 3e 73 e0 3b 3f 1b e5 d8 3e
       0.58298063 0.34743077 0.7338936 0.42362294
0003c0 9e f7 70 3f 7b 93 dd 3e fa 95 4c 3f c4 ff 30 3f
       0.94127834 0.4327658 0.79916346 0.6914027
0003d0 d5 c7 b2 3e bd 79 20 3f 38 a9 49 3f a0 58 6c 3f
       0.34918085 0.6268576 0.7877383 0.9232273
0003e0 0e 3d 4a 3f 27 30 44 3f c2 70 00 3f b1 5a 55 3f
       0.7899941 0.76635975 0.50172055 0.8334151
0003f0 a4 2b da 3e c7 b1 a1 3e 13 a8 0f 3f ae c2 9d 3e
       0.4261142 0.31580946 0.56115836 0.3081259

fc2.bias f4 [32]
000000 d1 1e 16 40 09 8d 1d 40 70 6a 0a 40 57 f7 0e 40
       2.345631 2.461733 2.1627464 2.2338464
000010 40 ee 10 40 02 15 2d 40 e3 cc 0a 40 25 46 18 40
       2.2645416 2.7044072 2.1687553 2.3792813
000020 2e b0 17 40 dd 1a 59 3f 35 c6 1e 40 1d b9 11 40
       2.3701282 0.84806615 2.4808476 2.2769234
000030 72 05 0b 40 5b 95 13 40 73 7f 17 40 eb 5d 12 40
       2.1722074 2.305991 2.367154 2.2869823
000040 e2 00 c9 3d 65 39 17 40 9d 39 18 40 68 97 0d 40
       0.098146215 2.362878 2.3785164 2.212366
000050 33 59 15 40 98 ac 0a 3f 36 74 0c 40 49 26 16 40
       2.3335693 0.5416961 2.194593 2.3460867
000060 70 61 12 40 fd f9 2d 40 29 ca 44 3e 08 17 1c 40
       2.287197 2.718383 0.19217743 2.4389057
000070 f4 a1 23 40 44 00 1d 40 6c e8 21 40 88 44 13 bd
       2.5567598 2.4531412 2.529811 -0.03595403

fc3.weight f4 [16, 32]
000000 61 cb d0 3e 59 77 4c 3e 35 fa ea 3e 93 da b7 3e
       0.40780166 0.19967403 0.45894018 0.35908946
000010 f5 88 e7 3e 16 45 de 3e 3a 57 a4 3e 33 72 eb 3e
       0.45221677 0.43412083 0.320978 0.45985565
000020 62 39 76 3e 7e a3 ce bf 9f e6 82 3e 38 d3 8a 3e
       0.24045327 -1.6143644 0.25566575 0.27114272
000030 7f df bb 3e e0 2c 06 3f 35 b3 8a 3e 64 04 d5 3e
       0.3669395 0.52412224 0.2708985 0.41604912
000040 89 45 31 bf ee c9 9d 3e 06 61 c7 3e c7 07 dd 3e
       -0.6924673 0.30818123 0.3894121 0.43169996
000050 2e e9 a9 3e 08 b1 0a c0 63 14 9a 3e 74 ac 0e 3f
       0.33185714 -2.1670551 0.3009368 0.5573189
000060 f2 5c 6a 3e ed 69 b2 3e 26 9f 1b bf d1 d2 e6 3e
       0.22887018 0.3484644 -0.60789716 0.45082715
000070 e5 53 e9 3e c9 0a 4b 3e 36 a2 0f 3f 1a da 53 3e
       0.4557182 0.19828333 0.5610689 0.20688668
000080 9a 85 0c 3f ca 9d f7 3e 15 64 8d 3e e0 b6 07 3f
       0.5489136 0.4836257 0.2761542 0.5301342
000090 ef b8 8c 3e f5 05 04 3f 2b 2c 0b 3f 3b 3a 5e 3e
       0.27484843 0.5157159 0.5436427 0.217019
0000a0 01 b8 e9 3e 95 af d8 bf 32 2f e8 3e e5 33 01 3f
       0.45648196 -1.6928583 0.45348507 0.5046981
0000b0 35 15 fb 3e ff 2e 09 3f 08 fc 9a 3e 20 68 e6 3e
       0.49039617 0.53587335 0.3027041 0.45001316
0000c0 7a 83 3b bf 6d 88 05 3f b3 93 81 3e ac 1f 09 3f
       -0.7324749 0.52161294 0.25307998 0.5356395
0000d0 66 47 ec 3e 2a 16 14 c0 b3 3a 04 3f 71 6f 7d 3e
       0.46148223 -2.3138528 0.5165207 0.24749543
0000e0 24 6b b2 3e 3c ca ea 3e c9 70 0e bf 74 e3 ab 3e
       0.34847367 0.45857418 -0.55640846 0.3357197
0000f0 7b b8 98 3e d3 0a d6 3e fa a7 ef 3e 4f 63 3f bd
       0.29828247 0.41805133 0.46807843 -0.046725567
000100 a5 8a 2a bd 7f dd f1 bd e1 d6 6d bc 94 7c 12 be
       -0.041636128 -0.11809825 -0.014516563 -0.14305335
000110 85 be a7 3d ac 8f dd bd b7 16 86 bb d3 44 37 be
       0.081906356 -0.10818419 -0.0040920633 -0.17897348
000120 df 67 4e 3d 06 b4 ba 3d 9c 5b f3 3d 2a 00 30 be
       0.050392028 0.09116368 0.118827075 -0.17187563
000130 ef e4 18 3d 34 00 91 3d fa d5 78 bd 4b 40 7e bd
       0.037327703 0.07080117 -0.06075094 -0.062073033
000140 32 53 0c be 11 3b c8 bd b7 b5 3e 3d 57 d4 e3 bd
       -0.13703611 -0.09776891 0.046560016 -0.11124485
000150 cc 74 d4 bd 68 da c3 3d bf cc cf bc 73 89 0d be
       -0.1037384 0.09563142 -0.025366185 -0.13821964
000160 f0 65 f6 bd 19 0e 28 be 28 7b 01 be e4 59 36 be
       -0.12031162 -0.16411628 -0.12644637 -0.17807728
000170 44 0d 95 3d 20 8b e1 bd 28 f6 47 be b0 ae bb bd
       0.07277921 -0.11012864 -0.19527495 -0.09164178
000180 01 5f 58 be ea db a1 bd 20 42 8a 3d 68 7b d3 3d
       -0.21129991 -0.079032734 0.067508936 0.10326272
000190 7c b2 f9 39 b1 21 27 3d 51 40 02 be 3d 4a bb 3d
       0.00047625962 0.040803615 -0.12719847 0.09145019
0001a0 73 e7 37 3c 29 be 7a 3d b5 47 e1 3d 1d 68 c3 3d
       0.011224615 0.061216507 0.11000005 0.095413424
0001b0 25 52 28 be 0e e4 2b be 95 07 81 3d 1d 53 ff bd
       -0.16437586 -0.16786215 0.06300274 -0.124670245
0001c0 7f cd e9 bd 0c 7e 2d be 90 d9 96 3d 47 4b 4f 3d
       -0.114161484 -0.16942614 0.073657155 0.0506089
0001d0 3c dc 53 3c b5 b7 19 3e 80 6c 33 be dd 4a ef 3c
       0.012930926 0.15011485 -0.17521858 0.029210502
0001e0 2a b5 3e be 8b c6 2d be 8d 41 09 be 2b 7d 0d be
       -0.18623796 -0.1697027 -0.13403912 -0.13817279
0001f0 ef 43 42 be 36 33 66 be 5a 31 03 be c0 91 97 3d
       -0.18971227 -0.22480473 -0.12811795 0.074008465
000200 16 5a 02 3f 5b 0e 7d 3e 40 1e d8 3e 8a e5 6e 3e
       0.5091871 0.24712507 0.4221058 0.2332975
000210 ff b0 a5 3e f6 4a 06 3f aa 0f a6 3e 20 cb 03 3f
       0.323616 0.5245813 0.32433826 0.5148182
000220 21 9a e0 3e 9a 73 b7 bf e8 e5 a9 3e c8 4d e1 3e
       0.4386759 -1.4332154 0.33183217 0.44004655
000230 ca 98 d5 3e 4d ed 9f 3e 2d b4 0f 3f c2 bd b6 3e
       0.4171813 0.31235734 0.561343 0.3569165
000240 db c6 4c bf ea 86 b1 3e 0d 6d 6e 3e 55 8a 74 3e
       -0.7999093 0.34673244 0.23283787 0.23880894
000250 32 aa 6a 3e 5c 3f 15 c0 51 e3 e8 3e 3b 10 99 3e
       0.22916487 -2.3319921 0.4548593 0.29895195
000260 1e c4 4b 3e 8f a7 f3 3e ba df 2e bf 1b 4c 58 3e
       0.19899032 0.47588775 -0.6831013 0.21122782
000270 9f e0 d0 3e 35 70 75 3e 95 f5 83 3e 3b 1e 9a bd
       0.40796372 0.23968585 0.25773302 -0.07525297
000280 ee 94 00 3f d1 33 70 3e c1 87 bf 3e 0c e8 ad 3e
       0.5022725 0.23457266 0.3740826 0.339661
000290 0b bd f4 3e 49 84 81 3e 66 3d e0 3e 81 f5 bf 3e
       0.47800478 0.25296238 0.43796843 0.37491992
0002a0 04 ca 04 3f d0 99 bf bf c6 88 b1 3e 8b 45 d9 3e
       0.5187075 -1.4968815 0.34674662 0.4243587
0002b0 f0 ec 3e 3e 0e ff 9c 3e 4e bd 12 3f 6e 06 00 3f
       0.18645072 0.3066334 0.57320106 0.5000981
0002c0 78 c0 60 bf 4e 4a d3 3e ad e3 9d 3e 33 f1 40 3e
       -0.87793684 0.41267627 0.30837765 0.1884201
0002d0 8f 49 db 3e ce 16 12 c0 9e d3 d3 3e e3 9b dc 3e
       0.42829558 -2.282642 0.4137239 0.43087682
0002e0 3f 7d f9 3e 80 11 b5 3e 73 21 2f bf 39 a8 c8 3e
       0.48728368 0.35364914 -0.68410414 0.39190844
0002f0 19 6a c9 3e f2 3e 51 3e fe 48 a9 3e af 70 cd bd
       0.3933876 0.20434168 0.330635 -0.10031258
000300 b2 58 c4 3e be 46 b6 3e 7d e6 d5 3e 83 7c b0 3e
       0.3834892 0.35600847 0.4177741 0.34469995
000310 17 e3 b7 3e 7c e3 ec 3e 38 62 ca 3e 94 73 f7 3e
       0.35915443 0.46267307 0.3952806 0.48330367
000320 75 6b d1 3e af b7 d6 bf 9e cb 00 3f 14 da c1 3e
       0.40902296 -1.6774806 0.50310695 0.37861693
000330 ba b3 82 3e 54 ec 50 3e be d3 d2 3e 76 ab b7 3e
       0.25527745 0.20402652 0.4117717 0.35873002
000340 65 45 1f bf 88 09 ed 3e 57 6d a0 3e 23 d2 85 3e
       -0.6221526 0.46296334 0.3133342 0.26136884
000350 cb d3 57 3e ee 12 19 c0 2d 0f 0a 3f 91 71 d8 3e
       0.21076886 -2.3917804 0.53929406 0.42274144
000360 8d 64 e2 3e e5 a6 a2 3e 1f 41 01 bf 46 55 a4 3e
       0.4421734 0.31767955 -0.5048999 0.32096308
000370 e3 a6 f1 3e 4f 98 b2 3e e0 45 05 3f 98 a4 cf 3c
       0.47197637 0.34881827 0.52059746 0.02534704
000380 ef 5a 39 bd 5b dd f2 3c f9 53 71 bd 08 b1 94 3d
       -0.045252737 0.029646566 -0.058917973 0.072603285
000390 73 65 11 be 20 07 3b be 17 35 3b be 08 26 36 bc
       -0.14198856 -0.18264437 -0.18281971 -0.011117466
0003a0 27 85 40 bd 94 12 b7 3d 67 a8 37 be 2e c6 f5 bd
       -0.047001984 0.0893909 -0.17935334 -0.120006904
0003b0 e6 03 c1 3d d1 5c 11 bd 3b d7 01 3c ef 84 9c 3d
       0.09424572 -0.035488907 0.00792485 0.076425426
0003c0 7a fe b9 bd 75 ee b5 bb 0c d0 3d bd ac f8 06 bc
       -0.09081741 -0.005552108 -0.046340987 -0.008237999
0003d0 c2 d9 12 be 6c 59 aa 3c 74 fb 65 3d 3f 82 55 be
       -0.1434088 0.020794593 0.056148008 -0.20850466
0003e0 bb 9f b9 bd f0 72 2b 3c f7 f1 cf 3d 39 ce 37 be
       -0.09063669 0.010464415 0.10153573 -0.17949761
0003f0 8b 55 2a 3d 8d 86 c4 bd a1 28 4f 3d 9b ca a4 bd
       0.041585486 -0.09595976 0.050575856 -0.080464564

fc3.bias f4 [16]
000000 24 82 9f 40 d4 c7 a6 40 b0 87 1d bc 7b 2c da 3d
       4.9846363 5.211893 -0.00961487 0.10653015
000010 e0 ee 9e 40 ff f6 96 40 4d 09 a0 40 d8 ae e7 3c
       4.9666595 4.717651 5.0011353 0.028281614
000020 9c c6 9d 40 df d0 a2 40 86 7c 99 40 1d c8 a6 40
       4.9304943 5.087997 4.7964506 5.211928
000030 b7 07 5a bd 03 7e 9f 40 0d 4d a1 40 16 97 9d 40
       -0.053230014 4.9841323 5.0406556 4.924693

fc4.weight f4 [1, 16]
000000 b9 88 0b 3f 4d 14 db 3e fb a1 f1 bd ab 5b 9a bd
       0.545055 0.42788926 -0.117984734 -0.075370155
000010 ff 26 0e 3f e9 c6 28 3f df 2b 0a 3f d3 e6 aa bd
       0.55528253 0.6592851 0.5397319 -0.083448075
000020 b5 03 0b 3f fc d7 00 3f 9f bd 0b 3f 1f 58 d5 3e
       0.5430253 0.50329566 0.54586214 0.41668794
000030 f4 0a 41 bc 78 fa ee 3e f5 e4 11 3f d4 8c 03 3f
       -0.011782397 0.46675467 0.56989986 0.5138676
