Model/Pre Trained Model/Results/200000 Initial Capital/10 Properties/real_estate_ai_model_rental.pt (torch, 16368 bytes, 7 tensors)

fc1.weight f4 [64, 8]
1.3109211 -0.04171776 -0.18068095 -0.16371593 0.0002834802 0.023007274 -0.023748579 0.13965528
0.96099025 -0.09902877 0.064831726 0.084389 0.015952332 0.012470082 -0.04223098 -0.17296003
1.5822585 0.38315833 0.15535383 -0.31089166 0.2345624 -0.28973827 0.12518764 0.7771581
1.0234172 -0.06920681 -0.2716493 -0.28846273 0.23016366 0.068369076 0.034257486 0.2629715
1.3785579 0.15172419 0.3213519 -0.39883965 -0.06404115 -0.07677958 0.045129605 -0.22561425
1.339355 0.572384 0.14923704 -0.09507418 -0.20227817 0.16372462 0.053215094 -0.16660313
1.3023406 -0.053293664 -0.009973357 0.04411689 0.00079664047 -0.0054366924 0.05878284 -0.012929933
1.3103855 0.11843007 0.10019785 0.115228325 -0.100337975 0.014428284 -0.030147271 -0.24273473
1.3416958 -0.056685567 0.28885233 0.32368025 0.0069220406 0.010510778 -0.040733572 0.044584204
1.2483559 -0.22013262 -0.082956195 -0.06661233 0.054557662 -0.06047602 0.044964835 -0.4670917
1.1988688 0.1735742 -0.21442494 -0.19991834 -0.100881 -0.085018925 -0.008274286 0.09429265
1.116906 0.25006494 -0.012736528 0.008515493 -0.103985295 -0.011086699 -0.0056349747 0.10746663
0.9729069 0.17278577 -0.048391216 -0.030862525 -0.042338878 -0.037640262 -0.036271393 0.17753266
1.1222265 -0.19502573 0.14689215 0.16028887 0.0843005 0.017469836 0.090971276 0.074449256
1.0507759 0.3707793 -0.15888873 -0.21445248 -0.0824912 -0.08459086 0.044202663 0.5030406
1.2729771 -0.06136872 0.11404075 0.1334584 -0.024758138 0.022935914 -0.08805463 -0.07729923
1.0820565 0.0987308 -0.050325587 -0.01500023 0.022091458 -0.081541985 -0.031024642 0.24661663
1.4125494 -0.067492366 0.08476734 0.09817406 -0.0034087708 -0.01706777 -0.00024780148 -0.15447003
1.1299723 0.05820332 -0.040515255 -0.014399234 -0.027451465 0.04239367 0.085975364 0.17006822
1.3588758 -0.27114686 -0.18719696 -0.15531446 0.10712448 -0.018602183 -0.0077317595 0.16422938
1.1736782 0.007896106 0.2127556 0.23629488 -0.02392858 0.023186719 -0.01362107 0.13534519
1.3663626 0.031742435 0.13399227 -0.14139698 0.01459244 -0.124766 -0.010737207 0.21433653
1.3666112 0.33869338 0.14837883 0.17694424 -0.11775919 -0.044370234 0.04219638 0.12432247
1.0719556 0.14644888 0.06291645 0.089702636 -0.041370537 -0.0045787976 -0.008970126 0.21664453
1.390041 -0.023562502 0.037789702 0.07775242 -0.007798882 0.026017379 -0.015014643 -0.14094861
0.92728734 -0.09202633 0.09501766 0.11688786 0.015085535 0.07280948 -0.0404637 -0.08253112
1.1780413 -0.076278724 -0.15893047 -0.11697549 0.16655858 -0.08312169 0.046912316 0.41063982
0.96375704 -0.08756411 0.22505495 0.2538562 0.0617332 -0.061502222 0.12753852 0.3072548
1.1330185 0.16043232 -0.05461985 -0.027143588 -0.096374884 0.19116376 0.014037723 -0.20294903
1.1795056 0.07481982 -0.238573 -0.19320874 0.070616774 -0.020002808 -0.08598108 0.17532456
1.3568043 -0.06403174 0.08899192 0.11680747 0.0048350208 0.010438768 -0.023840597 -0.07401265
1.001337 -0.11951639 -0.11356387 -0.13987862 0.011204027 0.035686005 -0.031891983 -0.123198286
00000000: 43cc a73f 3ee0 2abd 6d04 39be 26a5 27be
00000010: 12a0 9439 c079 bc3c 618c c2bc cb01 0f3e
00000020: 7503 763f 99cf cabd 7fc6 843d 24d4 ac3d
00000030: 77ae 823c 514f 4c3c 64fa 2cbd 6f1c 31be
00000040: 7287 ca3f 542d c43e 1315 1f3e 312d 9fbe
00000050: 2031 703e 9358 94be 3031 003e d5f3 463f
00000060: 56ff 823f 4dbc 8dbd 9e15 8bbe 63b1 93be
00000070: 06b0 6b3e 1605 8c3d 9451 0c3d 33a4 863e
00000080: 9674 b03f 965d 1b3e 3c88 a43e b634 ccbe
00000090: 0228 83bd 9d3e 9dbd d2d9 383d 6c07 67be
000000a0: fc6f ab3f c287 123f 98d1 183e 40b6 c2bd
000000b0: 0222 4fbe 6da7 273e 12f8 593d 039a 2abe
000000c0: 19b3 a63f 754a 5abd 4b67 23bc e9b3 343d
000000d0: a3d5 503a 4826 b2bb 46c6 703d 12d8 53bc
000000e0: b6ba a73f 778b f23d 8834 cd3d d4fc eb3d
000000f0: ff7d cdbd 9c64 6c3c 69f7 f6bc 748f 78be
00000100: b0bc ab3f 202f 68bd 74e4 933e 6bb9 a53e
00000110: 49d2 e23b 6635 2c3c 3fd8 26bd ed9d 363d
00000120: 20ca 9f3f 726a 61be f0e4 a9bd 0c6c 88bd
00000130: db77 5f3d b4b5 77bd 0c2d 383d a526 efbe
00000140: 8874 993f 6fbd 313e 3692 5bbe 65b7 4cbe
00000150: b39a cebd 671e aebd df90 07bc 811c c13d
00000160: c7f6 8e3f 8308 803e dfac 50bc 9184 0b3c
00000170: 3ef6 d4bd fca4 35bc 98a5 b8bb 7717 dc3d
00000180: 6d10 793f c1ee 303e de35 46bd 68d3 fcbc
00000190: 886b 2dbd ad2c 1abd 5091 14bd 1fcb 353e
000001a0: 1ea5 8f3f d3b4 47be e56a 163e c422 243e
000001b0: bea5 ac3d e71c 8f3c 264f ba3d da78 983d
000001c0: d37f 863f c9d6 bd3e bab3 22be 6e99 5bbe
000001d0: 25f1 a8bd f93d adbd da0d 353d 45c7 003f
000001e0: eaf0 a23f c45d 7bbd 328e e93d 52a9 083e
000001f0: 94d1 cabc 19e4 bb3c fc55 b4bd 0f4f 9ebd
00000200: d480 8a3f 6033 ca3d 3422 4ebd 86c3 75bc
00000210: 25f9 b43c 7cff a6bd 6427 febc 1289 7c3e
00000220: 6bce b43f 7039 8abd 809a ad3d 7b0f c93d
00000230: af65 5fbb b5d1 8bbc 5aeb 81b9 642d 1ebe
00000240: efa2 903f 9b66 6e3d 53f3 25bd c4ea 6bbc
00000250: e5e1 e0bc fca4 2d3d da13 b03d 5d26 2e3e
00000260: a4ef ad3f c3d3 8abe 8fb0 3fbe c10a 1fbe
00000270: 1464 db3d 9b63 98bc b35a fdbb bf2b 283e
00000280: 163b 963f ab5e 013c 9bdc 593e 49f7 713e
00000290: df05 c4bc 13f2 bd3c e92a 5fbc ee97 0a3e
000002a0: f8e4 ae3f 5b04 023d 4535 093e 5fca 10be
000002b0: 2115 6f3c 5185 ffbd 1ceb 2fbc 097b 5b3e
000002c0: 1eed ae3f 3869 ad3e 9ff0 173e df30 353e
000002d0: bb2b f1bd 90bd 35bd 1dd6 2c3d c79c fe3d
000002e0: d735 893f b2f6 153e 57da 803d 04b6 b73d
000002f0: 2774 29bd bd09 96bb 6ff7 12bc 10d8 5d3e
00000300: ddec b13f 2606 c1bc 60c9 1a3d a93c 9f3d
00000310: c48d ffbb 6622 d53c faff 75bc d554 10be
00000320: b462 6d3f 4d78 bcbd 9e98 c23d e762 ef3d
00000330: 5229 773c 231d 953d 44bd 25bd 1306 a9bd
00000340: 0fca 963f 0538 9cbd abbe 22be d890 efbd
00000350: 558e 2a3e b43b aabd 2127 403d 623f d23e
00000360: c8b8 763f d054 b3bd ce74 663e 71f9 813e
00000370: f4db 7c3d c1e9 7bbd 7599 023e 8050 9d3e
00000380: c006 913f 5f48 243e 10b9 5fbd 3b5c debc
00000390: 3260 c5bd 6fc0 433e 7afe 653c dfd1 4fbe
000003a0: 0afa 963f 223b 993d 7b4c 74be 83d8 45be
000003b0: 879f 903d eedc a3bc d916 b0bd 4888 333e
000003c0: c3ab ad3f 1323 83bd 6541 b63d c138 ef3d
000003d0: 186f 9e3b 5e07 2b3c 5b4d c3bc f293 97bd
000003e0: d02b 803f 02c5 f4bd 2d94 e8bd 573c 0fbe
000003f0: 1891 373c 7d2b 123d 2ba1 02bd 624f fcbd

fc1.bias f4 [64]
1.8549016 1.2701092 1.7187111 1.894428 2.1607778 2.2549584 1.5884029 1.4895742
1.7646581 1.2820551 1.6390808 1.7003609 1.6081784 1.4122541 1.793761 1.494582
1.7454711 1.5904746 1.6794174 1.6844617 1.6573914 2.2173316 1.9838282 1.6901904
1.5900819 1.4126359 2.0486479 1.6019559 1.783443 1.8365988 1.5871257 1.4696298
2.0524771 1.5945858 1.3900341 1.464291 1.5813769 1.6467566 1.7714977 2.2572823
1.707635 1.3934965 1.4071082 1.3420984 1.65481 1.5013717 1.8141321 1.6458799
1.7601608 1.6681606 1.725392 1.5560784 1.8961257 1.4990155 1.578873 1.4568548
1.6826738 1.4050002 1.629879 1.6823052 1.8260783 1.4573766 2.0590687 1.2847464
00000000: 6a6d ed3f f092 a23f bafe db3f 9e7c f23f
00000010: 2f4a 0a40 3d51 1040 c950 cb3f 5eaa be3f
00000020: 51e0 e13f 621a a43f 66cd d13f 6da5 d93f
00000030: cad8 cd3f bec4 b43f f699 e53f 774e bf3f
00000040: 996b df3f ac94 cb3f 26f7 d63f 719c d73f
00000050: 6725 d43f c3e8 0d40 15ee fd3f 2958 d83f
00000060: ce87 cb3f 41d1 b43f 0c1d 0340 e40c cd3f
00000070: dc47 e43f ab15 eb3f ef26 cb3f d41c bc3f
00000080: c95b 0340 631b cc3f a3ec b13f e36d bb3f
00000090: 8f6a ca3f ecc8 d23f 70c0 e23f 5077 1040
000000a0: c993 da3f 185e b23f 1f1c b43f e1c9 ab3f
000000b0: d0d0 d33f f32c c03f 7b35 e83f 31ac d23f
000000c0: f34c e13f 4986 d53f a5d9 dc3f 942d c73f
000000d0: 3fb4 f23f bddf bf3f 8318 ca3f 387a ba3f
000000e0: db61 d73f 0cd7 b33f e09f d03f c755 d73f
000000f0: efbc e93f 518b ba3f c8c7 0340 9272 a43f

fc2.weight f4 [32, 64]
0.68836445 1.0937632 0.41242045 0.48871455 0.34733617 0.3817243 0.78299344 0.8965411
0.63009924 1.0291134 0.78853035 0.746561 0.5897595 0.868783 0.52168036 0.835203
0.77833354 0.8566185 0.77419484 0.74867314 0.86486775 0.4547997 0.6400002 0.6842017
0.9041405 0.99572265 0.6703898 0.8824449 0.6047947 0.6730414 0.7088915 0.9551329
0.61666477 0.7956327 1.0157675 0.84387356 0.8511504 0.6073466 0.6399538 0.35146657
0.66367406 0.8090401 0.94616723 0.84039533 0.8356886 0.7214242 0.78986114 0.7098175
0.6569952 0.73703367 0.7824789 0.6973147 0.4855743 0.9154065 0.71474516 0.8890817
0.5071147 1.0476745 0.7583466 0.6508224 0.7703701 0.7820506 0.3799673 0.98414296
0.67780226 0.91417575 0.3735665 0.59633666 0.30042702 0.5435552 0.7056309 0.72304666
0.6269669 0.82034427 0.716823 0.6306988 0.7577795 0.7500628 0.49837822 0.9420149
0.5514298 0.80366725 0.8001163 0.71962196 0.7133056 0.52377385 0.49011758 0.6703917
0.84370166 0.8811109 0.48386353 0.64199835 0.6889333 0.6027062 0.7956804 0.76178145
0.6520247 0.5775779 0.8614733 0.85069215 0.7244966 0.58694863 0.50696737 0.33775252
0.770446 0.855415 0.840009 0.95256543 0.74046516 0.8045286 0.58565414 0.7699491
0.7922199 0.6315262 0.5636805 0.7653147 0.5478889 0.81684214 0.7353453 0.86577886
0.51691824 0.7561888 0.72437793 0.61304504 0.54600596 0.819934 0.45465535 0.94060904
-0.052075505 -0.14321223 -0.037593838 -0.08304895 -0.13624762 -0.103855535 -0.09858649 -0.15664747
-0.113838516 0.07099522 -0.098152325 -0.1429382 0.024486283 0.07983207 -0.060317025 0.058255255
-0.13287905 0.036096137 0.0728066 -0.1012924 0.011870777 0.08672848 -0.028455317 -0.11386742
0.08922475 -0.11296423 -0.06360233 0.06310659 -0.103202775 -0.13799049 -0.06204922 -0.09127145
0.0045374134 -0.0037353304 -0.08731052 -0.068933815 0.02410858 -0.12947525 -0.02529409 -0.11928043
-0.12720762 0.0787187 -0.11280831 0.025966855 0.058164354 0.086631656 -0.060309727 -0.036751304
-0.10514959 -0.044719033 -0.022590626 -0.13398416 -0.033606037 -0.08908239 -0.099530324 -0.0074195513
0.072018854 0.11321721 -0.09653002 -0.043002725 -0.023689779 -0.040547106 -0.105371006 -0.048380315
-0.62346876 1.1680566 0.74829376 0.53473955 0.8078261 0.51036215 0.07248811 -1.9546729
-0.7655197 1.3577324 -0.19037214 0.065313555 -0.24457668 0.40301573 0.7423791 -2.3735435
-1.5129735 -1.278146 0.20475627 -0.07675137 -1.0843402 -0.07881542 0.39672852 -2.621537
-1.5226105 0.822062 -0.07407546 1.1901292 0.87515676 -1.4508986 -2.7828386 0.7352753
-0.65565515 0.01795373 -1.1932912 1.8160074 -0.6784502 0.020039279 0.61092365 0.9565206
-2.8186662 0.07202643 0.7436193 1.185517 -0.050260894 -0.9362169 -0.016457632 -0.43662038
0.9491633 0.5923912 0.5110092 -1.2780359 0.61757314 -2.8054533 -2.5856776 1.1533486
0.7388812 -1.7595567 0.6281177 -0.95049864 -0.681519 -0.8231815 0.73005563 -0.05069544
00000000: a738 303f 6f00 8c3f c628 d33e cb38 fa3e
00000010: 0cd6 b13e 5e71 c33e 4272 483f b883 653f
00000020: 2f4e 213f fdb9 833f 20dd 493f 9f1e 3f3f
00000030: 7bfa 163f 9068 5e3f d88c 053f ddcf 553f
00000040: de40 473f 5a4b 5b3f a231 463f 0ba9 3f3f
00000050: f967 5d3f 82db e83e 0ed7 233f d827 2f3f
00000060: c075 673f aee7 7e3f aa9e 2b3f e9e7 613f
00000070: d3d3 1a3f 714c 2c3f ea79 353f 9783 743f
00000080: bedd 1d3f 96ae 4b3f ab04 823f 1908 583f
00000090: fee4 593f 117b 1b3f 03d4 233f 6df3 b33e
000000a0: 8be6 293f 411d 4f3f 0438 723f 2624 573f
000000b0: b0ef 553f 42af 383f 5734 4a3f 9ab6 353f
000000c0: d630 283f 3dae 3c3f 8a50 483f 3783 323f
000000d0: 329d f83e 1558 6a3f 8af9 363f dc9a 633f
000000e0: 45d2 013f 331a 863f 0123 423f 4c9c 263f
000000f0: fa36 453f 7834 483f 138b c23e cbf0 7b3f
00000100: 7384 2d3f 6c07 6a3f 1c44 bf3e 85a9 183f
00000110: 92d1 993e 6f26 0b3f 3aa4 343f 9619 393f
00000120: e780 203f 1502 523f b681 373f 7a75 213f
00000130: d6fd 413f 1e04 403f 6e2b ff3e e327 713f
00000140: 812a 0d3f 23bd 4d3f 6cd4 4c3f 2539 383f
00000150: 329b 363f 0b16 063f b1f0 fa3e ca9e 2b3f
00000160: d5fc 573f 7c90 613f f6bc f73e 015a 243f
00000170: ef5d 303f f44a 1a3f b6b1 4b3f 1c04 433f
00000180: 17eb 263f 25dc 133f 8489 5c3f f6c6 593f
00000190: 9c78 393f 4442 163f 9dc8 013f e6ed ac3e
000001a0: f33b 453f 7afc 5a3f d40a 573f 54db 733f
000001b0: 208f 3d3f 96f5 4d3f 6eed 153f 621b 453f
000001c0: ecce 4a3f b3ab 213f 5e4d 103f aaeb 433f
000001d0: 7242 0c3f 911c 513f 973f 3c3f afa3 5d3f
000001e0: c154 043f 9795 413f d570 393f 85f0 1c3f
000001f0: 0cc7 0b3f 32e7 513f 96c8 e83e c1cb 703f
00000200: 204d 55bd 3aa6 12be fffb 19bd 9115 aabd
00000210: 7f84 0bbe 36b2 d4bd b7e7 c9bd 3268 20be
00000220: 2b24 e9bd f165 913d 1604 c9bd 645e 12be
00000230: 7597 c83c ff7e a33d fc0e 77bd 109d 6e3d
00000240: 7211 08be 8bd9 133d a01b 953d 6472 cfbd
00000250: a67d 423c b49e b13d 201b e9bc 5233 e9bd
00000260: 77bb b63d ca59 e7bd f041 82bd 073e 813d
00000270: fa5b d3bd 614d 0dbe 5327 7ebd 87ec babd
00000280: 95ae 943b 72cc 74bb dccf b2bd 2c2d 8dbd
00000290: 5b7f c53c 2995 04be 8d35 cfbc 4c49 f4bd
000002a0: b742 02be 4537 a13d 0b08 e7bd 71b8 d43c
000002b0: bf3d 6e3d f06b b13d 5507 77bd 8988 16bd
000002c0: ab58 d7bd 4e2b 37bd fa0f b9bc 2533 09be
000002d0: 7ca6 09bd d470 b6bd 8ed6 cbbd b51f f3bb
000002e0: 9f7e 933d 6dde e73d 88b1 c5bd a023 30bd
000002f0: 1111 c2bc b914 26bd c1cc d7bd 702a 46bd
00000300: a69b 1fbf e182 953f 2e90 3f3f b1e4 083f
00000310: b1cd 4e3f 18a7 023f a574 943d b932 fabf
00000320: 19f9 43bf 2dca ad3f eaf0 42be 1dc3 853d
00000330: 4f72 7abe 1458 ce3e 8f0c 3e3f 23e8 17c0
00000340: 1ea9 c1bf 4a9a a3bf a1ab 513e d32f 9dbd
00000350: a9cb 8abf fb69 a1bd 0020 cb3e 43c7 27c0
00000360: e7e4 c2bf a872 523f e0b4 97bd 2756 983f
00000370: 460a 603f 0cb7 b9bf 071a 32c0 013b 3c3f
00000380: 04d9 27bf b313 933c c4bd 98bf ee72 e83f
00000390: eaae 2dbf 6a29 a43c 7e65 1c3f 89de 743f
000003a0: 0765 34c0 9882 933d d65d 3e3f 05bf 973f
000003b0: 5ede 4dbd e9ab 6fbf 28d2 86bc b58c dfbe
000003c0: 5efc 723f f3a6 173f 80d1 023f ae96 a3bf
000003d0: 4619 1e3f 8c8c 33c0 be7b 25c0 eda0 933f
000003e0: 5127 3d3f 2739 e1bf 52cc 203f e153 73bf
000003f0: 0778 2ebf 06bc 52bf ede4 3a3f 06a6 4fbd

fc2.bias f4 [32]
2.3194132 2.3428097 -0.15688388 0.10779906 2.3353446 0.3024411 2.4251678 0.07243516
2.326589 2.3116114 2.601554 2.975766 2.3277032 2.386121 2.403051 2.7249665
2.2289202 2.2746067 2.2441244 -0.50570005 2.2874706 0.318961 2.3109841 0.07760043
2.3025954 2.1041656 2.211188 3.0684133 2.414429 2.4695055 2.2227802 2.2000687
00000000: 4471 1440 98f0 1540 2ba6 20be c1c5 dc3d
00000010: 4976 1540 8fd9 9a3e f335 1b40 e358 943d
00000020: d6e6 1440 71f1 1340 dc7f 2640 f372 3e40
00000030: 17f9 1440 35b6 1840 96cb 1940 da65 2e40
00000040: a1a6 0e40 2893 1140 bc9f 0f40 8f75 01bf
00000050: eb65 1240 db4e a33e 2ae7 1340 f9ec 9e3d
00000060: b95d 1340 a6aa 0640 1b84 0d40 e260 4440
00000070: 0186 1a40 610c 1e40 0842 0e40 edcd 0c40

fc3.weight f4 [16, 32]
0.050804134 -0.17015454 -0.080939814 0.10298228 -0.12118379 0.10450544 0.08728965 0.08282963
-0.10972806 -0.07881943 -0.08891674 -0.058097664 0.037308935 -0.16002434 0.0026303856 0.030720262
-0.18478523 -0.047737204 0.027176306 0.06439174 -0.13876829 0.0102571035 0.01710818 -0.048137885
-0.03791237 -0.21163723 -0.06672811 -0.01813927 -0.1950723 -0.11536207 0.0772083 -0.07791104
0.0058475765 0.04248322 0.059495606 0.10619857 0.08831286 0.07402271 0.01245148 0.072156034
-0.2272497 -0.005595233 -0.012379342 -0.008053024 -0.18423004 0.075918056 -0.040065825 0.03357504
0.0055869515 -0.12037033 -0.037860684 0.049057744 -0.118849635 0.13709708 -0.14790553 0.074403584
-0.19021794 -0.05991048 -0.15263982 -0.15563391 -0.024055958 -0.18303297 -0.06418935 -0.22326988
0.6668876 0.6155619 -0.087117255 -2.1187859 0.6330514 -1.268261 0.5886481 -0.07020192
0.6954196 0.6824073 0.4570064 0.5134174 0.7511264 0.57345897 0.5378657 0.45531687
0.67898566 0.7142141 0.57639676 -1.664933 0.5232006 -0.66320187 0.54860115 -0.027609915
0.5093313 0.65751344 0.63392586 0.49186286 0.7630482 0.6339986 0.688457 0.62376136
0.107871234 -0.122191794 0.053541645 -1.7560332 -0.005918943 -1.0253382 0.1488065 -0.11250222
-0.12757103 0.15990676 0.25039285 0.45254272 0.03441616 0.13910027 -0.02391755 0.33859083
0.11336409 0.11718964 0.12765926 -1.137544 -0.07876208 -0.47953174 0.21379009 -0.020472556
-0.15338577 -0.15103666 0.04437877 0.4140718 0.18702617 0.127332 0.16946813 -0.12395048
0.45808575 0.6036591 0.16970317 -2.0152044 0.6296807 -1.2465619 0.6536677 -0.13042443
0.4932112 0.5505444 0.65632164 0.5554067 0.6998528 0.561881 0.72068226 0.5456782
0.45059052 0.6625595 0.70085347 -1.5672202 0.6980882 -0.62098277 0.6945413 -0.04470969
0.7117609 0.712679 0.68857455 0.531145 0.65787905 0.4741969 0.75732356 0.46842405
0.4296965 0.549298 0.09807889 -2.24059 0.5860897 -1.1884844 0.47211134 -0.10478844
0.6112902 0.33273003 0.47874787 0.70371234 0.44679326 0.6115357 0.5785382 0.6408788
0.45723593 0.41191357 0.45620972 -1.7913833 0.34814018 -0.48975265 0.485175 0.01448169
0.5615859 0.549312 0.53324425 0.5644477 0.2760773 0.42950204 0.51249915 0.3370427
-0.13427709 -0.17294292 0.17102498 0.067946225 -0.10342711 -0.12668732 -0.06453523 -0.1553808
-0.046222016 0.07918833 -0.2168039 -0.15117158 -0.092687644 -0.107775405 0.00014439585 0.08426824
0.004550919 -0.081729025 -0.12141666 -0.06512425 0.029805852 -0.1935513 0.013536402 0.02346066
-0.05822466 -0.0009820103 -0.006865435 -0.04914055 -0.096171305 -0.10854234 -0.14648665 0.07799317
-0.13705923 -0.07905776 0.06826788 -0.0057778354 0.06894378 0.0034345556 0.08199001 -0.073984526
0.010877356 0.054300915 -0.07945139 -0.12957717 0.09815992 -0.108478904 -0.14571762 0.014388374
-0.078194454 -0.12152062 -0.018340291 0.0460477 -0.051682293 0.1057478 -0.14396413 0.13718921
0.05993397 -0.13891223 -0.14362776 0.00094658666 -0.09454608 0.08872699 -0.11878169 0.030967563
00000000: ff17 503d fe3c 2ebe c6c3 a5bd 60e8 d23d
00000010: 352f f8bd f306 d63d ebc4 b23d 95a2 a93d
00000020: 1bb9 e0bd 156c a1bd fb19 b6bd d1f7 6dbd
00000030: 41d1 183d 6cdd 23be 8c62 2c3b 0fa9 fb3c
00000040: 5738 3dbe 1688 43bd d8a0 de3c d1df 833d
00000050: 4619 0ebe 690d 283c 7426 8c3c 3b2c 45bd
00000060: 004a 1bbd 6eb7 58be bfa8 88bd ce98 94bc
00000070: 08c1 47be f342 ecbd 631f 9e3d d38f 9fbd
00000080: 079d bf3b e302 2e3d aab1 733d a37e d93d
00000090: 5fdd b43d 3899 973d 4b01 4c3c 8bc6 933d
000000a0: 25b4 68be 3758 b7bb b9d2 4abc d5f0 03bc
000000b0: cda6 3cbe ed7a 9b3d 101c 24bd fb85 093d
000000c0: bf12 b73b b884 f6bd ce13 1bbd c6f0 483d
000000d0: 7067 f3bd 2d63 0c3e 8c74 17be e860 983d
000000e0: 7ec8 42be b164 75bd 9d4d 1cbe 7f5e 1fbe
000000f0: 0011 c5bc ff6c 3bbe b575 83bd dca0 64be
00000100: 25b9 2a3f 7795 1d3f 886a b2bd 309a 07c0
00000110: a80f 223f 6056 a2bf a4b1 163f 06c6 8fbd
00000120: 0507 323f 3fb2 2e3f befc e93e 536f 033f
00000130: d249 403f 35ce 123f 91b1 093f 4b1f e93e
00000140: 01d2 2d3f bcd6 363f bd8e 133f 861c d5bf
00000150: 79f0 053f 99c7 29bf 2071 0c3f 302e e2bc
00000160: 8963 023f cd52 283f f748 223f 73d5 fb3e
00000170: 2057 433f bb4d 223f b83e 303f d3ae 1f3f
00000180: 98eb dc3d b13f fabd 7c4e 5b3d b2c5 e0bf
00000190: b1f3 c1bb 483e 83bf bb60 183e 9067 e6bd
000001a0: fba1 02be 99be 233e 7e33 803e aeb3 e73e
000001b0: f6f7 0c3d 4d70 0e3e bdee c3bc c75b ad3e
000001c0: 6f2b e83d 1f01 f03d 1cb9 023e 0b9b 91bf
000001d0: 034e a1bd 2f85 f5be caeb 5a3e 10b6 a7bc
000001e0: 2911 1dbe 5ba9 1abe 83c6 353d 3801 d43e
000001f0: ca83 3f3e 5263 023e 0e89 2d3e c0d9 fdbd
00000200: 378a ea3e 6789 1a3f abc6 2d3e 1cf9 00c0
00000210: c132 213f 578f 9fbf c456 273f fb8d 05be
00000220: 2e86 fc3e 7af0 0c3f b204 283f 222f 0e3f
00000230: 8e29 333f 6fd7 0f3f a27e 383f 91b1 0b3f
00000240: cdb3 e63e 809d 293f 226b 333f ac9a c8bf
00000250: e9b5 323f baf8 1ebf 75cd 313f 8221 37bd
00000260: f635 363f 2272 363f 6c46 303f 1ef9 073f
00000270: c36a 283f f0c9 f23e f5df 413f 47d5 ef3e
00000280: 2e01 dc3e cb9e 0c3f 96dd c83d d465 0fc0
00000290: f909 163f 4220 98bf 94b8 f13e 529b d6bd
000002a0: 847d 1c3f 975b aa3e 711e f53e 7e26 343f
000002b0: 16c2 e43e 9b8d 1c3f 141b 143f a210 243f
000002c0: d41a ea3e 56e6 d23e 5294 e93e 0c4c e5bf
000002d0: 6e3f b23e dcc0 fabe dc68 f83e 9c44 6d3c
000002e0: 18c4 0f3f b69f 0c3f b282 083f a57f 103f
000002f0: 015a 8d3e b1e7 db3e 2533 033f dc90 ac3e
00000300: ef7f 09be f317 31be 2c21 2f3e 6427 8b3d
00000310: 98d1 d3bd 52ba 01be 0c2b 84bd 251c 1fbe
00000320: 4c53 3dbd 7e2d a23d d701 5ebe b9cc 1abe
00000330: 05d3 bdbd 5ab9 dcbd f768 1739 d494 ac3d
00000340: e01f 953b 8c61 a7bd 4ca9 f8bd dd5f 85bd
00000350: 672b f43c 5032 46be c9c7 5d3c 9230 c03c
00000360: fb7c 6ebd ccb6 80ba 71f7 e0bb 9a47 49bd
00000370: 76f5 c4bd 724b debd 9900 16be e2ba 9f3d
00000380: 4159 0cbe 09e9 a1bd 08d0 8b3d ff53 bdbb
00000390: 6632 8d3d 4816 613b 61ea a73d 3385 97bd
000003a0: f036 323c a36a 5e3d 69b7 a2bd e1af 04be
000003b0: 1108 c93d 302a debd 0037 15be 37bd 6b3c
000003c0: 6a24 a0bd cedf f8bd 613e 96bc 839c 3c3d
000003d0: d0b0 53bd 4d92 d83d 556b 13be 547b 0c3e
000003e0: 537d 753d 023f 0ebe 2813 13be 5b24 783a
000003f0: 60a1 c1bd 7fb6 b53d d143 f3bd b0af fd3c

fc3.bias f4 [16]
0.011787294 -0.08327839 5.0091715 6.3732567 5.1677923 5.258241 -4.0105555e-05 0.09333012
0.08760576 -0.19108994 4.992129 -0.15038519 0.10564354 0.12916724 5.156 -0.11359079
00000000: 7f1f 413c dc8d aabd 224b a040 b8f1 cb40
00000010: 8e5e a540 8343 a840 0337 28b8 dd23 bf3d
00000020: a66a b33d 15ad 43be 85bf 9f40 93fe 19be
00000030: a45b d83d 6b44 043e f4fd a440 4aa2 e8bd

fc4.weight f4 [1, 16]
-0.029793324 -0.17504449 0.84917 0.21561049 0.7296402 0.5546398 -0.071790315 -0.046568733
-0.17091644 -0.2009783 0.7564352 -0.01694849 -0.03825854 -0.1677384 0.65276545 -0.17805529
00000000: 2111 f4bc dd3e 33be 3563 593f ffc8 5c3e
00000010: b3c9 3a3f e0fc 0d3f cd06 93bd dbbe 3ebd
00000020: b804 2fbe 41cd 4dbe bda5 413f 8fd7 8abc
00000030: fdb4 1cbd 9dc3 2bbe a31b 273f 2054 36be
