Model/Pre Trained Model/Results/200000 Initial Capital/10 Properties/real_estate_ai_model_valuation.pt (torch, 50708 bytes, 7 tensors)

fc1.weight f4 [128, 10]
000000 db 76 a8 3d 8e 21 98 bd 2c 86 13 bd b3 91 90 3e
       0.08225795 -0.07428275 -0.03601663 0.2823616
000010 7a 10 a0 3e 4e 05 a5 bd b0 8f 29 3e 88 e8 ad 3f
       0.3126257 -0.080576524 0.16558719 1.3586588
000020 a0 b5 88 3f a4 5e 88 3e 77 31 ef 3c 36 0a b3 bd
       1.0680428 0.26634705 0.029198391 -0.08742182
000030 29 10 8d bd 56 96 ae 3e 5a 70 1b 3b 0b 98 c0 bd
       -0.06887848 0.34099072 0.002371809 -0.09404
000040 73 a3 4f bd b8 67 9e 3f 07 c8 83 3f d8 cb c5 bd
       -0.050692987 1.2375402 1.0295419 -0.09658021
000050 ae a9 90 bd 49 43 f5 bd 98 fc 88 bd b4 ae 70 3e
       -0.07063614 -0.11975724 -0.066888034 0.23504144
000060 27 37 6c bd 2c 3a 7c bd 53 8b c9 3d f6 83 7f 3f
       -0.057669785 -0.061578915 0.09841027 0.9981073
000070 8e cf a4 3f cc 25 34 3d 6c cd 15 bf 72 23 b9 3d
       1.2875841 0.04398136 -0.58516574 0.09039964
000080 1e 47 ac be 8d 60 25 bf 1d 10 07 be 67 81 2f 3f
       -0.33648008 -0.6460045 -0.1318974 0.6855683
000090 a2 e1 a0 be bb 6b d1 bf ea 0b d4 bf 75 ca 71 be
       -0.31422144 -1.6361002 -1.6566136 -0.23612387
0000a0 b6 cd 5a 3f ec 48 95 3d c7 1a ea 3d b4 61 0a 3f
       0.8547014 0.07289299 0.114308886 0.54055333
0000b0 41 06 be bd 9c a7 ab bd 7d ec 6b bd 24 e6 eb 3f
       -0.092785366 -0.08381578 -0.05759858 1.8429608
0000c0 2d 04 b7 3f d0 d5 eb 3e 90 4b b0 3d fa 4f 97 3d
       1.4298149 0.46061563 0.086081624 0.07388301
0000d0 df c4 c8 3d 6a 54 29 3e 18 ae e4 bc 3b 2d d2 bd
       0.09803175 0.16536108 -0.027915046 -0.10262533
0000e0 30 ef 39 be 2b 33 ba 3f a2 d2 55 3f bb db 6d be
       -0.18157649 1.4546865 0.83524525 -0.23228352
0000f0 41 6f 34 3f f6 71 bb 3d 89 6e 8f 3d 48 24 84 3e
       0.7048226 0.09152596 0.07003505 0.2580893
000100 8e c1 8a 3e 35 95 8c 3e d4 da 27 bd 61 d3 eb 3f
       0.27100796 0.27457586 -0.040980175 1.8423883
000110 bc 8b a8 3f e5 b1 cc 3e e1 70 00 bf e9 28 e6 bd
       1.3167644 0.39979473 -0.5017224 -0.11238272
000120 95 47 a5 bd f3 6d 87 be ce e1 89 be 57 3a d5 3e
       -0.08070294 -0.26451072 -0.26930088 0.41646072
000130 b6 d7 00 bf a1 3a 4b c0 aa 51 30 c0 a5 df 85 be
       -0.5032915 -3.1754534 -2.7549844 -0.2614719
000140 d9 75 b7 bd c8 87 ad bd 02 3b 1e bd a9 8f 6d 3e
       -0.089580245 -0.08473164 -0.038630493 0.23199333
000150 ce 3a 8c bd 6b e4 b5 bd d2 9a 07 bc 54 83 96 3f
       -0.068471536 -0.08881458 -0.008276658 1.1758828
000160 64 21 86 3f e1 70 33 3e 9d ab 88 3f bd 14 07 3e
       1.047894 0.17523529 1.0677372 0.13191505
000170 f4 2b 25 3e 3b 72 1f 3f 13 fc d2 bd 40 73 a3 be
       0.16130048 0.62283677 -0.103019856 -0.31923866
000180 dd bd 5e bc 22 89 ff 3f f0 81 d5 3f b3 01 a3 be
       -0.013595072 1.9963725 1.6680279 -0.31837234
000190 00 aa fe 3e 04 01 83 be 79 1b 6e be 1a 62 63 3d
       0.49739075 -0.25586712 -0.23252667 0.05551348
0001a0 00 c8 23 be 30 dd ba bd 26 61 60 3e 6a 64 ba 3f
       -0.15994263 -0.091242194 0.21912059 1.4561894
0001b0 26 df 47 3f b2 8b 08 be 2e 77 a9 3d 99 4d ba bd
       0.7807487 -0.1333454 0.08274685 -0.09096832
0001c0 ea 1f a0 be 4a 7c b1 3c f1 3a 24 3e 14 09 0b 3f
       -0.31274348 0.021665711 0.1603811 0.5431073
0001d0 f0 03 bd bd e0 d2 99 3f 82 c5 85 3f 92 24 16 be
       -0.09229267 1.2017479 1.04509 -0.14662388
0001e0 43 7b 89 3f a5 8c 9e bd 74 bd 57 bd 64 38 0f 3f
       1.0740741 -0.077416696 -0.05267091 0.5594542
0001f0 fe ac 95 3e c2 52 96 3e 59 34 12 3e 68 42 25 40
       0.29233545 0.29360014 0.14277782 2.582178
000200 b2 4f d8 3f 90 ed b6 be c2 66 73 3f a2 0d 11 bd
       1.6899321 -0.3572812 0.9507867 -0.035413392
000210 10 9a 23 bc 95 2b 1e 3f 22 dd 56 3d 03 5a 82 3d
       -0.009985462 0.6178525 0.052456982 0.063648246
000220 2d fb 0a 3e 8c ef 0b 40 ca 8c de 3f 06 07 0e 3f
       0.13572378 2.1864958 1.7386715 0.55479467
000230 2e bc 3e be e6 39 a1 3d bd ab b4 3d 8a 58 83 3d
       -0.18626472 0.078723714 0.08821819 0.06413372
000240 90 e9 09 3e a2 d5 64 bd 04 c1 41 3d 02 ec a9 3f
       0.13468003 -0.0558678 0.047303215 1.3275149
000250 b9 ab 94 3f 34 00 b7 3b eb 53 0c 3f 5e 91 99 3e
       1.1614906 0.005584741 0.5481555 0.2999372
000260 fb bc f4 bd 79 94 6c 3e b6 7b ad 3e 16 a8 95 be
       -0.11950108 0.23103513 0.33883446 -0.29229802
000270 f4 12 6c 3e d5 73 ec 3f 9f d3 a2 3f 57 5b 10 bf
       0.23054105 1.8472849 1.2720832 -0.56389374
000280 2a f2 c1 3e 1d 28 49 3d e7 cd ac 3d 5c f4 1b 3f
       0.3788007 0.04911052 0.0843771 0.6091974
000290 95 9f 20 bc e1 40 46 bd b0 87 25 3e 31 19 9b 3f
       -0.009803672 -0.048401717 0.16165042 1.2117063
0002a0 81 a2 4b 3f 33 bc 53 3e ac 7d 24 3f 32 cd 83 3d
       0.79544836 0.20677261 0.6425426 0.06435622
0002b0 49 df 04 bd fb 94 dc 3e 0c 39 6b bd 62 db 0b 3c
       -0.032439504 0.43082413 -0.05742745 0.008536192
0002c0 0b bf fc bd b6 c9 c0 3f 1b 3a 9c 3f 2e ae 00 3e
       -0.12341126 1.5061557 1.2205232 0.12566444
0002d0 32 88 55 3f 36 3c 0f 3e 81 ca 2c 3e ed 51 29 3f
       0.8341094 0.13987812 0.16874124 0.66140634
0002e0 0a c7 b2 3e f2 5c 5a 3d c1 fe 58 3e d5 2c 15 40
       0.3491748 0.053311296 0.21190931 2.3308613
0002f0 3f 1e e4 3f 3a 5f d0 bd e2 cc 16 3f 0a eb 6f 3d
       1.782173 -0.10174413 0.58906376 0.05857376
000300 91 c2 6a be 9a 22 e4 3e 74 d7 b7 bd d5 a4 bc bd
       -0.22925784 0.4455765 -0.08976641 -0.09211127
000310 94 de fe bd f1 b4 d9 3f 03 b7 a1 3f c2 ac 65 3e
       -0.12444797 1.7008344 1.2633976 0.22429183
000320 64 f7 78 3e 4a 0b 4e 3e 03 01 78 3e ea 87 c9 3e
       0.24313122 0.20121494 0.24219136 0.39361507
000330 cf f1 00 3b 11 8e c4 bc 56 c7 3e 3d 65 2e b6 3f
       0.001967538 -0.023993524 0.04657682 1.4232908
000340 2b 38 37 3f f6 fe 93 3d f5 3a f7 be a6 34 f7 3d
       0.7157008 0.07226364 -0.48287168 0.12070589
000350 95 df 05 3e 5e e0 f1 be 18 c6 c7 bd c8 a0 de 3e
       0.13073571 -0.4724149 -0.0975458 0.4348204
000360 37 fe 02 bf 53 c0 c4 bf fe ee c9 bf 59 21 79 be
       -0.5116915 -1.5371193 -1.577606 -0.24329127
000370 83 56 5b 3e 91 e5 54 3e 27 8f 88 3e f5 45 0e 3f
       0.2141972 0.20790698 0.26671717 0.55575496
000380 54 63 99 bc aa e3 f7 bd 06 22 b2 bd 08 54 c2 3f
       -0.018724121 -0.1210397 -0.08697896 1.5181894
000390 89 e1 5e 3f c1 9f fa bd 4b f2 df 3e da 7f 3b 3d
       0.8706289 -0.12237502 0.43739542 0.045776226
0003a0 84 8f bc 3d 1f d4 cb 3d 0d 1c d6 bd 2b 5f 27 be
       0.09207061 0.09952568 -0.10454569 -0.16344897
0003b0 b9 02 f1 bd 51 2f bb 3f 8a b2 8f 3f ce 94 3e be
       -0.117680974 1.4623815 1.1226361 -0.18611452
0003c0 53 db b9 bc d2 08 a9 3c 46 ba 7f 3d e7 ca 22 3f
       -0.02268759 0.020634089 0.062433504 0.63590854
0003d0 bc 77 2b 3e 10 a9 af bd f0 80 d0 bd fa 85 91 3f
       0.16744894 -0.08577168 -0.10180843 1.1369011
0003e0 74 e4 5b 3f bf 3e 3d 3e 1e 02 96 3d 1d 01 59 bd
       0.85895467 0.18480967 0.073246226 -0.052979577
0003f0 b3 24 ed 3b 39 db d7 3e 9f a2 93 3c a6 79 8c bd
       0.007237041 0.4215944 0.01802188 -0.0685914

fc1.bias f4 [128]
000000 0b 00 4e 40 80 52 44 40 11 3d 35 40 6f 0f 2f 40
       3.2187526 3.0675354 2.8318522 2.735317
000010 b5 f8 00 40 f5 d3 34 40 00 11 19 40 87 fc 52 40
       2.0151799 2.8254368 2.3916626 3.296663
000020 f5 b5 33 40 32 20 75 3f e5 97 35 40 63 52 46 40
       2.8079808 0.9575225 2.837396 3.0987785
000030 23 56 62 3d a9 72 d3 3e db 2f 2f 40 0a 67 23 40
       0.055257928 0.41298416 2.7372959 2.553164
000040 17 f2 4e 40 60 9b 2d 40 72 6a 2e bf 1e 65 47 40
       3.233526 2.7126083 -0.6813117 3.1155467
000050 8d b0 43 40 5b 99 18 40 c8 33 33 40 e3 7f 4e 40
       3.0576508 2.38436 2.8000355 3.2265556
000060 aa b4 43 40 23 36 42 40 c6 43 2a 40 be c2 2f 40
       3.0579019 3.0345542 2.6603866 2.7462611
000070 7b 86 b2 3f bd b6 3e 40 b2 f3 44 40 07 96 42 40
       1.394729 2.9799035 3.077374 3.040407
000080 bd b7 34 40 dc 7c 47 40 a1 c2 52 40 64 51 b3 be
       2.8237145 3.1169958 3.2931292 -0.35023034
000090 94 fe 39 40 e3 fd 3b 40 7e 18 22 40 d8 12 46 40
       2.9061632 2.937371 2.532745 3.0949001
0000a0 1e df 31 40 aa d7 e1 3f 4f 5f 4a 40 f5 e3 2d 40
       2.779243 1.764394 3.1620672 2.7170384
0000b0 ce a8 46 40 b4 5d 46 40 c7 5c 3f 40 b4 d8 e8 3f
       3.104053 3.0994692 2.9900377 1.8191133
0000c0 cb 70 ca 3f cb 96 0f 40 39 8b 2a 40 95 3d 44 40
       1.5815672 2.2435787 2.6647475 3.0662587
0000d0 08 5b 43 40 14 58 58 bf 62 15 36 40 78 73 3e 40
       3.052431 -0.84509397 2.845055 2.9757977
0000e0 23 92 09 40 85 97 2e 40 35 30 93 bd e3 58 44 40
       2.1495445 2.727998 -0.07186929 3.0679252
0000f0 7e 28 3a 40 13 c3 be 3f fe 05 ec 3f 6a 39 18 bf
       2.9087214 1.4903282 1.8439329 -0.59462607
000100 83 4c 45 40 4b a6 23 40 07 9e 29 40 79 46 3e 40
       3.082795 2.5570247 2.6502702 2.9730513
000110 6f cf 3c 40 3e c4 16 40 80 96 32 40 c0 c8 33 bf
       2.9501607 2.3557277 2.7904358 -0.70228195
000120 3a c9 d8 be 88 ef 36 40 b8 ca 4c 40 40 01 3f 40
       -0.42341024 2.8583698 3.199873 2.9844513
000130 25 71 2f 40 e4 48 a5 be 66 61 33 40 2b d1 99 3f
       2.7412808 -0.32282174 2.8028197 1.2016958
000140 04 89 1c bf 3e 21 01 bf 62 af 4b 40 ed f1 27 40
       -0.6114657 -0.5044135 3.1825795 2.624141
000150 e1 41 18 40 9a bc 32 40 f1 80 51 40 13 72 3a 40
       2.379021 2.7927613 3.273495 2.9132125
000160 9d 1c 20 40 30 98 cf 3f a4 3a 2c 40 8c 28 20 40
       2.5017464 1.6218319 2.6910791 2.5024748
000170 ea ef cc 3f c1 b6 d6 3f 1a c4 92 3f 68 47 38 40
       1.6010716 1.6774522 1.1466095 2.8793583
000180 da 07 10 40 5c 59 38 40 41 c2 4a 40 b1 44 4c 40
       2.2504792 2.880454 3.1681063 3.1916926
000190 43 36 e6 3d 1c 85 06 40 06 b0 2a 40 e5 5b 60 3f
       0.11240818 2.1018744 2.6669936 0.8764022
0001a0 db 60 30 40 f5 14 36 40 64 e4 2e 40 2d 36 52 3f
       2.7559116 2.845029 2.7326899 0.82113916
0001b0 e6 83 2c 40 17 1c 85 be 27 11 3f 40 da ae 46 40
       2.6955504 -0.25997993 2.985422 3.104422
0001c0 52 00 32 40 00 79 21 40 fc 66 25 40 ca 8c 38 40
       2.7812696 2.5230103 2.5844107 2.883593
0001d0 e4 3b 23 40 7a ee 43 40 ed ba 2e 40 c3 c1 41 40
       2.5505304 3.0614305 2.730159 3.0274513
0001e0 db 41 2c 40 9c 58 2b 40 69 7a 3f 40 7c ae 35 40
       2.6915195 2.6772833 2.9918463 2.8387747
0001f0 c1 d9 36 40 b1 4c 36 40 b3 7c 49 40 96 f4 27 3f
       2.8570406 2.8484309 3.148236 0.65607584

fc2.weight f4 [64, 128]
000000 2f b5 6a 3f 85 ab b0 3f 15 70 d0 3f 90 a6 84 3f
       0.91682714 1.3802344 1.6284205 1.0363331
000010 a6 3a 45 3f 44 01 87 3f 13 8b 2f 3f e3 4e 83 3f
       0.77042615 1.0547261 0.68571585 1.0258449
000020 72 4d cf 3f cb 56 82 3f ae 8b b2 3f 00 d2 30 3f
       1.619551 1.0182737 1.3948877 0.69070435
000030 03 c2 70 3f 16 90 94 3f 3e 8c c5 3f d9 0f 47 3f
       0.9404604 1.1606472 1.5433424 0.77758557
000040 a2 fd 6b 3f d8 b9 3a 3f 94 9d b3 3f f7 8d 3f 3f
       0.9218389 0.72939825 1.4032464 0.74825996
000050 1f fe 79 3f 17 82 85 3f e5 bc 7c 3f 79 81 64 3f
       0.97653383 1.0430325 0.9872573 0.8926006
000060 2b 9f a6 3f b9 3e 7f 3f 35 52 97 3f 3c 29 b4 3f
       1.3017324 0.9970508 1.1821963 1.4075084
000070 22 9f 6c 3f 3d 75 5a 3f a0 37 65 3f 78 c2 92 3f
       0.9243032 0.8533514 0.89538 1.1465597
000080 82 f4 a3 3f 26 df 93 3f 2f d2 4b 3f a2 cf ba 3f
       1.2808993 1.1552474 0.7961759 1.4594615
000090 96 01 a3 3f 66 f8 be 3f de fc d5 3f 00 27 4d 3f
       1.2734859 1.4919555 1.6717794 0.80137634
0000a0 e2 0a bb 3f 8f b8 20 3f 85 98 33 3f 24 4a 48 3f
       1.4612696 0.62781614 0.701546 0.7823813
0000b0 1e eb 88 3f ed 84 88 3f 75 4d 16 3f 6e 36 8d 3f
       1.0696752 1.0665566 0.5871194 1.1032236
0000c0 01 d8 30 3f 03 9d 18 3f 6c b8 37 3f 07 c0 a3 3f
       0.69079596 0.5961458 0.7176578 1.2792977
0000d0 12 84 a2 3f 3e 9f c3 3f bc 4a 98 3f 20 67 b4 3f
       1.2696555 1.5282972 1.1897807 1.4093971
0000e0 f1 f4 57 3f 5a 47 a1 3f d4 6e 9b 3f 01 f4 9f 3f
       0.84358126 1.25999 1.2143197 1.2496339
0000f0 f2 ef b2 3f 16 fb 82 3f 09 3d 0b 3f ae 4b 96 3f
       1.3979475 1.0232875 0.5439001 1.1741846
000100 e5 35 8b 3f 60 36 27 3f 5b 90 62 3f dd b2 98 3f
       1.0875822 0.65317345 0.8850152 1.1929585
000110 ac 88 a9 3f d0 69 b1 3f 7c 5e 32 3f 66 1e b5 3f
       1.3244834 1.3860416 0.6967542 1.4149902
000120 b2 53 9e 3f 8f 54 8f 3f 21 af 5c 3f 6e 62 c2 3f
       1.2369292 1.119768 0.86204726 1.5186288
000130 a7 71 cc 3f 93 37 b9 3f c6 05 d2 3f d8 f7 17 3f
       1.5972184 1.4470085 1.6408012 0.59362555
000140 62 42 9f 3f a4 a7 c4 3f fb b3 58 3f 79 00 3e 3f
       1.2442133 1.536366 0.8464963 0.7421947
000150 41 83 ca 3f b4 f8 93 3f c7 8c 68 3f 05 01 af 3f
       1.5821306 1.1560273 0.9083981 1.3672186
000160 9b 6e ac 3f ad 47 9c 3f bd a3 d5 3f a0 37 ba 3f
       1.3471254 1.2209374 1.6690594 1.4548225
000170 bc 66 1a 3f 4f 9c 4c 3f be 2c 55 3f 24 74 2e 3f
       0.6031301 0.7992601 0.83271396 0.68145967
000180 8a d5 75 3f bd 6d 2f 3f 6b 8c 79 3f b5 c5 a5 3f
       0.9602896 0.6852682 0.97479886 1.295096
000190 9f 30 44 3f 35 14 9f 3f 77 bb c9 3f 14 96 7e 3f
       0.7663669 1.2428042 1.5760335 0.9944775
0001a0 dd 03 c7 3f 6b e1 36 3f 2e f9 b0 3f e8 cb 93 3f
       1.5548054 0.7143771 1.3826044 1.1546602
0001b0 d0 9f d1 3f c8 17 95 3f f9 7f b0 3f 7f 77 9d 3f
       1.6376896 1.1647882 1.3789054 1.2302092
0001c0 56 ae cf 3f 70 5f 8c 3f bc 60 ca 3f a6 61 79 3f
       1.6225078 1.0966625 1.5810771 0.97414625
0001d0 68 cb 4b 3f 39 d4 83 3f 61 86 de 3f 40 63 ad 3f
       0.7960725 1.029914 1.7384759 1.3545914
0001e0 cc 34 ec 3f 5f f6 e3 3f 81 86 66 3f 22 cc 73 3f
       1.8453612 1.7809561 0.90048987 0.95233357
0001f0 78 9b a4 3f 7c 90 80 3f be 8a 3d 3f 28 58 68 3f
       1.2859945 1.0044093 0.7403983 0.90759516
000200 1c 96 62 3f 73 e3 aa 3f ad ef dc 3f 36 b3 77 3f
       0.885103 1.3350662 1.7260643 0.9675783
000210 c5 18 69 3f 45 f6 7c 3f 7f a9 24 3f 06 25 6c 3f
       0.9105342 0.9881328 0.6432113 0.92243993
000220 60 62 d5 3f fb de 75 3f 15 fe c4 3f c6 e4 3a 3f
       1.6670647 0.96043366 1.539004 0.7300533
000230 7c c6 63 3f b6 49 9b 3f 05 23 cc 3f 6d ad 4e 3f
       0.8897474 1.213187 1.5948187 0.80733377
000240 74 42 52 3f 0b 80 57 3f fc aa c3 3f 42 29 60 3f
       0.8213265 0.84179753 1.5286555 0.87562954
000250 6b 2a 7f 3f 6c da 93 3f b5 31 77 3f f1 db 71 3f
       0.996741 1.1551032 0.9656022 0.9447623
000260 fe 04 ac 3f e7 d4 82 3f 1a 09 8c 3f 1b e9 c4 3f
       1.3439023 1.0221223 1.0940278 1.5383638
000270 51 04 89 3f d2 f1 4c 3f 4f 68 67 3f a3 8e 9c 3f
       1.0704442 0.8005649 0.9039354 1.2231029
000280 c6 99 89 3f e4 52 9b 3f ab a6 50 3f 85 4a b4 3f
       1.0750053 1.2134671 0.81504315 1.4085242
000290 77 af b7 3f d9 4d bb 3f 31 c2 e0 3f 78 0d 43 3f
       1.4350423 1.4633132 1.7559263 0.76192427
0002a0 eb 77 c3 3f c5 fd 1e 3f a7 3f 37 3f 3f 3b 5f 3f
       1.5270971 0.6210597 0.715815 0.8719978
0002b0 e4 d5 8d 3f 0e 53 87 3f 3b e6 2e 3f 0d d1 a0 3f
       1.1080899 1.0572221 0.68320054 1.2563797
0002c0 43 2b 52 3f c7 ca 3f 3f f4 36 40 3f 99 39 ac 3f
       0.8209726 0.7491879 0.7508385 1.3455077
0002d0 2b 43 b4 3f 68 2e b9 3f d4 14 91 3f 92 4b c4 3f
       1.4082998 1.4467287 1.1334481 1.5335562
0002e0 ec c8 64 3f 6b c7 83 3f 72 eb ba 3f 10 10 b6 3f
       0.8936908 1.0295233 1.4603102 1.4223652
0002f0 6a e5 ad 3f d1 8e 81 3f 0e fc 35 3f 16 53 9e 3f
       1.3585637 1.0121709 0.7108773 1.2369106
000300 1d cf a0 3f 04 98 36 3f 4b 39 5e 3f a0 8e 92 3f
       1.2563206 0.7132571 0.8680617 1.1449776
000310 4b 32 9e 3f 63 12 be 3f 72 b8 1a 3f 66 81 bd 3f
       1.2359098 1.4849361 0.6043769 1.4805114
000320 f1 a3 ab 3f 39 aa 9f 3f 7e ac 5c 3f 39 31 bb 3f
       1.3409406 1.2473823 0.862007 1.4624397
000330 47 ea d9 3f da 5b af 3f 4d f7 d5 3f 51 a3 1e 3f
       1.7024621 1.3699906 1.6716095 0.6196795
000340 18 2c b5 3f a9 42 d2 3f 52 23 3e 3f c8 03 4c 3f
       1.4154081 1.6426593 0.74272645 0.7969327
000350 f8 51 cb 3f cb e9 9e 3f cb 27 45 3f 8b 78 b6 3f
       1.588439 1.2415098 0.77013844 1.4255537
000360 29 3e b6 3f 5e ec aa 3f 39 4e ec 3f d7 0a c2 3f
       1.423772 1.3353384 1.8461372 1.5159558
000370 89 0c 1b 3f 71 5d 71 3f d8 d5 6d 3f 62 a5 3f 3f
       0.60566 0.94283205 0.92904425 0.7486173
000380 8b 08 89 3f 72 2b 42 3f 95 bf 73 3f ab 6a b5 3f
       1.0705732 0.7584754 0.95214206 1.4173177
000390 51 37 41 3f 5d fa b3 3f 75 bf c4 3f 3d b8 8b 3f
       0.7547503 1.406078 1.5370928 1.09156
0003a0 82 e8 ce 3f 0e 7d 36 3f 00 5e b9 3f fc 2a 9a 3f
       1.6164706 0.7128457 1.4481812 1.2044368
0003b0 e6 5c d0 3f ed 63 a6 3f 42 b8 a0 3f 9c a0 a9 3f
       1.627835 1.2999245 1.2556231 1.3252139
0003c0 4f 87 dc 3f ed 56 96 3f fa 3a cf 3f 56 92 6f 3f
       1.7228793 1.1745278 1.6189873 0.93582666
0003d0 b3 2f 5f 3f ec 4d 94 3f f0 ee df 3f e2 7c b2 3f
       0.8718216 1.158628 1.7494793 1.3944361
0003e0 aa fd f0 3f 4f ea de 3f 00 77 61 3f a0 13 7a 3f
       1.8827412 1.7415255 0.88072205 0.97686195
0003f0 90 54 b7 3f fc 1d 84 3f d3 b4 3c 3f 5e b3 63 3f
       1.4322681 1.032165 0.73713416 0.8894557

fc2.bias f4 [64]
000000 31 11 2e 40 b1 0b 31 40 a4 77 33 40 57 98 2c 40
       2.7197993 2.7663386 2.8041773 2.696798
000010 1a 2c 32 40 55 4d 2b 40 8e 41 43 40 e2 5a 2d 40
       2.7839417 2.676595 3.0508761 2.708672
000020 ec 11 33 40 6d 98 2d 40 9f f1 39 40 85 3b 2b 40
       2.7979689 2.7124283 2.9053724 2.6755078
000030 86 c2 2e 40 ca 83 2f 40 e1 51 27 40 38 cb 30 40
       2.7306228 2.7424188 2.6143725 2.7624035
000040 8a 77 2e 40 09 77 28 40 d1 cc 2f 40 ae 6c 2d 40
       2.726046 2.6322653 2.746876 2.7097583
000050 c1 8d 2d 40 4a 55 26 40 ce e2 31 40 e5 bc 2a 40
       2.711777 2.5989556 2.779468 2.6677792
000060 82 fc 31 40 49 f2 3e 40 84 46 2e 40 6c 82 28 40
       2.7810369 2.983538 2.723054 2.6329603
000070 f4 46 2c 40 27 c0 36 40 39 69 2c 40 73 86 25 bd
       2.6918306 2.855478 2.6939223 -0.040411424
000080 5b 84 2b 40 db ef 28 40 5f b1 31 40 30 1f 2f 40
       2.6799533 2.6396396 2.7764509 2.7362785
000090 a9 5c 62 40 86 87 2f 40 f0 55 32 40 dd 5f 2f 40
       3.5369055 2.7426467 2.7864952 2.740226
0000a0 7e 59 22 40 bc a3 2c 40 13 10 eb 3e 73 41 2c 40
       2.5367122 2.6974936 0.459107 2.6914947
0000b0 13 dc 2c 40 c1 e3 27 40 7b 13 28 40 35 87 31 40
       2.7009323 2.623276 2.626189 2.7738774
0000c0 3a 6f 28 40 77 8d 2b 40 3f 4f 29 40 e0 e7 2b 40
       2.6317887 2.6805093 2.6454618 2.6860275
0000d0 c0 f3 2f 40 c8 63 2e 40 4a f5 2d 40 58 aa 29 40
       2.7492523 2.7248402 2.7180963 2.651022
0000e0 94 df 2b 40 dc 4e 3d 40 de 6a 25 40 0f 29 33 40
       2.6855211 2.9579382 2.5846477 2.799381
0000f0 cc 61 32 40 2e ed 34 40 6b fb 2d 40 d7 08 2c 40
       2.787219 2.8269763 2.7184703 2.6880395

fc3.weight f4 [32, 64]
000000 40 b8 80 3f 17 40 7c 3f aa 09 83 3f d1 b2 88 3f
       1.0056229 0.98535293 1.0237324 1.067957
000010 16 f0 7d 3f 22 5e 80 3f ba 3f 42 3f 50 37 6c 3f
       0.9919447 1.0028727 0.7587849 0.922719
000020 5d fe 75 3f b4 4c 75 3f 04 a4 73 3f 3f ce 86 3f
       0.9609125 0.95820165 0.95172143 1.0531691
000030 aa b6 72 3f af 46 8b 3f e2 55 83 3f 31 2e 75 3f
       0.94809973 1.0880946 1.0260584 0.9577361
000040 32 01 5b 3f e1 08 56 3f 83 56 7f 3f 04 11 76 3f
       0.855487 0.836073 0.9974138 0.96119714
000050 20 2d 89 3f 01 c3 8a 3f 7a 9b 70 3f 2f c5 68 3f
       1.0716896 1.084076 0.9398724 0.9092588
000060 72 6b 84 3f bd 78 66 3f 3d 96 62 3f 00 aa 85 3f
       1.034529 0.9002798 0.88510495 1.0442505
000070 13 e1 73 3f 51 26 5f 3f 92 93 78 3f 4c 00 85 bc
       0.9526531 0.8716784 0.97100174 -0.016235493
000080 dd eb 82 3f dc 3c 75 3f ab b0 87 3f 67 ae 76 3f
       1.022823 0.9579599 1.060079 0.96359867
000090 09 03 68 3f 5e f0 81 3f 75 05 88 3f c5 8a 5d 3f
       0.9062963 1.0151479 1.0626665 0.8653987
0000a0 b0 4e 47 3f 69 a7 72 3f 3e f7 76 3e 73 85 51 3f
       0.7785444 0.947867 0.24117753 0.8184425
0000b0 bd e0 52 3f 69 0f 7f 3f 89 97 60 3f 54 97 79 3f
       0.82374173 0.9963289 0.87731224 0.97496533
0000c0 9e 92 6d 3f 2b ab 65 3f 31 e6 67 3f de 7e 69 3f
       0.92801845 0.89714307 0.9058562 0.9120921
0000d0 f4 7e 71 3f 31 e0 8a 3f e9 e2 88 3f 7c c0 59 3f
       0.9433434 1.0849668 1.0694247 0.8505933
0000e0 62 3e 68 3f 76 fd 63 3f e3 3d 52 3f 92 8a 6d 3f
       0.9072019 0.89058626 0.8212568 0.92789567
0000f0 00 ff 7f 3f 93 62 57 3f 34 da 5d 3f 94 e6 66 3f
       0.99998474 0.8413479 0.86661077 0.90195584
000100 5e 26 76 3d 44 9b d1 bd 73 50 0d be 6b cc 50 bd
       0.060095184 -0.10234693 -0.1380022 -0.0509762
000110 6d c9 b0 bd b9 2c d8 3d 9f 01 91 bd 17 30 00 be
       -0.08632169 0.10555405 -0.07080387 -0.12518345
000120 9b 10 ab bd 92 be 48 3d 53 38 ca bd 55 25 98 bd
       -0.083527766 0.049009867 -0.09874024 -0.074289955
000130 fc cf 52 3d b3 65 80 bd 57 f4 a1 3c 20 60 95 bc
       0.05146788 -0.062693976 0.01976983 -0.018234313
000140 90 1b b8 bd 63 10 5e bd 8f 21 48 3d b1 2e 81 3c
       -0.08989632 -0.054214846 0.04886013 0.015769335
000150 86 58 9e bc ef 17 89 bd 27 3b ca bc 5a e0 43 3d
       -0.01932932 -0.06694018 -0.02468641 0.04782138
000160 6f e6 a3 bc 26 f4 73 3d f1 92 f7 bd e8 90 80 3d
       -0.02000734 0.05955901 -0.12088574 0.06277639
000170 26 cb 81 bd 86 96 cb bc 28 59 08 be 2e 0d 18 bc
       -0.063375756 -0.024852049 -0.1331526 -0.009280486
000180 7d 86 0c bd a9 11 44 bd 07 83 5a bd 29 d8 cc bd
       -0.034307946 -0.047868405 -0.053347614 -0.10002167
000190 8d f5 da bd b6 cc ad bd 8f d1 c7 bd f6 f3 8c 3a
       -0.10691366 -0.08486311 -0.09756767 0.0010753858
0001a0 9d af b9 3b 62 91 8c bd 44 67 b4 bd e5 90 12 bd
       0.0056666867 -0.06863667 -0.08808759 -0.035782713
0001b0 a6 67 ad 3d ac db 9e bd 1a be 87 3c ba 02 94 3c
       0.08467035 -0.07756743 0.01657014 0.018067706
0001c0 7a 5d 00 be 7b b7 de bc d2 f0 b8 3d 9a 2c 24 3d
       -0.12535658 -0.0271871 0.09030308 0.040081598
0001d0 55 0d 00 bd 90 68 15 bd d1 50 7f bd 78 4c d0 bd
       -0.031262714 -0.03647667 -0.062332932 -0.10170835
0001e0 05 cd d6 bc 39 9f 87 3d 0e bb 8f bc ea 13 bd bc
       -0.026220808 0.06622166 -0.01754525 -0.023080785
0001f0 f5 79 f0 bc 9f 59 a2 3d ab 89 51 3c bd 25 16 bc
       -0.029355029 0.0792725 0.01278917 -0.009164271
000200 41 b0 67 3f 5c 3e 84 3f 4a ea 7d 3f f0 06 73 3f
       0.9050332 1.033153 0.9918562 0.9493246
000210 3f ff 65 3f 1c e0 84 3f 4e 23 47 3f a0 46 64 3f
       0.898426 1.0380893 0.77788246 0.89170265
000220 ee 44 89 3f db 00 5e 3f 93 7d 4b 3f f0 02 8c 3f
       1.0724161 0.86720055 0.79488486 1.0938396
000230 ee 27 6e 3f 5b c5 76 3f ff 38 74 3f dc f8 80 3f
       0.9302968 0.9639489 0.9539947 1.0075946
000240 6e 2d 71 3f d6 b9 63 3f 21 b7 80 3f a8 88 6f 3f
       0.94209945 0.8895544 1.0055887 0.93567896
000250 db 67 78 3f ca 6e 88 3f 63 c9 7b 3f 6b 4c 88 3f
       0.9703347 1.065881 0.98354167 1.0648321
000260 03 32 88 3f 3a f1 62 3f 6f 6c 81 3f 7e 45 77 3f
       1.0640262 0.8864933 1.0111216 0.9659041
000270 66 57 8b 3f 53 45 87 3f 73 33 82 3f 17 b7 0b bb
       1.0886047 1.0568031 1.0171951 -0.0021318847
000280 7a 4f 83 3f 30 2f 80 3f f4 eb 84 3f e0 48 86 3f
       1.0258629 1.00144 1.0384507 1.049099
000290 49 0e 7b 3f cb 26 87 3f a1 68 5f 3f 11 8f 50 3f
       0.9806867 1.0558714 0.87269026 0.814683
0002a0 06 25 80 3f 8e b6 53 3f 7a 64 5c 3e 13 21 55 3f
       1.0011299 0.8270043 0.21522704 0.8325359
0002b0 e0 68 73 3f 75 71 84 3f c9 e1 82 3f 22 eb 7c 3f
       0.950819 1.0347124 1.0225154 0.98796284
0002c0 3e 67 5f 3f 3c 53 5b 3f cb 32 6b 3f 3a 4d 54 3f
       0.8726691 0.8567388 0.9187438 0.8293034
0002d0 89 9e 61 3f f5 50 82 3f 17 08 62 3f ba fc 5d 3f
       0.8813253 1.0180956 0.88293594 0.86713755
0002e0 92 81 8b 3f 92 da 82 3f b4 18 87 3f 28 e9 60 3f
       1.0898917 1.0222952 1.0554414 0.8785577
0002f0 0a dc 89 3f f8 b4 79 3f 92 4a 69 3f 54 b0 88 3f
       1.0770276 0.9754176 0.9112941 1.0678811
000300 31 bb 85 3f 69 01 76 3f 73 31 81 3f c8 a9 63 3f
       1.0447751 0.960959 1.0093216 0.8893094
000310 ff 0a 74 3f f7 9e 7b 3f 9c d0 7b 3f 3d 13 7c 3f
       0.9532928 0.98289436 0.9836519 0.98466855
000320 5a 18 70 3f 7a 9c 86 3f 17 29 85 3f e9 19 88 3f
       0.9378716 1.0516503 1.0403165 1.0632907
000330 d1 ed 76 3f 1f c8 80 3f f4 ce 58 3f 52 f7 86 3f
       0.9645663 1.0061072 0.84690785 1.0544226
000340 4f fd 67 3f 2b 2f 5b 3f 0e 0f 6c 3f 08 f4 62 3f
       0.90620893 0.8561885 0.9221047 0.8865361
000350 df a7 85 3f 48 c5 69 3f c0 cd 74 3f 16 b2 65 3f
       1.0441855 0.9131665 0.9562645 0.8972486
000360 2a 15 67 3f 3f bb 6e 3f 8f 56 7c 3f 5f 6b 7e 3f
       0.9026667 0.93254465 0.9856958 0.99382585
000370 73 75 86 3f 38 15 6b 3f e5 43 6b 3f d2 44 8f bd
       1.0504593 0.9182925 0.91900474 -0.06995548
000380 da 4d 53 3f 26 df 60 3f 86 73 83 3f af c5 8b 3f
       0.8254067 0.878405 1.026963 1.0919703
000390 9b 0d 7b 3f 4e 7c 74 3f c5 97 84 3f fe d0 5b 3f
       0.98067635 0.95502174 1.0358816 0.8586577
0003a0 23 90 56 3f 98 90 83 3f 39 cb 87 3e ec 29 52 3f
       0.83813685 1.0278502 0.26522234 0.8209522
0003b0 72 b0 5d 3f 54 0b 80 3f 04 fb 57 3f b1 e9 58 3f
       0.8659736 1.0003457 0.84367394 0.84731585
0003c0 d5 8d 70 3f a6 18 79 3f 7d 9a 5b 3f 39 aa 5d 3f
       0.9396642 0.97303236 0.85782605 0.86587864
0003d0 b2 38 6c 3f 8b a5 6c 3f 31 f1 73 3f 7c 6b 81 3f
       0.9227401 0.924401 0.95289904 1.0110927
0003e0 7a e6 6b 3f bc 3d 8a 3f 0d 45 62 3f 7e 01 56 3f
       0.92148554 1.080009 0.88386613 0.83596027
0003f0 d9 d4 5a 3f 4c 17 55 3f a0 60 63 3f 3c 6a 85 3f
       0.8548103 0.83238673 0.88819313 1.0423045

fc3.bias f4 [32]
000000 2c 63 83 40 71 8f c4 3d a9 61 83 40 af ee 83 40
       4.105856 0.09597672 4.1056714 4.122886
000010 53 ca 87 40 2c 74 c2 bd a0 9d 84 40 4b 19 7e 40
       4.243448 -0.09494814 4.1442413 3.9702938
000020 87 5a da 3c a4 63 88 40 95 25 0e 3d 04 cf eb bd
       0.026654495 4.262163 0.03470381 -0.115140945
000030 26 e2 82 40 70 32 83 40 89 f8 87 40 17 43 83 40
       4.090106 4.099907 4.249089 4.1019397
000040 7b 07 77 3d b6 e3 88 40 35 24 83 40 c0 6e 86 40
       0.06030987 4.2777967 4.09817 4.2010193
000050 da 9a 83 40 98 8a 87 40 bd 34 88 40 fa 59 9f 3d
       4.112653 4.235668 4.256438 0.077808335
000060 e2 f4 86 40 27 1c 88 40 20 de 8a bb ef 60 9f bd
       4.217393 4.2534366 -0.004237905 -0.077821605
000070 dd 0c 89 40 77 7e 8d 3d fb 7d 86 3d 02 4d 82 40
       4.28282 0.06908887 0.065669976 4.0719004

fc4.weight f4 [1, 32]
000000 c4 5f 89 3f fc 6b 08 bd 6e 38 86 3f 1a 9e 83 3f
       1.073235 -0.033306107 1.0485971 1.0282624
000010 f8 e6 7f 3f ef 0c d7 bb 9d f1 8f 3f 4b 34 90 3f
       0.99961805 -0.006562821 1.124561 1.1265959
000020 b8 2e 8e bc 52 59 87 3f 9e 54 48 bd 6d ac d2 bd
       -0.017356262 1.0574133 -0.048908822 -0.10286794
000030 53 2f 86 3f a9 77 90 3f 02 45 80 3f fd 5c 89 3f
       1.0483192 1.1286517 1.002106 1.0731503
000040 b5 8f 13 bd cf b8 79 3f 82 2c 86 3f 57 c1 82 3f
       -0.03602572 0.9754762 1.0482333 1.0215253
000050 e2 fe 88 3f e1 91 83 3f 7a 60 7b 3f 86 2c 6d bc
       1.0702784 1.0278894 0.98194087 -0.014475947
000060 67 9d 81 3f 61 46 79 3f 81 68 b1 3c 3f ea a5 bd
       1.012616 0.97373015 0.021656277 -0.081013195
000070 23 d4 82 3f f6 cd d7 bc f4 e7 d5 bc ba 36 93 3f
       1.0220989 -0.026343327 -0.02611158 1.1501076
