Model/Pre Trained Model/Results/2000000 Initial Capital/100 Properties/real_estate_ai_model_rental.pt (torch, 16368 bytes, 7 tensors)

fc1.weight f4 [64, 8]
000000 0e a7 a3 3f d8 45 9e 3e c8 b1 07 3d 03 28 73 3d
       1.2785356 0.30912662 0.03312853 0.05936433
000010 9f 2c 00 be e4 a7 4f bd 9f f3 7b bc 9f 8b 77 bd
       -0.12517022 -0.050697222 -0.015377908 -0.060435887
000020 57 c1 ae 3f d4 79 f9 bd 21 04 aa 3d 35 d0 ef 3d
       1.3652753 -0.1218144 0.08301569 0.11709634
000030 42 b4 89 3c 8b b4 9f 3b 8e e3 0f 3b 98 26 87 be
       0.016809586 0.0048738173 0.0021955702 -0.26396632
000040 6e fd 91 3f 54 7e e7 bd 86 0b 95 bd 0f 2f b9 bd
       1.1405466 -0.11303392 -0.072775885 -0.09042179
000050 69 4a d6 3d 50 f6 04 be 8c 95 18 bd bc db ee 3e
       0.10463411 -0.12984586 -0.037251994 0.4665202
000060 b9 20 1d 3f 38 b2 74 3e 36 41 91 3e 94 d5 91 3e
       0.61378056 0.2389611 0.28370064 0.2848326
000070 e0 80 1f 3e d0 ae 15 3e 3d bd da be 86 e5 16 be
       0.15576506 0.14617467 -0.42722502 -0.14735994
000080 02 06 9e 3f 6e 31 44 3c 74 4e 2e 3d 0f b4 b0 3d
       1.2345583 0.011974676 0.042555287 0.086280935
000090 16 6a 82 bc a7 a2 0e ba d8 ec ed bc 2a 31 7d bd
       -0.015919726 -0.0005441107 -0.0290436 -0.061814465
0000a0 b7 22 a0 3f fb e9 92 bd c0 95 92 3e 30 8a e2 bd
       1.2510594 -0.071735345 0.28629875 -0.110615134
0000b0 a0 8b 94 3e c6 f1 bc 3d be 18 9a 3c de 49 a2 3e
       0.29012775 0.09225802 0.018810626 0.3169698
0000c0 54 1d 8f 3f 8d aa 10 3d 3e 2a 01 3d 02 8f 2a 3d
       1.1180825 0.0353189 0.031534426 0.04164029
0000d0 a4 75 13 bd 78 23 fc ba d8 6d 0b bd 64 95 4c 3e
       -0.036000863 -0.0019236645 -0.034040302 0.19978863
0000e0 b3 7a 99 3f 8a d1 68 be a0 b6 9d 3e 68 8e a3 3e
       1.199057 -0.22736183 0.30803394 0.31944585
0000f0 b6 c3 9e 3c 62 ff 6d bd fe 7f ec bc b2 fd 08 bf
       0.019380432 -0.05810488 -0.028869625 -0.5351211
000100 8b fa a9 3f ee 42 71 be 3d 49 8b bd 32 7f 52 bc
       1.3279585 -0.23560688 -0.068010785 -0.012847709
000110 6f fd 78 3d 4c 9f 20 3d 9a 49 15 bd dd bc 4e be
       0.060788568 0.039214417 -0.036447145 -0.20189233
000120 4f 5a b2 3f b1 a6 1b be 7b ad 76 3d 4d 4d d2 3d
       1.393381 -0.15200306 0.060224038 0.1026865
000130 d6 d9 1f 3d 22 8d b8 3c 52 9c 30 bd 9a 1c e6 3d
       0.039026104 0.022528235 -0.04311783 0.11235924
000140 1b 06 b1 3f 26 e6 a6 3e df e5 b2 3e b6 59 55 3e
       1.3829988 0.32597464 0.34941003 0.20835003
000150 3a 79 f6 bc ee e2 cc 3d b2 34 a8 3d 73 2c bf bd
       -0.030087102 0.10004221 0.08213176 -0.0933465
000160 8f 56 95 3f 67 0b 8e 3e 6f 2d ac bd 3e aa 53 bd
       1.166704 0.27743074 -0.08407103 -0.051676027
000170 37 7d c9 bd fa e2 6f 3c 39 65 f6 bb a7 fd 89 3e
       -0.09838336 0.014641518 -0.007519391 0.26951334
000180 d9 df a9 3f 63 a5 87 bd c4 11 2a be 45 68 ec bd
       1.3271438 -0.06623342 -0.1660834 -0.11543325
000190 91 03 f1 3b 56 3c 01 3e f5 24 8c bd b0 d5 0a 3d
       0.0073551615 0.12620673 -0.068429865 0.033895195
0001a0 51 68 67 3f 82 f6 40 3e 97 5c 22 bd cc cd 00 3c
       0.9039355 0.18844035 -0.03963908 0.007861566
0001b0 b5 52 07 be b4 0f a1 bc 89 84 1c 3d a6 a2 e5 3d
       -0.13215144 -0.019660808 0.038212333 0.11212663
0001c0 ea 1e 9c 3f c5 ee 99 3d 39 5e 0f bd 67 68 a3 bc
       1.2196934 0.07516245 -0.035001967 -0.019947244
0001d0 fd d9 db bc 26 22 3a 3d 03 54 09 bc cc 18 1e 3e
       -0.026837343 0.045442723 -0.008381846 0.15439147
0001e0 ec 1c 94 3f 59 dc b2 bd 8b d0 4b bd 09 58 ae bc
       1.1571326 -0.08733434 -0.04975943 -0.021282213
0001f0 4c e5 9e bd 55 e9 b4 bd f2 9b 7c be 17 96 f6 be
       -0.07758579 -0.08833567 -0.24668863 -0.48161384
000200 aa 48 94 3f 60 a3 46 be 68 4c 27 3e 13 d3 4c 3e
       1.1584675 -0.1939826 0.1633774 0.20002393
000210 39 31 f7 3c 9d 08 d9 ba 97 fb 11 bd 09 4b 57 be
       0.030174838 -0.0016558353 -0.035640325 -0.21024717
000220 5d 36 89 3f 8e c0 02 3e 1b aa 14 3e 0e b8 35 3e
       1.0719715 0.12768766 0.14518015 0.17745993
000230 e3 d8 4e bd 0f 0f d4 ba f7 53 b0 bc 63 b1 2f 3e
       -0.050499808 -0.0016178804 -0.021524413 0.17157511
000240 b6 48 c2 3f b5 ff fa 3e 31 db 72 3e c8 c9 4f be
       1.517844 0.49023214 0.23716427 -0.20291817
000250 39 77 62 bd 2c 09 22 be 97 46 46 3c 64 83 5d 3e
       -0.05528948 -0.15823811 0.012101791 0.21632153
000260 6d 53 7f 3f 96 a7 ec bd 6d 52 4f 3d 11 cd dc 3d
       0.9973667 -0.11555402 0.050615717 0.10781301
000270 a8 5e 1a bc 11 9a 49 be 1f c0 83 bd 77 3b e7 be
       -0.009421982 -0.19687678 -0.064331286 -0.45162556
000280 bd 27 8f 3f a8 84 00 be 1b 5c cc 3d ba 30 13 3e
       1.1184002 -0.12550604 0.09978505 0.14374056
000290 9d e7 d0 3c 34 6d 5f 3c 50 fd bd bb 2a 51 5e bd
       0.025501067 0.013636876 -0.0057980195 -0.054276623
0002a0 e6 f6 ba 3f 32 cd 6a be 4a 8b 38 bc 90 61 4f 3d
       1.4606597 -0.22929838 -0.011263678 0.050630152
0002b0 8b 6f 18 bd 62 9c 07 3d f5 11 18 bd 50 2f fb be
       -0.03721575 0.033108123 -0.0371265 -0.49059534
0002c0 59 24 7e 3f 44 13 39 be 0c e9 9b 3e b4 3c 5d 3e
       0.9927421 -0.18073756 0.30451238 0.21605188
0002d0 45 7a 89 3e 3d e9 ee 3c d4 e9 3b be df db f7 3e
       0.26851097 0.029163951 -0.18350917 0.48409936
0002e0 bd c1 78 3f e8 36 9f bd 62 39 09 be 03 ec d2 bd
       0.9717062 -0.077741444 -0.13400796 -0.10298922
0002f0 89 e7 0c 3e 12 d1 79 be 3c c6 2e 3e 9b d0 be 3e
       0.13760199 -0.2439616 0.17067808 0.37268528
000300 1b d4 7d 3f e8 99 c7 bd a9 06 9d be 62 25 95 be
       0.9915177 -0.09746152 -0.30669144 -0.29130083
000310 e6 dd 15 3c 53 db 35 3e e2 02 2f bd 8b 71 b3 bd
       0.009147143 0.17759447 -0.04272736 -0.08761891
000320 91 1e 9c 3f 31 67 38 be b2 ce c7 bd 0b 99 81 bd
       1.2196828 -0.18008114 -0.09756221 -0.06328019
000330 bd 1f b5 3c 5f 33 b0 bc 22 2f 1b 3b b9 af fd 3a
       0.02210986 -0.02150887 0.0023679216 0.0019354738
000340 32 b3 a5 3f d3 3d 9e 3e 16 31 4a 3d c6 fd ef 3c
       1.2945311 0.30906543 0.04936322 0.029295813
000350 07 18 e4 bd 61 e1 50 bd 4c 75 58 bc d7 8c 9b 3e
       -0.11137395 -0.050996188 -0.0132115595 0.3038089
000360 f0 a6 93 3f b4 97 09 3c c0 86 f2 bd c2 d1 9c bd
       1.153532 0.008397985 -0.11842108 -0.07657196
000370 20 a2 84 bc b2 ab d3 3c 91 39 98 bc 43 f4 10 bd
       -0.016190588 0.025838707 -0.018582137 -0.035389196
000380 54 c3 95 3f 37 ba 13 3e 84 1b 58 3c 80 d0 c6 bd
       1.1700234 0.14426504 0.013190154 -0.09707737
000390 88 a6 99 3e 3b a6 32 3c 3e e0 c1 bd 3a 71 2e 3f
       0.30009866 0.01090389 -0.09466599 0.6814152
0003a0 a7 53 cb 3f 45 0f f4 3b 36 14 01 be ae ff 96 bd
       1.5884904 0.0074481093 -0.12605366 -0.07372986
0003b0 7e d6 a6 bc 29 7e 1f bd 12 c7 29 3d d6 56 1d bd
       -0.02036595 -0.038938675 0.041449614 -0.03841289
0003c0 48 cf a1 3f c1 39 2a be ee 04 76 3c b2 94 80 3d
       1.2641382 -0.16623594 0.015015824 0.062783614
0003d0 2e 75 9f 3c 37 9e 6e 3d c8 d0 a2 bc d4 93 4b be
       0.019465055 0.058256354 -0.019874945 -0.1988061
0003e0 1d 63 cb 3f 32 6e c0 3e b4 9f 9f 3d e8 bd 28 be
       1.5889622 0.37584072 0.07794133 -0.16478693
0003f0 e3 b8 ec bd a2 83 4e bd 58 96 d9 3b e1 f6 29 3e
       -0.11558702 -0.050418504 0.006640237 0.16598083

fc1.bias f4 [64]
000000 c3 e2 e2 3f 21 e8 b5 3f 8e 0b 01 40 0d 09 c6 3f
       1.7725452 1.4211465 2.0163302 1.5471512
000010 82 28 c0 3f 63 9e 0b 40 05 e8 da 3f a3 50 9f 3f
       1.5012362 2.1815422 1.7102057 1.2446483
000020 91 b4 b5 3f cb 2e eb 3f ab a8 04 40 7c ef fd 3f
       1.419573 1.8373655 2.0727947 1.983871
000030 20 4e d0 3f 6c 3a b8 3f 40 6f e1 3f 96 93 a5 3f
       1.6273842 1.4392829 1.7612076 1.2935665
000040 b9 19 af 3f 49 1e cb 3f be bd 14 40 a6 ca e7 3f
       1.3679725 1.5868617 2.324081 1.8108718
000050 18 2a c1 3f 47 60 a3 3f a9 d1 eb 3f 0f ec d3 3f
       1.5090971 1.2763757 1.8423358 1.6556414
000060 14 b0 d8 3f 74 b0 b5 3f 60 7e 0e 40 d5 36 bb 3f
       1.6928735 1.4194474 2.2264633 1.4626108
000070 2f b1 fc 3f 36 6a f6 3f 49 d1 bb 3f 1a cb 11 40
       1.9741572 1.9251163 1.4673244 2.2780213
000080 76 58 09 40 dd ea f5 3f d6 44 c6 3f 4f f4 f8 3f
       2.1460242 1.92123 1.5489757 1.9449557
000090 eb 66 fc 3f 99 7f f8 3f b5 68 f6 3f 8d 28 04 40
       1.9718908 1.941394 1.9250704 2.064975
0000a0 06 61 b7 3f fb e3 c6 3f 58 d2 b4 3f c5 77 ae 3f
       1.4326484 1.5538324 1.4126692 1.3630301
0000b0 c4 cb 00 40 08 ee b3 3f d9 8b b5 3f 3f 99 00 40
       2.0124369 1.4057016 1.4183303 2.0093534
0000c0 62 6c e4 3f f3 42 bb 3f e5 1e c8 3f e1 10 ee 3f
       1.7845576 1.4629806 1.5634428 1.8598901
0000d0 73 4b b6 3f 45 8c d7 3f 94 7e fe 3f 09 44 01 40
       1.4241775 1.6839682 1.9882379 2.0197775
0000e0 64 3d e2 3f a6 90 11 40 00 1a d5 3f 05 10 00 40
       1.7674985 2.2744536 1.664856 2.0009778
0000f0 80 83 06 40 40 8b b0 3f 02 19 02 40 d2 f1 e4 3f
       2.1017761 1.3792496 2.0327764 1.7886298

fc2.weight f4 [32, 64]
000000 b1 82 0d 3f 14 ab 59 3f a8 53 d5 3e 80 54 1b 3f
       0.55277544 0.8502667 0.41665387 0.6067581
000010 6d d7 3d 3f 98 57 a1 3e 59 aa 3d 3f 9f b2 8d 3f
       0.7415684 0.3151214 0.74088055 1.1070136
000020 40 ca 49 3f 05 8c 39 3f 88 aa e5 3e 14 29 18 3f
       0.78824234 0.7247928 0.44856668 0.5943768
000030 58 62 08 3f aa 88 29 3f 2f a5 fb 3e b3 b6 3d 3f
       0.5327506 0.6622416 0.49149463 0.741069
000040 37 8d 38 3f d9 ff 32 3f 96 83 bb 3e 51 d4 0a 3f
       0.72090477 0.6992164 0.3662383 0.5423022
000050 59 be 3b 3f 5e b3 80 3f cb 39 e6 3e 69 0e 1c 3f
       0.7333732 1.0054739 0.44965968 0.6095949
000060 ef 2d 0a 3f f3 3c 56 3f 98 37 01 3f 8c fd 58 3f
       0.5397634 0.8368675 0.50475454 0.8476188
000070 18 6a 01 3f 8d 67 02 3f 1c 35 37 3f 6b c8 d4 3e
       0.5055251 0.50939256 0.71565413 0.41559157
000080 9f 29 d4 3e e7 91 a0 3e 9e b9 51 3f 2c b8 04 3f
       0.41438004 0.31361315 0.81923854 0.51843524
000090 4c ff e4 3e 15 d1 05 3f 60 4d e0 3e 87 bc ea 3e
       0.44726026 0.5227216 0.43809032 0.4584696
0000a0 02 e1 5e 3f 71 c5 48 3f d7 0d 5d 3f 32 14 64 3f
       0.87062085 0.7842627 0.8634924 0.89093316
0000b0 a3 1b 1e 3e 87 d2 48 3f 65 01 6c 3f 57 67 ed 3e
       0.1544023 0.7844624 0.9218963 0.46367905
0000c0 8a 07 9f 3e 84 e4 65 3f 4b f6 1e 3f a7 67 20 3f
       0.3106044 0.8980181 0.62094563 0.6265816
0000d0 0f 69 5a 3f ac 1a 2c 3f 82 c7 bd 3e b5 f5 de 3e
       0.85316557 0.672282 0.37066275 0.43546835
0000e0 23 eb 98 3e 14 3f 92 3e 03 a9 1e 3f 6f 35 f9 3e
       0.29866895 0.2856375 0.6197664 0.4867358
0000f0 a2 9c 00 3f e5 c8 61 3f 7d 14 00 3f 02 5d 04 3f
       0.50239 0.88197166 0.5003126 0.5170442
000100 fb 24 13 3f 2b 87 21 3f 5f a2 ed 3e b5 ec e9 3e
       0.574783 0.63096875 0.46412942 0.45688406
000110 34 74 3c 3f ef 6d b0 3e 63 05 16 3f 5a bd 6d 3f
       0.7361481 0.34458873 0.5860197 0.9286705
000120 14 59 35 3f f5 88 29 3f b0 04 fb 3e ec 15 29 3f
       0.7083905 0.66224605 0.49027014 0.66049075
000130 39 94 1d 3f 7f 51 19 3f 2e e4 0c 3f d5 19 4e 3f
       0.61554295 0.5988998 0.55035675 0.80508167
000140 69 04 47 3f d5 ad 0b 3f 49 e1 cd 3e 9b 49 1f 3f
       0.77741104 0.5456212 0.4021094 0.6222169
000150 79 55 2a 3f f5 f4 5a 3f a7 20 ed 3e 30 9c 21 3f
       0.6653667 0.85530025 0.46313974 0.6312895
000160 4f 20 f8 3e c3 ac 41 3f a0 8b da 3e 07 9b 41 3f
       0.4846215 0.7565424 0.4268465 0.7562718
000170 67 1f db 3e 28 56 f9 3e ef e7 1c 3f 5d 26 bc 3e
       0.42797396 0.48698545 0.612914 0.3674802
000180 c2 f1 fd 3e 60 8c f5 3e 86 e5 18 3f 95 67 00 3f
       0.4959851 0.4795866 0.59725225 0.50158054
000190 e3 de c4 3e a7 4b e7 3e d2 e6 06 3f 12 3a b4 3e
       0.384513 0.45174906 0.52695954 0.35200554
0001a0 9b 16 59 3f 46 10 27 3f 8e 61 3a 3f 67 ec 6d 3f
       0.8480012 0.65259206 0.72805107 0.92938846
0001b0 c5 59 5b 3e fa b9 60 3f b9 83 49 3f 4a 9d fb 3e
       0.21420963 0.8778378 0.7871662 0.4914344
0001c0 b5 e7 d9 3e 9a f5 52 3f e9 39 0f 3f 74 d3 03 3f
       0.4255959 0.8240601 0.5594774 0.51494527
0001d0 b4 af 27 3f 77 af 03 3f 09 49 02 3f e8 6c e1 3e
       0.65502477 0.51439613 0.5089269 0.440284
0001e0 55 ef b4 3e d4 f7 b0 3e 56 7b 0b 3f 09 6c f3 3e
       0.35338846 0.34564078 0.5448507 0.47543362
0001f0 77 ad d6 3e 8b 58 4e 3f f8 69 08 3f 8e 91 13 3f
       0.41929218 0.80603856 0.53286695 0.57643974
000200 e7 4b 1c 3f c1 a7 70 3f 27 4a d9 3e 3c 70 e7 3e
       0.6105332 0.9400597 0.42439386 0.45202816
000210 51 c0 4e 3f 92 c2 cd 3e 13 8d 2b 3f 17 18 97 3f
       0.807622 0.40187508 0.6701214 1.1804227
000220 8a 72 46 3f 41 46 04 3f 83 b1 e5 3e 69 8a e9 3e
       0.7751852 0.516697 0.44861993 0.4561341
000230 d9 ce 06 3f 08 d6 5d 3f 53 8a 24 3f 5b f6 3f 3f
       0.52659374 0.8665471 0.64273566 0.74985284
000240 f9 b6 61 3f 12 eb 50 3f 28 3f 7c 3e 8d 62 07 3f
       0.8816982 0.8160869 0.24633467 0.5288475
000250 c0 fe 2c 3f a1 cf 88 3f f3 7e dd 3e 90 66 13 3f
       0.6757622 1.0688363 0.43260917 0.5757837
000260 c7 41 19 3f 1a 78 40 3f 78 63 00 3f 25 37 4a 3f
       0.59865993 0.7518326 0.5015178 0.78990394
000270 db 51 b2 3e 0d bb c4 3e 7b fe 30 3f bc 5d 98 3e
       0.34828076 0.38423958 0.69138306 0.29759014
000280 c1 a4 bd 3e a7 8d bb 3e aa 3c 42 3f 83 79 e5 3e
       0.3703976 0.3663151 0.75873816 0.4481927
000290 bc 23 d6 3e 2c d6 23 3f 61 08 fc 3e da 61 e0 3e
       0.41824138 0.63998675 0.49225143 0.43824655
0002a0 1d a1 3f 3f 45 87 2c 3f f6 6c 78 3f dc e9 51 3f
       0.74855214 0.67393905 0.9704126 0.81997466
0002b0 37 0a 8c 3e 6f 49 51 3f ba d2 41 3f c6 79 b9 3e
       0.27351543 0.81752676 0.7571217 0.36225718
0002c0 cd c4 ed 3e 58 9b 3c 3f 42 b2 40 3f d1 e8 20 3f
       0.4643921 0.73674536 0.75272 0.6285525
0002d0 a9 cd 6d 3f 61 13 2a 3f 95 7d e3 3e 93 d3 f9 3e
       0.9289194 0.6643582 0.4443175 0.4879423
0002e0 d4 da bc 3e 30 dd e7 3e 22 7b 49 3f 30 94 ab 3e
       0.36885703 0.4528594 0.7870351 0.33511496
0002f0 42 31 00 3f 56 4c 4f 3f 3a 4d 1f 3f 0a d0 1f 3f
       0.5007516 0.80975854 0.62227213 0.6242682
000300 c6 a3 f9 be dd 42 a0 3e ea 1d 2a bf 10 b6 7d 3e
       -0.48757762 0.31301013 -0.66451895 0.24776483
000310 1c 12 9c 3e 84 ef eb be be 5f fc 3c 3b b1 5c 3f
       0.30482566 -0.46081173 0.030807372 0.8620793
000320 52 33 cd 3e 0b 9a 8a 3e 60 a8 2a bf c1 78 1f be
       0.40078217 0.2707065 -0.6666317 -0.15573408
000330 ac 6c de 3d fd d6 5d 3e 44 6d 53 bc 0e 13 38 3f
       0.10860571 0.21664043 -0.012904469 0.71904075
000340 af f4 be 3e f8 ba b9 3e 68 ce 01 bf 8d 23 0d 3f
       0.37296054 0.36275458 -0.50705576 0.5513237
000350 93 e6 dc 3e 22 71 ef 3e d1 60 1b bf 2b 1e 85 3e
       0.43144664 0.46766 -0.60694605 0.2599958
000360 dd d4 67 3e 37 ff 13 3f a6 d9 22 bf c6 fd a0 3e
       0.22639795 0.578113 -0.63613355 0.31443614
000370 a7 82 ee be 01 22 35 bf 2d 12 b0 3e 68 0e da be
       -0.46584055 -0.7075501 0.34388867 -0.42589116
000380 de a6 32 bf 17 6a 0b bf 00 06 95 3e b3 3c dd be
       -0.6978587 -0.54458755 0.2910614 -0.43210372
000390 f2 d9 b1 be d7 7f 1d bd a5 bd b1 be 77 95 eb be
       -0.34736592 -0.038451996 -0.34715 -0.4601247
0003a0 f9 86 26 3f 1c 8a 82 3e d6 b7 8a 3e 4f bc 79 3e
       0.650497 0.25495994 0.2709338 0.2438824
0003b0 a0 86 41 bf ce e7 7d 3e 8c f2 03 3e 61 10 1d bf
       -0.75596046 0.24795458 0.12885493 -0.6135312
0003c0 36 fd 91 be 44 da 38 3f 34 23 60 3e d5 39 70 3e
       -0.28513497 0.72208047 0.21888429 0.23459561
0003d0 3a 7b ca 3e fb d9 57 3e 56 1b 5d be f6 ad ba be
       0.3954714 0.21079247 -0.21592459 -0.36460847
0003e0 1e 18 82 3c 21 9e 8f be 2e 16 51 3e dd f4 14 bf
       0.01588064 -0.2805033 0.20418617 -0.5818613
0003f0 91 c7 4e bf aa 71 c5 3e ed 09 05 bf ed 36 03 3e
       -0.80773264 0.3856328 -0.5196827 0.12813921

fc2.bias f4 [32]
000000 a2 48 18 40 40 e1 15 40 ce ed 19 40 4b d1 ec be
       2.3794332 2.3418732 2.4051394 -0.46253428
000010 3d 46 12 40 39 26 37 40 0c 6c 17 40 9f 48 17 40
       2.285537 2.861708 2.3659697 2.3638074
000020 22 c5 1a 40 ed a5 1e 40 e3 2a 18 40 68 4c 1b 40
       2.418282 2.4788773 2.3776176 2.4265385
000030 03 6e 14 40 1e 80 1f 40 61 67 1f 40 a5 3b 20 40
       2.3192146 2.4921947 2.4906847 2.5036404
000040 42 47 10 40 64 f3 c5 be 03 88 1e 40 5a 5d 30 40
       2.2543492 -0.38662255 2.4770515 2.7556977
000050 a8 69 91 3e 28 76 2d 40 f2 18 1b 40 f4 b9 12 40
       0.28400922 2.7103367 2.4233975 2.2925997
000060 57 c2 3a 3f 8d 66 28 40 c0 49 1a 40 7e 1f 13 40
       0.7295279 2.6312592 2.4107513 2.2987971
000070 c2 47 b7 3d 58 e6 17 40 70 68 2a 40 c1 fe 11 40
       0.089492336 2.373434 2.6626244 2.281174

fc3.weight f4 [16, 32]
000000 e4 a5 d8 3e d9 af 07 3f 81 fd 09 3f 3e 2a a2 bf
       0.42314065 0.530027 0.5390244 -1.2669141
000010 16 89 09 3f dd 20 8d 3e 5b 76 c6 3e e9 e8 cc 3e
       0.537248 0.27564135 0.38762173 0.40021446
000020 8a 7e eb 3e f5 cc a0 3e 28 a8 83 3e db d7 98 3e
       0.4599498 0.3140637 0.2571423 0.29852185
000030 cd 4d d4 3e 9e e4 aa 3e 3e 13 0e 3f 5a 72 f1 3e
       0.41465607 0.33377546 0.5549811 0.47157556
000040 03 a2 0b 3f 67 0b c3 bf d6 b5 83 3e 5e a0 96 3e
       0.54544085 -1.5237855 0.25724667 0.29419225
000050 ab 07 07 c0 8d 0c e4 3e f2 7b 96 3e 53 fc 08 3f
       -2.109843 0.44540825 0.29391438 0.53510016
000060 36 12 11 c0 90 4b a1 3e fd cc f1 3e a7 a0 90 3e
       -2.2667365 0.31502962 0.47226706 0.28247568
000070 72 b7 ae bd 44 3e 11 3f cb d6 d4 3e bf 6e f3 3e
       -0.08531083 0.56735635 0.41570124 0.4754543
000080 02 08 ee 3e 17 98 4f 3e fb 9b d5 3e c9 19 8a bf
       0.46490484 0.20272861 0.41720566 -1.0789119
000090 d8 ea f9 3e 2a 40 8a 3e 24 b7 d4 3e c2 46 fc 3e
       0.48811984 0.27002078 0.41545975 0.49272734
0000a0 17 25 d2 3e 24 a9 77 3e 3f 27 ea 3e e1 f8 f2 3e
       0.41043922 0.24185616 0.45733067 0.47455505
0000b0 2e da cb 3e ae 2e 7a 3e ec 6f 0b 3f cc ca 00 3f
       0.39814895 0.2443187 0.54467654 0.50309443
0000c0 be 4b 02 3f a7 73 b9 bf d0 6d da 3e c7 cd ae 3e
       0.50896823 -1.4488419 0.42661905 0.3414137
0000d0 be 23 05 c0 df 94 d3 3e 36 21 cd 3e 61 df 6c 3e
       -2.0803065 0.41324517 0.400644 0.23132087
0000e0 76 ad 0e c0 c9 07 a9 3e ce eb 01 3f 09 09 62 3e
       -2.2293372 0.33013752 0.50750434 0.22073759
0000f0 78 4e a5 bd 16 24 96 3e 34 6b 09 3f 47 51 f3 3e
       -0.08071607 0.29324406 0.53679204 0.47522947
000100 21 91 97 bd f4 e5 dd bd 9e 77 38 be a0 d8 c2 3c
       -0.07400728 -0.10834876 -0.1801438 0.023784935
000110 f6 fc f8 bd a8 12 9a bd 1b dd c2 3d c5 c8 e1 bd
       -0.121576235 -0.0752309 0.09514829 -0.11024622
000120 67 84 10 be f5 94 f4 3c db d7 1e bd 53 71 43 be
       -0.14113007 0.029856184 -0.038780075 -0.19086199
000130 21 6b 66 3d 70 ea 0f be 75 dc 43 be 2b 12 e1 bd
       0.05625451 -0.14054275 -0.19127066 -0.109897934
000140 e0 10 ae bd b2 bf 92 3d a2 ba de 3d 05 c4 da bd
       -0.084993124 0.07165469 0.10875441 -0.10681919
000150 53 d6 a2 bd 0d 54 fc bc 78 0a 60 3d 7c 38 98 bc
       -0.07951035 -0.030801797 0.054697484 -0.018581621
000160 d2 a9 2b be 51 76 bc 3d 69 49 36 be 41 f0 5d bd
       -0.16764 0.092022546 -0.17801441 -0.054184202
000170 6f 3b fc 3c aa cc 8a 3d 5d 1f 96 3d b5 97 10 be
       0.030790059 0.06777318 0.07330201 -0.14120372
000180 75 bc f4 3e 5e c7 06 3f b5 79 84 3e 66 30 a7 bf
       0.4780003 0.5264796 0.25874105 -1.3061645
000190 a3 24 a3 3e 08 51 ba 3e e9 47 17 3f 0e 44 c7 3e
       0.3186389 0.36389947 0.590941 0.3891911
0001a0 61 ee 01 3f 05 d7 09 3f 3f 4d f5 3e 48 d0 04 3f
       0.5075436 0.5384372 0.47910497 0.5188031
0001b0 5b 74 c7 3e d7 65 b0 3e c4 99 99 3e 1f c8 b2 3e
       0.3895596 0.34452698 0.30000126 0.34918305
0001c0 9f 95 aa 3e b6 ee c8 bf 0a 92 b1 3e 96 b7 ac 3e
       0.33317277 -1.5697849 0.3468173 0.33733815
0001d0 34 07 08 c0 bc f6 b8 3e 6a f5 ed 3e b3 04 e4 3e
       -2.1254396 0.36125743 0.464763 0.44534835
0001e0 73 7e 0f c0 06 93 99 3e 97 82 b6 3e 57 7b 04 3f
       -2.2420928 0.29994982 0.35646507 0.517507
0001f0 61 3b 58 3d c2 fb 9f 3e 06 f8 6f 3e c8 00 0c 3f
       0.052791003 0.31246763 0.23434457 0.5468869
000200 10 ec 58 3d f1 09 84 bd e1 8a 29 bd 56 e5 13 be
       0.0529595 -0.06447209 -0.04139221 -0.14442953
000210 4a 67 77 bd fb fb 81 3d 78 81 49 3d 05 e7 12 be
       -0.06040124 0.063468896 0.049195737 -0.1434594
000220 03 3a 01 3e b5 7f f4 bd 5f 27 04 be f2 8b 13 3d
       0.12619786 -0.11938421 -0.12905644 0.036022134
000230 18 c7 f0 3d 72 15 ab bd 2e 0b 9f 3d 27 69 91 3c
       0.11756724 -0.083537 0.07765804 0.017750336
000240 fe cf 0c be 68 fa 0a bd d7 df 1c bd 35 e3 39 be
       -0.13751218 -0.033930212 -0.038299408 -0.18153079
000250 fa 32 36 be ac 7b 79 bd 00 ad 1a be a8 f9 15 be
       -0.17792884 -0.06090896 -0.15105057 -0.14646018
000260 ef ca b3 3d 4a 24 47 be af 21 03 be 93 7f fd bd
       0.08778941 -0.19447437 -0.12805818 -0.123778485
000270 c1 9a d6 3d b4 bd 85 bd 11 26 90 bd 5e f0 29 be
       0.10478736 -0.065303236 -0.070385106 -0.16595599
000280 96 21 8d 3e ec bb e5 3e 86 ec 86 3e 2c a8 94 bf
       0.27564687 0.44869936 0.26352328 -1.1613822
000290 35 53 ae 3e 2f 2d bc 3e 57 c6 ae 3e 22 e1 ca 3e
       0.34047857 0.36753222 0.34135696 0.39624888
0002a0 d0 d9 8d 3e ff a9 a6 3e 1f dd 6e 3e ab 76 18 3f
       0.2770524 0.32551572 0.23326539 0.5955607
0002b0 bd 5d cc 3e cf bd 82 3e 66 04 d4 3e ba 5b f9 3e
       0.39915267 0.25535437 0.41409606 0.48702794
0002c0 0e 98 02 3f e5 31 c3 bf c3 c4 84 3e a2 91 0b 3f
       0.5101327 -1.5249602 0.25931367 0.54519093
0002d0 c3 d8 0d c0 e7 9a cb 3e ca 5b bc 3e eb b7 a1 3e
       -2.216355 0.3976662 0.3678878 0.3158563
0002e0 0c 2b 09 c0 e5 ae dd 3e 79 81 87 3e 3b 88 be 3e
       -2.1432524 0.43297496 0.26465967 0.3721331
0002f0 6b 3f fc bc 6f a9 d4 3e 4a 6c c2 3e 8b 86 7e 3e
       -0.030791959 0.41535518 0.37973243 0.24856012
000300 91 7a 0a 3f 03 8f d1 3e 21 47 e4 3e f8 2c 9a bf
       0.5409327 0.40929422 0.44585517 -1.2044973
000310 a3 da 0e 3f 1d 80 0e 3f f8 e2 00 3f a3 b7 cb 3e
       0.55802363 0.55664235 0.50346327 0.3978854
000320 c1 69 93 3e f6 ce c6 3e 75 af e5 3e 60 3f 82 3e
       0.2879162 0.38829774 0.44860426 0.25438976
000330 a6 91 bd 3e d2 cc 02 3f ab 58 e6 3e f5 cf d1 3e
       0.37025183 0.5109378 0.44989523 0.4097897
000340 a4 4d 10 3f 16 09 af bf 32 56 15 3f a5 18 79 3e
       0.5636847 -1.3674648 0.5833465 0.24325807
000350 47 70 01 c0 e1 39 95 3e 25 28 0f 3f 48 0a 0e 3f
       -2.0224779 0.2914572 0.5592063 0.5548444
000360 fa 35 11 c0 04 49 16 3f 46 60 0a 3f 82 69 02 3f
       -2.2689195 0.58705163 0.5405315 0.5094224
000370 20 7f c7 bd de 67 d4 3e b9 74 f5 3e 96 04 de 3e
       -0.09741044 0.41485494 0.47940615 0.43362874
000380 9e a3 8b 3e 46 33 cb 3e 6a 9a 00 3f 9a 7b 97 bf
       0.27273268 0.39687556 0.5023562 -1.1834595
000390 63 10 df 3e 96 1d c0 3e d6 e9 b7 3e 9a 64 f3 3e
       0.4356719 0.37522572 0.3592059 0.4753769
0003a0 61 eb 0a 3f 6a 83 0e 3f a7 0b 08 3f e2 1f 15 3f
       0.5426541 0.5566927 0.5314278 0.58251774
0003b0 70 82 e1 3e 2b 16 f7 3e 9a 81 8f 3e 6e c3 86 3e
       0.44044828 0.482591 0.28028566 0.26320976
0003c0 c3 13 02 3f 41 6b cd bf e0 02 fb 3e 15 dc c8 3e
       0.50811404 -1.6048356 0.4902563 0.3923041
0003d0 de 20 fb bf ae 39 90 3e c2 9f 87 3e d7 32 a3 3e
       -1.9619405 0.28169006 0.26489073 0.31874725
0003e0 fc c4 06 c0 25 14 d6 3e 8c e7 ac 3e 38 ea f5 3e
       -2.105773 0.41812244 0.33770406 0.48030257
0003f0 f9 17 9b bd 41 5d b6 3e 29 7c a6 3e c3 33 03 3f
       -0.07572932 0.35618022 0.32516602 0.5125086

fc3.bias f4 [16]
000000 ea 10 9c 40 bb e2 a1 40 0e a8 8f bd ec ef 9a 40
       4.8770647 5.058927 -0.07014476 4.8417873
000010 b6 c5 2a bd 17 9e 9f 40 a4 65 a7 40 86 68 a3 40
       -0.041692458 4.988048 5.2311573 5.106509
000020 9e 85 9e 40 74 04 a5 3d b0 02 a1 40 5f 5c c9 3d
       4.9538107 0.0805749 5.031578 0.098320715
000030 2b a0 a3 40 25 66 a6 40 6a 5b 95 3d 5d ec 9e 3d
       5.1133018 5.199969 0.072928265 0.077599265

fc4.weight f4 [1, 16]
000000 f1 39 19 3f c2 ba e7 3e 0a b9 42 be ef 97 18 3f
       0.59854037 0.45259672 -0.190159 0.5960683
000010 ba 38 a2 bd 27 77 30 3f 2c 66 04 3f 8c 25 0d 3f
       -0.07920976 0.6893181 0.517184 0.55135417
000020 98 ac 20 3f 8f b2 f9 bc 51 4e fb 3e 0f c8 89 bd
       0.6276336 -0.030480651 0.49083188 -0.06727611
000030 06 47 fc 3e fb 27 05 3f 8b c9 84 bd be c4 05 be
       0.49272937 0.5201413 -0.06483754 -0.13063332
