Model/Pre Trained Model/Results/2000000 Initial Capital/100 Properties/real_estate_ai_model_valuation.pt (torch, 50708 bytes, 7 tensors)

fc1.weight f4 [128, 10]
000000 c2 e1 bb be e4 51 bb 3d 55 0d e8 3d 14 fc 83 be
       -0.36695677 0.09146479 0.11330668 -0.25778258
000010 43 13 11 be ba 79 05 3f 8e 7d a4 be e7 37 08 c0
       -0.14167504 0.52138865 -0.3212704 -2.128412
000020 67 37 ef bf 0d 7a 39 be 14 d5 04 3f 93 91 7b be
       -1.8688782 -0.18112965 0.5188763 -0.24567251
000030 cf 42 65 be 09 08 d3 3e 0e d2 1e be 4a 05 00 be
       -0.22388767 0.41217068 -0.15509817 -0.12502018
000040 95 6c f6 3d d8 42 c9 3f cb 8e 74 3f 53 c5 35 be
       0.12032429 1.5723524 0.95530385 -0.17751054
000050 d4 89 11 3f 49 80 a0 3c 05 25 8a 3d e1 a0 48 3f
       0.56850934 0.019592421 0.06745342 0.7837048
000060 44 94 03 bb a3 e1 fe 3c 16 e8 9c 3c 9a 38 ee 3f
       -0.0020077387 0.031113451 0.019153636 1.8611023
000070 65 e6 d5 3f ca cd 03 3e 8d 12 c0 3e db c6 50 3d
       1.6710936 0.12871471 0.37514153 0.050970893
000080 83 92 c6 3d 7b 50 46 bc 94 39 fe bd e8 ef 84 3e
       0.09695914 -0.012104149 -0.12413326 0.25964284
000090 c2 65 d4 bd b7 ac 9b 3f a7 6d 94 3f 45 7b db bb
       -0.10370971 1.2162083 1.1595963 -0.0066980445
0000a0 20 b7 ad 3e 35 04 56 be 42 0a 18 be 18 0f 07 3f
       0.33928776 -0.20900042 -0.14847663 0.52757406
0000b0 29 67 6c bd 72 7a a2 3e ca 96 29 3d e2 a6 c7 3f
       -0.05771557 0.31734043 0.04140357 1.5597804
0000c0 d2 50 7b 3f b9 e0 a9 3d 86 52 cd 3e 92 4a 3c 3c
       0.98170197 0.082948156 0.40102023 0.011492388
0000d0 8e 55 94 3d 0e 98 c0 3d 78 4d a2 3d 67 42 b5 bd
       0.07242881 0.09404002 0.07924932 -0.08850556
0000e0 82 4c b0 bd c5 82 d9 3f 58 73 64 3f ae 20 c5 be
       -0.08608343 1.6993033 0.892385 -0.38501495
0000f0 e9 97 6c be 78 42 88 bc bc 50 d6 3c e5 d8 78 3e
       -0.23104824 -0.016633257 0.026161544 0.24301489
000100 e9 3a a7 3d 0b 36 87 bd f9 fd 3c be 92 52 a9 3f
       0.08165533 -0.06602105 -0.18456258 1.3228323
000110 55 56 31 3f 06 60 ec 3d 18 9b 21 be c5 3b 82 be
       0.6927236 0.115417525 -0.1578182 -0.25436226
000120 52 17 39 be 6e a9 1d 3f c1 f2 c8 3d 12 fe 6a bd
       -0.18075302 0.61586654 0.09811927 -0.057371207
000130 78 9c 61 3e 06 3c 98 3f 8f 66 a4 3f aa 97 42 3e
       0.22032344 1.1893318 1.2843798 0.19003168
000140 1e 37 71 3f b6 95 46 3d a3 2a b9 3c 2c 76 26 3f
       0.9422473 0.04848262 0.022603339 0.65024066
000150 14 0b f1 3c 34 ed 92 be f4 4d 62 3d 8b 69 16 40
       0.029424228 -0.28696597 0.055250123 2.3501918
000160 df 71 ec 3f 4b b9 db be 94 0e 1e 3e e6 f1 fa 3d
       1.8472251 -0.42914805 0.15435249 0.1225317
000170 40 e5 33 3e 7c 74 0a 3f af bb 8a 3e 5a db 74 bd
       0.1756792 0.5408399 0.27096316 -0.059779502
000180 1f ab 23 3e 1c d6 c2 3f 4f c8 5d 3f b7 be 90 bd
       0.15983246 1.5221591 0.8663377 -0.07067626
000190 5b 3e b8 bd 26 22 4f 3e e4 0f 78 3e ff cd 96 3c
       -0.08996268 0.2022787 0.24224812 0.018408773
0001a0 3c 1e c6 bc 23 0b 2d 3e 99 d3 42 3d a4 cb 22 3f
       -0.024184339 0.1689878 0.047565077 0.6359198
0001b0 4c f0 2b 3f 55 32 89 be e2 7d aa 3e 21 ba 85 3e
       0.6716354 -0.26796213 0.33299166 0.26118568
0001c0 38 a9 46 be db 23 8e be 7b c6 14 3b 9c c3 0b 3d
       -0.1940049 -0.2776173 0.0022701311 0.034122095
0001d0 87 b8 46 bd 3a 94 b7 3f 39 69 6f 3f 0b 38 17 be
       -0.048515823 1.434211 0.9351993 -0.14767472
0001e0 20 c7 89 3e a5 8b a8 3e 89 a9 8d be 49 76 7c 3e
       0.26909733 0.3291904 -0.27668408 0.24654497
0001f0 71 d0 9b bd de 66 a6 3d 71 3e cb 3c 30 9b a2 3f
       -0.076081164 0.08125089 0.024810048 1.270361
000200 0a 19 54 3f cf d7 37 3e eb 4e cb 3e de 3f 08 3e
       0.82850707 0.17953418 0.39708647 0.13305613
000210 d8 a4 2b 3e cb 6b 65 be b9 a3 ad bc c9 5f 10 3f
       0.16762102 -0.22404401 -0.021196233 0.56396157
000220 b3 f7 1e 3d 5b 82 ca 3f b8 43 8c 3f 70 68 97 be
       0.038810443 1.5821031 1.0958166 -0.29571867
000230 80 95 18 3e 73 75 4a bd 23 d1 44 bb 53 b1 d4 3e
       0.1490078 -0.049428415 -0.0030031882 0.41541538
000240 9d ee ea bc b8 57 f9 bd 04 3d df 3d 4d bc b3 3f
       -0.028678233 -0.12174934 0.1090031 1.404184
000250 d0 5a 80 3f ff 41 25 3d 37 bd 37 bc 3b fd 90 3d
       1.0027714 0.040346142 -0.011214546 0.0707955
000260 d4 a6 af 3d bf 74 35 3e 65 11 92 3c 35 f1 de bd
       0.08576742 0.17720316 0.01783056 -0.1088585
000270 c9 7b 90 bd bb 67 af 3f db b3 80 3f 48 a5 04 be
       -0.0705486 1.3703531 1.0054888 -0.12953675
000280 0e 80 8e 3f e9 48 0e 3e 43 b2 27 be 50 10 2d 3f
       1.1132829 0.13895 -0.16376595 0.67603016
000290 20 e9 2a bc f1 fa 7c bd 34 f7 8d 3d de b8 15 40
       -0.010431558 -0.061762754 0.06931916 2.3394084
0002a0 ff a8 e8 3f c9 10 12 bf cd c1 2b 3f 80 e0 18 bd
       1.8176574 -0.5705686 0.6709259 -0.037323475
0002b0 18 b3 a7 bc 92 ed 34 3f 78 de bb 3e 94 5a ca 3d
       -0.02047114 0.70675004 0.36693168 0.09880558
0002c0 72 9a c8 3d f1 70 24 40 f4 0d f6 3f e7 9f 00 bd
       0.09795083 2.5693934 1.9223008 -0.031402495
0002d0 86 6a e9 3e 29 98 0c 3d 30 dd a3 3d 2d d8 b2 3d
       0.45589083 0.0343248 0.080011725 0.087326385
0002e0 52 30 12 be f3 59 e1 bd f0 e8 f1 bd bb 6c a1 3f
       -0.14276245 -0.110034846 -0.118120074 1.2611307
0002f0 73 3a 3d 3f fc 69 0e be 2d 0a 97 3d e3 db a5 3d
       0.7391731 -0.13907617 0.07374988 0.08098581
000300 83 5b ab 3d f9 b6 a9 3e 25 89 9c 3e 89 ee c6 bd
       0.08367064 0.3314741 0.30573383 -0.09713466
000310 3e 53 18 bd 9e e8 a5 3f d3 f8 4d 3f bd b0 d5 3e
       -0.03718876 1.2961614 0.804578 0.41736403
000320 0c af 1b 3e 86 da 4a be 2a eb 10 be e4 4e 1a 3e
       0.15203494 -0.19809923 -0.14152208 0.15069157
000330 2a 33 ef 3d 9e e9 b9 3e eb c1 f5 3b a3 21 a0 3f
       0.11679681 0.36311048 0.0074999235 1.2510265
000340 cd 21 9a 3f 8b 14 c5 bd 6e f5 80 3e 0c d2 75 3e
       1.2041565 -0.09623059 0.25187248 0.24005908
000350 05 1f 9e 3e 40 b4 5b 3e b0 e2 69 bd bf 0c 26 be
       0.3088304 0.21455479 -0.05710095 -0.162158
000360 83 11 10 be 75 7f a6 3f 62 8c 96 3f 0c c8 2e be
       -0.1406918 1.3007647 1.1761591 -0.170685
000370 e8 69 97 be db 3c b5 bc 2c 97 19 3d 59 e8 64 3e
       -0.29572988 -0.022123745 0.037497684 0.22354259
000380 d6 65 6b 3d b1 bf e4 bd 2e 2a 36 be 37 bc aa 3f
       0.057470165 -0.11169375 -0.17789528 1.3338689
000390 15 90 86 3f a6 5c e9 bd 59 fe 5a be 9f eb 48 be
       1.051272 -0.113946244 -0.21386088 -0.19621132
0003a0 ee 68 26 be 17 f2 ea 3e 2b 0d 05 3e ad cb 47 bc
       -0.16250965 0.45887825 0.12993304 -0.012194556
0003b0 2e b2 67 3d 8b ff ab 3f e7 87 8e 3f 5b 7c b8 3e
       0.05656641 1.343736 1.1135224 0.36032376
0003c0 c0 c9 0f 3e 37 d7 23 bd 3a cb e1 3b 6f c7 9c 3e
       0.14041805 -0.040000167 0.0068906816 0.30620906
0003d0 72 38 12 3e 20 d7 8d 3e 9e 96 5e 3e 86 69 a1 3f
       0.14279345 0.2770319 0.21737143 1.2610328
0003e0 7c ea 8d 3f ad 05 c2 bd 5f fc d5 3e fb ed 45 be
       1.1087184 -0.09473739 0.41794106 -0.19329064
0003f0 50 57 0e be 69 97 f0 3e f8 6f c2 bd c5 47 10 be
       -0.13900495 0.46990517 -0.094940126 -0.14089878

fc1.bias f4 [128]
000000 31 43 21 40 6c 64 53 40 b9 76 d0 3f 81 89 4d 40
       2.519726 3.3030043 1.6286231 3.2115176
000010 6e c2 4c 40 d0 8f 45 40 7e a0 25 40 3a 48 47 40
       3.199367 3.0869026 2.5879207 3.1137834
000020 e8 a0 74 3f d5 54 40 40 a1 b5 3b 40 d9 ea 3d 40
       0.95558023 3.0051777 2.9329607 2.967459
000030 91 6f 52 40 7c f7 3f 40 65 a6 4c 40 29 94 3b 40
       3.2880595 2.9994802 3.197656 2.930918
000040 61 f4 f0 3e 25 20 99 3e 89 97 2b 40 eb d4 42 40
       0.47061446 0.29907337 2.681124 3.0442455
000050 af 22 4b 40 de ee 48 40 e0 17 31 40 19 81 49 40
       3.173992 3.1395793 2.7670822 3.1485045
000060 be a5 4d 40 83 61 48 40 6a 9e 57 40 33 b0 3d 40
       3.213241 3.1309516 3.3690438 2.9638793
000070 94 c8 21 3f 92 e0 44 40 66 a3 46 40 c3 55 1d 40
       0.6319668 3.0762067 3.103723 2.4583595
000080 1a 03 52 40 1b 7b 38 40 14 08 17 40 fc c3 d3 3f
       3.2814393 2.8825138 2.359868 1.6544185
000090 c1 69 58 40 19 6d 4a 40 cb 5b 4d 40 69 b8 3e 40
       3.3814547 3.1629088 3.2087276 2.9800055
0000a0 87 fd 32 3f 22 f0 4a 3f 28 ec 57 40 a5 cd 85 bf
       0.699181 0.79272664 3.3737888 -1.0453383
0000b0 8b db 67 3f 44 c7 33 40 0f 12 31 40 cf 1c 40 40
       0.9056937 2.8090372 2.7667272 3.0017583
0000c0 30 e6 42 40 db e1 4e 40 3e 95 23 40 99 88 0e be
       3.0452995 3.2325351 2.555984 -0.13919295
0000d0 b5 e2 35 40 94 ef 54 40 6a e6 4a 40 98 b4 43 40
       2.841962 3.3271227 3.1703134 3.0578976
0000e0 29 45 56 40 20 3d 39 40 58 bf 32 40 23 88 c9 3f
       3.3479712 2.8943558 2.7929287 1.5744671
0000f0 c4 37 53 40 c2 97 39 40 36 55 9d 3f 8e 4f 3d 40
       3.3002787 2.8998876 1.2291629 2.9579806
000100 b6 8e 53 40 e0 83 1f 40 e4 63 46 40 ec ff c3 be
       3.3055854 2.492424 3.0998468 -0.3828119
000110 94 48 48 40 5c 87 59 40 90 72 58 40 d2 fd 4e 40
       3.1294298 3.3988867 3.3819923 3.234242
000120 86 f0 3a 40 6a 92 23 40 4c c9 4d 40 95 9d b4 3e
       2.9209304 2.5558114 3.2154112 0.35276476
000130 98 46 7a 3f d7 7b 46 40 c9 ca 2f 40 60 af 5d 40
       0.9776397 3.1013086 2.746752 3.463829
000140 9d 7b 3c 40 1e 10 2f 40 9f 1e 2f 40 20 0e 4f 40
       2.9450448 2.7353587 2.736244 3.2352371
000150 63 57 c0 3f b3 4a 44 40 8f bd 4c 40 dc c6 37 40
       1.5026668 3.0670593 3.1990697 2.8715124
000160 ab dd 4c 40 6e 40 48 40 a6 79 af 3e d4 05 48 40
       3.2010295 3.1289325 0.34272498 3.1253557
000170 0f 6b ba 3f e5 3d 3b 40 35 fc 9c 3d d4 bf fb be
       1.4563922 2.9256527 0.07665292 -0.4916979
000180 c3 b9 54 40 66 ca 54 40 5e bd 3d 40 ad 64 92 3f
       3.323838 3.3248534 2.964683 1.1436974
000190 7e be 1a 40 a9 74 1f 3f e6 20 3d 40 e4 75 c9 3f
       2.4178767 0.62287384 2.955133 1.5739102
0001a0 43 d7 0c 40 60 b6 ff 3f 3f 53 05 bf 10 04 17 40
       2.2006385 1.9977531 -0.5208015 2.359623
0001b0 8b 15 49 40 56 14 c0 3f 3b 23 3d 40 0f bd 2b 40
       3.1419399 1.5006206 2.9552753 2.6834142
0001c0 d4 68 8e 3d bf a4 2d 40 ce 08 58 40 79 66 53 40
       0.06953588 2.7131803 3.3755374 3.3031294
0001d0 bf fe 3a 40 ea 0d 3c 40 87 b6 1c 40 e5 d4 52 40
       2.9217985 2.9383492 2.4486406 3.294244
0001e0 d2 02 d2 be f4 0c 52 40 f2 a6 18 40 05 bb 3b 40
       -0.41017777 3.2820406 2.3851895 2.9332898
0001f0 54 9b 3c 40 39 11 53 40 42 da a5 bd 30 1d f5 3d
       2.9469805 3.2979262 -0.0809827 0.11968458

fc2.weight f4 [64, 128]
000000 34 72 ab 3f d8 ee 87 3f 34 38 b5 3f 83 de 5e 3f
       1.3394227 1.0619764 1.4157777 0.87058276
000010 34 e4 70 3f 5e ea 7d 3f e0 1a cf 3f 95 8e b5 3f
       0.9409821 0.9918574 1.6180077 1.4184138
000020 03 d6 07 3f 0b 96 85 3f 07 8d 98 3f 45 21 40 3f
       0.5306093 1.0436414 1.1918038 0.75050765
000030 aa b3 42 3f f9 be 70 3f 52 08 c4 3f 99 94 eb 3f
       0.76055396 0.940414 1.5315039 1.8404723
000040 2b 73 18 3f c9 fe 48 3f 2f 4b fd 3f 62 cd 9a 3f
       0.5955073 0.7851377 1.9788569 1.2093928
000050 62 75 90 3f e6 41 b0 3f 19 dd de 3f d3 6e a3 3f
       1.1285822 1.3770111 1.7411224 1.2768196
000060 ab 66 79 3f 9e d5 2c 3f 68 ee 15 3f 28 3b 58 3f
       0.97422284 0.67513454 0.58566904 0.84465265
000070 15 d4 a7 3f c4 a3 9c 3f e3 ca 9c 3f e0 a1 e7 3e
       1.3111597 1.2237477 1.2249416 0.45240688
000080 fb 76 90 3f 93 32 d8 3f 59 65 9e 3f 50 b6 38 3f
       1.128631 1.6890434 1.2374679 0.72153187
000090 1e 23 52 3f 70 ae b2 3f a7 da 6c 3f 31 6f cc 3f
       0.82084835 1.3959484 0.92521137 1.5971433
0000a0 b4 b1 22 3f 3a 7c 49 3f 75 3c 52 3f 93 16 ba 3f
       0.63552403 0.7870518 0.821235 1.4538139
0000b0 93 be 94 3f 8c 96 ec 3f fe 3d 8a 3f d2 70 8c 3f
       1.1620659 1.8483443 1.0800169 1.097193
0000c0 c0 93 d8 3f cd 7f 2b 3f ac 0e 98 3f f4 1c 61 3f
       1.692009 0.66991884 1.1879478 0.87934804
0000d0 82 78 a5 3f 61 ea 59 3f ed 84 82 3f f1 85 b3 3f
       1.2927401 0.8512326 1.0196816 1.4025251
0000e0 59 5e 44 3f e8 86 d3 3f 39 9c b9 3f 9d 31 8a 3f
       0.76706463 1.6525545 1.45008 1.0796391
0000f0 61 47 77 3f 10 a0 f9 3e 80 fb 2e 3f b5 f3 76 3f
       0.9659329 0.4875493 0.6835251 0.9646562
000100 bb 2d a7 3f f9 13 83 3f 41 1d 1f 3f 69 78 44 3f
       1.3060831 1.024047 0.6215401 0.7674623
000110 a5 99 c1 3f 42 72 08 3f 44 99 31 3f e4 5d 69 3f
       1.5125014 0.53299344 0.6937449 0.9115889
000120 08 31 53 3f 35 97 81 3f 7d 7c ac 3f 45 69 83 3f
       0.8249669 1.012427 1.3475491 1.0266501
000130 cf 78 83 3f 0a 72 8d 3f 3c d1 dc 3f 81 c5 50 3f
       1.0271243 1.1050427 1.7251353 0.8155137
000140 66 dd c8 3f c0 7a 00 3f 55 93 7b 3f 97 24 51 3f
       1.5692565 0.501873 0.98271686 0.81696457
000150 b9 d1 66 3f 1c db 9e 3f c4 0c 24 3f e9 7e 8f 3f
       0.9016376 1.2410617 0.6408198 1.1210605
000160 66 59 68 3f 47 0b 9c 3f 8d e9 17 3f b0 6a 87 3f
       0.9076141 1.2190942 0.59340745 1.0579433
000170 5e 1b 0a 3f d2 3b 8f 3f 82 bf 0a 3f 70 a4 ba 3f
       0.5394801 1.1190131 0.5419847 1.4581432
000180 a1 c8 32 3f e7 cc 6e 3f b5 6c cf 3f 46 16 11 3f
       0.69837385 0.93281406 1.620505 0.5667461
000190 25 cd c7 3f 37 03 98 3f 5b bf b4 3f 8f eb 1b 3f
       1.560948 1.1875981 1.4120897 0.6090631
0001a0 e4 ea 96 3f 89 89 ff 3e e9 37 a8 3f 07 67 de 3f
       1.1790433 0.49909618 1.3142062 1.7375191
0001b0 0a 72 af 3f 9e fb f6 3e 55 d1 09 3f 58 e3 d1 3f
       1.3706677 0.48238844 0.5383504 1.6397505
0001c0 62 82 7c 3f 37 f1 3e 3f 17 0b 8c 3f 63 57 7c 3f
       0.9863645 0.74586815 1.0940884 0.9857084
0001d0 aa 36 98 3f 1d 66 be 3f ad fb dc 3e 3f a9 73 3f
       1.1891682 1.4874913 0.43160763 0.95180124
0001e0 c7 fa b1 3f f1 e0 5d 3f 8c 65 8a 3f 88 36 a3 3f
       1.3904656 0.8667136 1.081224 1.2751017
0001f0 d1 e8 3e 3f 59 e1 41 3f ba b6 89 3f 25 05 2b 3f
       0.74574 0.7573448 1.0758889 0.66804725
000200 78 b5 ae 3f 1a 41 91 3f 88 8d a5 3f e2 e2 51 3f
       1.364913 1.1347992 1.2933817 0.8198682
000210 8c 24 83 3f 37 93 72 3f 51 9f d9 3f 3c 72 b9 3f
       1.0245528 0.9475588 1.7001745 1.4487987
000220 10 d7 4e 3f 5f e9 9f 3f 23 16 79 3f 37 f7 4e 3f
       0.8079691 1.2493094 0.972994 0.8084597
000230 ec 4e 46 3f fe 34 68 3f 6c 40 b9 3f bf 2e e6 3f
       0.77464175 0.9070586 1.4472785 1.7983016
000240 d4 21 42 3f 43 46 72 3f 7d 24 f1 3f 53 09 9d 3f
       0.7583287 0.9463846 1.883926 1.226847
000250 ce 9b a2 3f 8c 02 cd 3f a5 8b db 3f f1 57 a8 3f
       1.2703798 1.6016402 1.7151991 1.3151838
000260 71 3f 92 3f 78 56 5a 3f e1 76 62 3f f2 c4 85 3f
       1.1425611 0.8528819 0.88462645 1.0450728
000270 25 e3 a1 3f a5 be 9d 3f 93 47 a8 3f a8 f3 73 3f
       1.2647444 1.2323805 1.3146843 0.95293665
000280 ef d9 99 3f de a1 cc 3f fc 94 ad 3f 56 6f 61 3f
       1.2019633 1.5986898 1.3561091 0.8806051
000290 a9 62 70 3f be 3e af 3f 30 b5 5b 3f 60 2e b7 3f
       0.93900543 1.3691022 0.85823345 1.4311028
0002a0 6d d9 51 3f 37 4e 84 3f 67 4a 81 3f 2f ca b9 3f
       0.8197239 1.0336369 1.0100831 1.4514827
0002b0 53 cc 94 3f a5 17 eb 3f 28 65 80 3f f5 4a a2 3f
       1.1624855 1.8366591 1.003087 1.2679125
0002c0 0c 6c d5 3f 81 ea 76 3f 77 c4 9f 3f 42 8e 81 3f
       1.6673598 0.96451575 1.2481831 1.0121539
0002d0 bf 9a a5 3f bb 85 63 3f 15 e6 7b 3f c1 9b c1 3f
       1.293785 0.8887593 0.9839795 1.5125657
0002e0 cc 34 59 3f 58 78 ce 3f 3c 44 c8 3f 5e ee 95 3f
       0.84846187 1.6130476 1.5645823 1.1713369
0002f0 d2 08 8b 3f 28 a1 55 3f bc 80 48 3f 9f b4 97 3f
       1.0862067 0.8344903 0.78321433 1.1851996
000300 72 66 ae 3f b6 0d b8 3f 67 67 2c 3f 16 09 80 3f
       1.3625014 1.4379184 0.6734528 1.0002773
000310 11 12 cd 3f c6 a3 49 3f fd 6e 62 3f eb 43 73 3f
       1.6021138 0.78765523 0.88450605 0.9502551
000320 1f 88 44 3f 1c 3a 92 3f eb a8 a7 3f ac eb 83 3f
       0.76770204 1.1423984 1.3098425 1.0306296
000330 25 da 91 3f 67 bc a2 3f 3a 99 d1 3f 8c a4 6c 3f
       1.1394697 1.2713746 1.6374886 0.9243858
000340 67 08 ba 3f 99 3e 6c 3f 65 41 93 3f d0 56 36 3f
       1.4533814 0.92283016 1.1504332 0.71226215
000350 4c 6d 69 3f 8e 75 a4 3f 8f 4e 48 3f e6 45 82 3f
       0.911824 1.2848375 0.7824487 1.0177581
000360 98 69 5f 3f b4 8a a0 3f 14 3c 75 3f 7b b6 a6 3f
       0.872705 1.2542329 0.95794797 1.3024439
000370 c4 75 47 3f d5 dc 8d 3f 75 e9 45 3f 29 0e b8 3f
       0.7791407 1.1083018 0.7730935 1.4379321
000380 cc af 7c 3f e1 34 95 3f 93 a9 c3 3f c3 f3 61 3f
       0.98705745 1.1656762 1.5286125 0.88262576
000390 85 82 c0 3f bc ff 9c 3f 87 aa ae 3f bc fb 60 3f
       1.5039831 1.2265544 1.3645791 0.87884116
0003a0 4b 8c 9e 3f a4 76 3f 3f 89 a4 a1 3f ae 71 ca 3f
       1.2386564 0.74790406 1.2628337 1.5815942
0003b0 9b 10 b5 3f b1 1e 40 3f f3 54 3c 3f a4 89 c1 3f
       1.4145693 0.7504683 0.7356712 1.512013
0003c0 5e d0 8f 3f e9 2a 46 3f b3 bc 8f 3f 5c 95 9a 3f
       1.1235464 0.77409226 1.1229461 1.2076831
0003d0 eb 88 89 3f 85 6b c4 3f d3 0b 4a 3f 27 3a 75 3f
       1.0744909 1.5345312 0.7892429 0.9579186
0003e0 ef 4f bf 3f 96 39 7d 3f 2e fa a1 3f f4 b0 8b 3f
       1.4946269 0.98915994 1.2654474 1.0913377
0003f0 8f 42 46 3f 30 17 53 3f a7 dc 9c 3f 31 a7 7b 3f
       0.7744531 0.82457256 1.2254838 0.9830199

fc2.bias f4 [64]
000000 f0 45 46 40 74 55 2b 40 a5 19 85 40 32 1b 31 40
       3.0980186 2.6770906 4.1593804 2.7672849
000010 05 33 28 40 74 0e 2f 40 51 c7 32 40 bb c7 31 40
       2.628114 2.7352571 2.7934153 2.7778156
000020 b1 82 58 40 00 43 2e 40 72 a4 3a 40 fe 24 32 40
       3.3829768 2.7228394 2.916287 2.7835078
000030 75 0d 34 40 97 2e 37 40 3d 26 36 40 2b 3d 2a 40
       2.8133214 2.8622186 2.8460839 2.6599834
000040 5e 0e 37 40 42 13 2c 40 a6 cb 34 40 59 59 32 40
       2.860252 2.6886754 2.8249297 2.7867033
000050 0a 38 44 40 a6 67 36 40 8f 55 39 40 f4 8c 36 40
       3.0659204 2.8500762 2.895847 2.852353
000060 2c 5a 2e 40 b3 5d 46 40 de f3 31 40 b6 a6 2f 40
       2.7242537 3.099469 2.7805095 2.7445502
000070 76 45 3d 3b e4 fb 2d 40 7b 34 2c 40 b2 6c 2f 40
       0.0028880513 2.7184992 2.6907032 2.7410092
000080 ca a0 32 40 b7 97 2c 40 06 8e 33 40 59 70 2f 40
       2.7910638 2.69676 2.8055434 2.7412322
000090 a4 f8 2d 40 4f ea 2c 40 9c d9 33 40 97 4f 30 40
       2.7183008 2.701801 2.8101568 2.7548578
0000a0 eb 88 2b 40 0b 28 34 40 ba 0a 34 bb 75 73 2e 40
       2.6802318 2.814944 -0.0027472214 2.725797
0000b0 c5 27 36 40 62 59 2d 40 0b 15 38 40 24 88 32 40
       2.8461773 2.7085805 2.8762844 2.7895594
0000c0 1c d3 3a 40 57 35 38 40 74 b5 34 40 a1 37 2f 40
       2.919135 2.8782556 2.823575 2.7377703
0000d0 a1 9d 30 40 28 52 34 40 4e e6 31 40 57 4d 38 40
       2.759621 2.8175144 2.7796817 2.8797204
0000e0 09 0c 43 40 02 13 2d 40 65 08 2e 40 db 12 39 40
       3.0476096 2.7042851 2.7192624 2.8917758
0000f0 46 78 2d 40 2a 88 35 40 13 3c 31 40 11 df 30 40
       2.710466 2.8364358 2.7692916 2.763615

fc3.weight f4 [32, 64]
000000 ba dc 56 3f 51 b6 83 3f 0b 61 88 3f 88 09 87 3f
       0.8393055 1.0290014 1.0654615 1.0549784
000010 b8 2d 78 3f 9c 38 78 3f 95 f1 66 3f 3f 3f 5a 3f
       0.9694476 0.9696138 0.90212375 0.85252756
000020 fd 7f 55 3f 0a 03 83 3f e8 f1 7d 3f be 76 70 3f
       0.8339842 1.0235302 0.99197245 0.93931186
000030 9f 1f 80 3f d3 76 81 3f 0a ee 50 3f 3a ec 64 3f
       1.000965 1.0114387 0.8161322 0.89422953
000040 9c cf 58 3f 28 93 7e 3f b4 ea 75 3f 07 7f 81 3f
       0.84691787 0.9944329 0.96061254 1.0116891
000050 d9 1d 59 3f 0f 47 64 3f a8 08 75 3f 8d d1 85 3f
       0.8481117 0.89170927 0.95716333 1.0454575
000060 e3 01 78 3f 59 cc 6b 3f 69 0e 81 3f bc 4f 83 3f
       0.9687788 0.92108685 1.0082523 1.0258708
000070 c9 5b 9a bd c7 21 56 3f 6e bc 65 3f fe 45 58 3f
       -0.07537038 0.8364529 0.89740646 0.844818
000080 9d cc 86 3f 7c c3 59 3f 19 0a 6b 3f 77 56 53 3f
       1.0531193 0.8506391 0.9181228 0.8255381
000090 83 77 79 3f a5 00 66 3f b8 18 53 3f 9f 2c 88 3f
       0.97447985 0.89844733 0.8245959 1.0638617
0000a0 e1 d8 78 3f f9 5e 81 3f 5e fb 23 bd 52 f7 85 3f
       0.9720593 1.0107108 -0.040034644 1.0466101
0000b0 ce 5a 50 3f 56 fc 59 3f e9 35 77 3f 37 3b 86 3f
       0.81388557 0.8515066 0.96566635 1.0486821
0000c0 52 15 8b 3f a8 a4 62 3f 2e 8c 7b 3f 49 5b 61 3f
       1.0865881 0.88532495 0.9826077 0.88029915
0000d0 69 c0 57 3f 86 61 5d 3f 81 20 87 3f c6 46 82 3f
       0.8427797 0.86476934 1.0556794 1.0177848
0000e0 92 f0 61 3f dc eb 6d 3f 0c eb 55 3f e9 70 84 3f
       0.88257706 0.9293802 0.8356178 1.0346957
0000f0 8c 00 78 3f ab 9f 88 3f e2 2a 7a 3f f0 29 8a 3f
       0.96875834 1.0673727 0.97721684 1.0794048
000100 f7 a0 63 3f ec 68 68 3f 92 39 a5 3f d0 2e 6a 3f
       0.8891749 0.907851 1.2908194 0.9147768
000110 c7 ab 6c 3f d4 1b 85 3f 89 b0 7b 3f 67 04 70 3f
       0.9244961 1.0399117 0.98316246 0.9375672
000120 31 ce 81 3f a1 a5 7d 3f 1f 20 86 3f f3 5d 78 3f
       1.014105 0.99080855 1.0478553 0.97018355
000130 d9 7c 7c 3f 29 ba 71 3f c6 cf 83 3f 79 fd 8d 3f
       0.98628 0.9442468 1.0297782 1.1092979
000140 d6 83 79 3f c0 a8 8c 3f c6 e3 87 3f b5 c1 90 3f
       0.9746679 1.0988998 1.0616386 1.1309115
000150 8c 48 7a 3f 89 55 8e 3f 7e 59 6b 3f 67 76 92 3f
       0.9776695 1.1119853 0.9193343 1.1442384
000160 6e 74 86 3f 27 d8 69 3f d7 f5 88 3f 95 c7 79 3f
       1.0504282 0.9134545 1.0700024 0.97570163
000170 45 fc 56 bd b3 cd 81 3f be 5c 85 3f f4 0c 71 3f
       -0.052486677 1.01409 1.0418928 0.9416039
000180 b9 52 81 3f 61 f7 61 3f 10 2d 85 3f 3f fe 80 3f
       1.010337 0.88268095 1.0404377 1.007759
000190 0e 53 6e 3f 51 30 89 3f 48 aa 67 3f 66 55 88 3f
       0.9309548 1.071787 0.90494204 1.0651062
0001a0 22 96 87 3f ff cb 66 3f bb 95 f6 3d 9e 02 74 3f
       1.0592692 0.90155023 0.120402776 0.95316494
0001b0 b9 6c 64 3f 5e 58 4a 3f c5 1f 7e 3f 62 3b 87 3f
       0.892284 0.7904109 0.99267226 1.0564997
0001c0 61 91 83 3f 20 74 91 3f 17 72 7d 3f 33 e6 81 3f
       1.0278741 1.1363564 0.9900221 1.0148376
0001d0 cc 5f 84 3f d8 46 6e 3f 1a 75 70 3f e2 9b 88 3f
       1.0341735 0.9307685 0.9392868 1.0672572
0001e0 e1 27 64 3f 70 a8 5c 3f fc d2 83 3f eb e4 91 3f
       0.8912335 0.86194515 1.0298762 1.1397985
0001f0 f4 c0 8b 3f 57 53 65 3f 7c b7 77 3f 16 bb 7f 3f
       1.091826 0.8958029 0.9676435 0.99894845
000200 6f 0d 59 3f cb b6 80 3f 26 2a 84 3f aa e0 7a 3f
       0.84786123 1.0055784 1.0325363 0.9799906
000210 c6 b2 6a 3f be 3d 68 3f 8f c9 78 3f 14 67 5a 3f
       0.91679037 0.9071921 0.97182554 0.85313535
000220 65 c3 53 3f d0 11 52 3f 35 68 6b 3f 8c 9c 63 3f
       0.82720023 0.8205843 0.9195588 0.88910747
000230 15 a7 81 3f 3d 84 6d 3f 78 b3 83 3f b7 f5 62 3f
       1.0129114 0.92779905 1.0289145 0.8865618
000240 86 b6 79 3f 4b 18 78 3f 42 02 70 3f ba 27 81 3f
       0.97544134 0.9691207 0.93753445 1.0090249
000250 19 5f 77 3f 09 2a 65 3f 1d da 7e 3f 99 71 6d 3f
       0.9662948 0.89517266 0.99551564 0.9275146
000260 8e cb 78 3f ba 0c 58 3f 30 dd 81 3f 8a 7a 6f 3f
       0.971856 0.8439442 1.0145626 0.93546355
000270 e0 88 a9 bd 53 33 7d 3f e3 f2 86 3f 35 06 82 3f
       -0.0827806 0.9890644 1.0542873 1.0158144
000280 3d 0f 66 3f 49 a4 64 3f 4e f4 7a 3f 03 b5 6c 3f
       0.89867 0.8931318 0.9802903 0.924637
000290 6a 09 81 3f da 6f 89 3f bd 43 6b 3f c0 0f 61 3f
       1.0080998 1.0737259 0.91900235 0.8791466
0002a0 0b 76 5a 3f 54 97 7b 3f 17 88 40 3c 91 b1 68 3f
       0.8533637 0.98277783 0.011751196 0.90895945
0002b0 d5 72 62 3f 14 45 6a 3f fe 62 8c 3f 29 70 69 3f
       0.8845647 0.91511655 1.096771 0.9118677
0002c0 13 18 5e 3f b0 04 71 3f e9 a7 7c 3f 0a 7d 5a 3f
       0.86755484 0.9414778 0.9869371 0.85347044
0002d0 78 80 6c 3f 05 d1 5a 3f 87 6a 88 3f 6c 00 54 3f
       0.9238353 0.8547519 1.065751 0.82813144
0002e0 db 0f 83 3f a3 eb 79 3f 4f 3c 86 3f 32 60 91 3f
       1.0239214 0.9762518 1.0487155 1.1357481
0002f0 1b f1 7d 3f 8b 0b 7b 3f 1e 46 6b 3f 36 e4 84 3f
       0.9919602 0.9806449 0.91903865 1.0382144
000300 b8 5e 72 3f da f3 83 3f 07 f2 86 3f 7d 2b 58 3f
       0.9467578 1.0308793 1.0542611 0.8444136
000310 c8 bb 7f 3f da b4 81 3f 63 69 82 3f 45 d1 86 3f
       0.99895906 1.0133317 1.0188411 1.0532614
000320 34 06 4a 3f 72 70 59 3f ba 28 89 3f 5f 80 6e 3f
       0.78915715 0.849372 1.0715554 0.9316463
000330 bf 4f 63 3f 2c 29 89 3f 33 55 7e 3f ec b9 77 3f
       0.8879356 1.071569 0.99348754 0.9676807
000340 c6 19 80 3f 0c 45 75 3f 71 00 7b 3f 81 49 80 3f
       1.0007865 0.9580848 0.9804755 1.0022432
000350 04 82 5e 3f ea c2 89 3f b6 30 67 3f ca c6 6a 3f
       0.8691714 1.0762608 0.903087 0.9170958
000360 b3 ca 5d 3f e4 da 5c 3f 7a bc 67 3f f0 2c 64 3f
       0.8663742 0.862715 0.9052197 0.8913107
000370 ca 25 c2 bd f4 a9 81 3f 6c 33 77 3f 13 03 58 3f
       -0.09479864 1.012999 0.9656284 0.8437969
000380 52 5b 86 3f 89 cc 86 3f b1 29 87 3f 41 2a 7a 3f
       1.0496619 1.0531169 1.0559598 0.97720724
000390 92 3f 73 3f b7 4d 7a 3f d7 c3 79 3f dc e9 85 3f
       0.95018876 0.97774833 0.9756445 1.0461993
0003a0 f1 d8 87 3f b4 ed 7d 3f 3b ea 57 bd b1 eb 59 3f
       1.061308 0.9919083 -0.052713614 0.8512526
0003b0 5a f4 77 3f be 5b 7e 3f 04 6e 67 3f 53 26 7b 3f
       0.96857226 0.9935874 0.90402246 0.98105353
0003c0 0e 24 8c 3f e1 d6 82 3f 88 0e 65 3f e9 d0 6a 3f
       1.0948503 1.0221826 0.894753 0.9172502
0003d0 52 2e 61 3f ab 15 8a 3f 7b 59 60 3f 3b f9 70 3f
       0.87961304 1.0787863 0.87636536 0.94130296
0003e0 ea 2a 88 3f 64 bc 4c 3f b6 ec 61 3f 5b da 7a 3f
       1.0638096 0.7997496 0.8825182 0.97989434
0003f0 25 9f 81 3f 4d 49 7d 3f 99 b1 60 3f e8 49 7c 3f
       1.0126692 0.98939973 0.8777099 0.9855027

fc3.bias f4 [32]
000000 74 c9 86 40 15 72 89 40 c0 c4 84 40 bb d2 86 40
       4.2120914 4.295176 4.1490173 4.213224
000010 be da 09 39 bc e1 85 3d 5a 55 f1 bd 1a c8 8a 40
       0.00013146826 0.06537196 -0.11783858 4.3369265
000020 e8 27 16 be bf 59 b8 3d cb 7e 89 40 8f b1 85 40
       -0.1466366 0.09001493 4.2967277 4.1779246
000030 e7 76 8b 40 d1 7b 82 40 e8 4d 8b 40 4e 12 88 40
       4.3582644 4.0776143 4.35326 4.2522345
000040 9c 5e 85 40 82 f2 8b 40 2c 82 50 3d 48 34 f0 bc
       4.167799 4.373353 0.05090539 -0.029321805
000050 f7 f4 1c be a6 e6 33 3c 28 33 83 40 f1 d3 85 40
       -0.15327822 0.010980284 4.0999947 4.1821218
000060 c7 fe ac bd 49 d8 8a 40 ab ff 88 40 9b 3e 0c 3c
       -0.084470324 4.338902 4.2812095 0.008559848
000070 f6 f7 87 40 fb 98 83 40 b2 26 a3 3d 88 c0 a2 3d
       4.2490187 4.1124244 0.07966365 0.07946879

fc4.weight f4 [1, 32]
000000 cd 3f 95 3f 42 fe 81 3f 7b 5b 93 3f 50 a0 90 3f
       1.1660095 1.0155718 1.1512293 1.1298923
000010 39 e1 ce bd 38 b1 fa bc 4e 8a 77 bd 4f ac 8b 3f
       -0.101015516 -0.030602083 -0.060434632 1.091196
000020 b8 5b 62 3c ac a3 19 bd 9b 4a 84 3f 03 ef 8c 3f
       0.013815813 -0.037509605 1.0335268 1.101044
000030 2f 3b 85 3f bf 88 93 3f d3 d6 81 3f 65 81 94 3f
       1.0408686 1.1526107 1.0143684 1.1601988
000040 db 19 86 3f 88 15 7e 3f 4b 96 06 be 01 7f 27 bd
       1.047664 0.99251604 -0.1314327 -0.040892605
000050 15 70 5a bd f9 9b bc 3b 20 86 93 3f b5 0e 8c 3f
       -0.053329546 0.005755898 1.1525307 1.0941988
000060 62 f5 0d be 43 ba 82 3f 77 b5 8e 3f d4 6b bb bc
       -0.13863137 1.0213093 1.1149129 -0.022878565
000070 e4 35 8f 3f 6e af 8b 3f 16 af 42 bc 1a 3d c9 bc
       1.1188321 1.0912912 -0.011882564 -0.024565268
