Model/Pre Trained Model/Results/200000 Initial Capital/100 Properties/real_estate_ai_model_rental.pt (torch, 16368 bytes, 7 tensors)

fc1.weight f4 [64, 8]
0	0x3f77bd8d	0.96773607
1	0xbdd813bf	-0.10550641
2	0x3c482679	0.012216204
3	0x3d5fdd9f	0.054654714
4	0x3d029039	0.031875823
5	0x3cfd7e9e	0.030944165
6	0xbc4df542	-0.012570681
7	0x3e02c558	0.12770593
8	0x3f5ffedf	0.8749828
9	0x3e29f9f4	0.16599256
10	0xbda01c0e	-0.07817851
11	0xbd599547	-0.053120878
12	0x3dd33bd6	0.10314147
13	0x3da8ffe5	0.08251933
14	0xbcba14b4	-0.02271495
15	0x3e60046e	0.2187669
16	0x3f51ed1a	0.82002413
17	0x3d3470fd	0.044053067
18	0x3cb9abcf	0.022664933
19	0x3d03f4d3	0.032215904
20	0xbd85880a	-0.06520088
21	0xbe1a643f	-0.15077303
22	0x3cdd2702	0.02699614
23	0xbe96633b	-0.29372582
24	0x3f499be4	0.78753495
25	0x3e4d5f73	0.20055942
26	0xbd68a7e9	-0.056800757
27	0xbcf813b9	-0.030282842
28	0xbdf9b206	-0.121921584
29	0xbda7809f	-0.081788294
30	0xbe1b5a0c	-0.15171069
31	0xbe8e160e	-0.277512
32	0x3f9389f7	1.1526479
33	0x3cce52d1	0.025185974
34	0x3e132c5a	0.14372388
35	0x3e2dc57f	0.1696987
36	0xbca693ac	-0.020334087
37	0xbc9a1bd9	-0.018812107
38	0xbd244e0d	-0.040113498
39	0x3e17733e	0.14790055
40	0x3f611a08	0.87930346
41	0xbe34b4cc	-0.17647094
42	0xbe4e506e	-0.20147869
43	0xbe84fe46	-0.25975245
44	0x3cd8149c	0.026377015
45	0x3cc2d2ce	0.02378216
46	0x3ddf831f	0.10913681
47	0x3d84e5a9	0.06489117
48	0x3f81f0e7	1.0151643
49	0xbc274afa	-0.010210747
50	0xbd64eda3	-0.05589069
51	0xbc464ffc	-0.012104031
52	0x3b492d56	0.0030697188
53	0x3c2bff6d	0.01049791
54	0xbd292561	-0.041295413
55	0xbe13dfb6	-0.14440808
56	0x3f99dcef	1.2020549
57	0xbe379217	-0.17926823
58	0xbd8edce1	-0.06975723
59	0xbce7dd8f	-0.02830389
60	0x3c8d07e0	0.01721567
61	0x3c1e788c	0.009672295
62	0xbb1872fd	-0.0023261898
63	0xbec1a8dc	-0.37824142
64	0x3fa6bc71	1.3026258
65	0x3e95d349	0.2926276
66	0x3d49e79d	0.04929315
67	0x3d2ef85d	0.042717326
68	0xbda23a01	-0.079212196
69	0xbd03695f	-0.03208291
70	0x3e1ee598	0.1551727
71	0x3f1cd3d1	0.61260706
72	0x3f75f84c	0.96081996
73	0x3d977847	0.07395988
74	0x3d7c87af	0.061652835
75	0x3db34e3e	0.08755158
76	0xbd3b5c1f	-0.04574215
77	0x395e026b	0.0002117247
78	0x3ce522ee	0.027970757
79	0xbd37a506	-0.044835113
80	0x3f88a3cd	1.0674988
81	0x3ca0e1bf	0.019638894
82	0x3e00c422	0.12574819
83	0x3e194c19	0.14970435
84	0x3ca7c3ce	0.02047911
85	0xbd989c94	-0.0745174
86	0xbd9e355c	-0.07725021
87	0x3e401c79	0.18760861
88	0x3f99452f	1.1974238
89	0x3e48512d	0.19562216
90	0x3e0a6640	0.13515568
91	0x3c99e3ec	0.01878544
92	0xbd17005b	-0.036865573
93	0x3cee571d	0.029094273
94	0x3c9cd86a	0.019146163
95	0x3e59042b	0.21192996
96	0x3f968446	1.1759117
97	0x3d8b4903	0.06801035
98	0xbe5e08d6	-0.21683058
99	0xbe364591	-0.17799975
100	0xbd1838b6	-0.03716346
101	0xbb8b9812	-0.0042600716
102	0x3cad4304	0.02115012
103	0xbdfdb5fa	-0.12388225
104	0x3f927ed3	1.1444954
105	0x3d46afde	0.048507564
106	0x3d7d9bea	0.06191627
107	0x3dd5ec59	0.1044547
108	0xbd97b662	-0.07407834
109	0xbc35aa46	-0.01108796
110	0x3bda525d	0.0066626505
111	0xbe530aeb	-0.20609634
112	0x3f7e7fcf	0.9941377
113	0x3d4d3258	0.05009684
114	0x3c921a53	0.017834818
115	0x3d5d3db1	0.05401391
116	0xbd040752	-0.032233544
117	0xbbe66058	-0.007030528
118	0xbc33bfd1	-0.010971026
119	0xbdc05979	-0.093920656
120	0x3fa012b7	1.2505711
121	0x3dd1b728	0.102400124
122	0x3ddf0814	0.10890213
123	0x3e1ea186	0.15491304
124	0xbd4d504b	-0.0501254
125	0xbd672658	-0.05643305
126	0xbcf8b749	-0.030360835
127	0xbcb79f2b	-0.022414764
128	0x3f6d208a	0.92627776
129	0x3ce14cba	0.027502406
130	0xbd0712f8	-0.032977074
131	0xbb71f896	-0.003692185
132	0xbd4a58a1	-0.04940093
133	0xbd935fff	-0.07196044
134	0x3bf4d686	0.0074718622
135	0xbe8f37bc	-0.2797221
136	0x3f62a2eb	0.88529843
137	0xbd9b7fcc	-0.07592735
138	0x3d00e568	0.03146878
139	0x3c118ba4	0.008883391
140	0x3c027a04	0.007963661
141	0xbc97e83d	-0.018543357
142	0xbc58eba0	-0.013239771
143	0x3e70e28e	0.23523924
144	0x3f7fde2e	0.99948394
145	0x3eea73c7	0.45791456
146	0xbdd34b09	-0.10317046
147	0xbe1b9d34	-0.15196687
148	0xbd8391d2	-0.064242974
149	0x3e69916c	0.2280938
150	0xbec29a97	-0.38008568
151	0xbe084854	-0.13308841
152	0x3f580c63	0.843939
153	0xbcc92302	-0.024552826
154	0x3d3188b1	0.04334325
155	0x3db089f7	0.08620065
156	0xbbc7da38	-0.0060990117
157	0x3d07189d	0.032982457
158	0x3db8d672	0.09025277
159	0x3e044349	0.12916292
160	0x3f8488cf	1.0354251
161	0x3a9f5297	0.0012155351
162	0x3defc4f7	0.1170749
163	0x3e1137b5	0.14181407
164	0xb9dfeeb2	-0.00042711716
165	0xbc0f6dc1	-0.008754195
166	0xbbf832c5	-0.0075744116
167	0x3e1159f9	0.14194478
168	0x3f97df5e	1.1865041
169	0x3d91e98c	0.07124624
170	0x3dd8278b	0.10554417
171	0xbed84d5e	-0.42246526
172	0x3db05734	0.08610383
173	0xbe2e106f	-0.16998456
174	0xbc04c83b	-0.008104379
175	0x3e3209a9	0.17386498
176	0x3f85d4b6	1.0455539
177	0x3c518aa0	0.012789398
178	0xbd78d0de	-0.060746066
179	0xbd3d9b1f	-0.046290513
180	0xbc544d23	-0.012957844
181	0x3c0b493a	0.008501345
182	0x3daabbbc	0.08336589
183	0x3e26c2c5	0.16285236
184	0x3f99c875	1.20143
185	0xbe0a2184	-0.13489348
186	0x3de5bd5e	0.112177595
187	0x3e13d60d	0.14437123
188	0x3d25ca6b	0.040476244
189	0xbc09ccdb	-0.008410658
190	0xbc6df0df	-0.01452276
191	0x3b307286	0.002692373
192	0x3f57c2dc	0.84281707
193	0xbe0180fc	-0.1264686
194	0xbe41710e	-0.18890783
195	0xbe2d2def	-0.16912054
196	0x3d3a8e72	0.045546003
197	0x3c76a665	0.01505432
198	0xbc96b6f0	-0.018397778
199	0x3e4f2f7a	0.20232955
200	0x3f92bfca	1.1464779
201	0x3ecf651f	0.40506837
202	0x3dc4aa3e	0.096027836
203	0xbd30d4ec	-0.043171808
204	0xbe106438	-0.1410073
205	0xbe3d188a	-0.18466392
206	0xbc840c21	-0.016119065
207	0x3e195d70	0.1497705
208	0x3f8d9100	1.1059875
209	0x3d8001ff	0.06250381
210	0x3cc5f7c5	0.024165997
211	0x3d5feaf4	0.054667428
212	0xbd483ad3	-0.048884224
213	0x3c8f2bb7	0.0174769
214	0xbd0a6bf5	-0.033794362
215	0xbdecc19a	-0.11560364
216	0x3fae38fe	1.3611143
217	0x3dc2584b	0.09489497
218	0xbe53b505	-0.20674522
219	0xbe82f3a9	-0.25576523
220	0xbd3dd5a4	-0.04634632
221	0xbcc128e7	-0.023579074
222	0xbca2b08c	-0.019859575
223	0xbdac3678	-0.084088266
224	0x3f723b69	0.946219
225	0x3e79bf1b	0.24389307
226	0x3e99d0b3	0.30042037
227	0x3e2f2452	0.17103699
228	0x3ca98b9c	0.020696454
229	0xbdf82360	-0.12116122
230	0xbd77dbe9	-0.060512457
231	0x3ed13282	0.40858847
232	0x3f9b7f8d	1.21483
233	0xbe173747	-0.1476718
234	0x3d66532d	0.056231666
235	0x3dc6376a	0.09678538
236	0xbcf24548	-0.029574051
237	0xba88e82c	-0.0010445169
238	0x3bd9e4c4	0.0066495854
239	0xbebbb734	-0.3666321
240	0x3f952496	1.165179
241	0x3ddba3e9	0.10724623
242	0x3d9c7fa6	0.076415345
243	0x3dd0bf49	0.10192735
244	0xbd7cdbeb	-0.061733168
245	0x3b8b08e5	0.0042430037
246	0x3c8a5d2b	0.01689013
247	0xbd07dd1e	-0.03316986
248	0x3fa8565d	1.3151356
249	0xbe1d0e58	-0.15337503
250	0x3d77bff9	0.060485814
251	0x3db86144	0.09002927
252	0x3d16147a	0.03664062
253	0xbd7712b8	-0.060320586
254	0xbcd2da9a	-0.025739003
255	0xbe426a61	-0.18985893

fc1.bias f4 [64]
0	0x3fb0ba60	1.3806877
1	0x3fe09cb1	1.7547818
2	0x3fb25a6c	1.3933845
3	0x3fa09c16	1.2547634
4	0x3fce982f	1.6140193
5	0x3fa6e89d	1.3039738
6	0x3f9f15d4	1.2428536
7	0x3f8603df	1.0469931
8	0x3fdaa1e7	1.7080659
9	0x3f99aba9	1.2005512
10	0x3fcd3249	1.6030971
11	0x3feaa82b	1.8332571
12	0x3fb3447a	1.4005272
13	0x3fa13b8b	1.2596296
14	0x3f9c3263	1.2202877
15	0x3fcfbfd8	1.6230421
16	0x3f9fe42f	1.2491511
17	0x3fb70bec	1.4300513
18	0x3fd5a2e1	1.6690332
19	0x3fa0cde7	1.2562836
20	0x3fbdc404	1.4825444
21	0x4002c840	2.0434723
22	0x3fcd05b8	1.601737
23	0x3fbe48e9	1.4866
24	0x3f9ec8a4	1.2404981
25	0x40020d5a	2.032065
26	0x3fb0b07e	1.3803861
27	0x3fd5d789	1.6706401
28	0x3ffdd425	1.9830366
29	0x3f88771e	1.0661352
30	0x3fbf6ca1	1.4955026
31	0x3fadec7f	1.3587798
32	0x3ff02ed8	1.8764296
33	0x3fa51479	1.2896873
34	0x3fce3d4e	1.6112459
35	0x3fe06437	1.7530583
36	0x3fea9061	1.8325311
37	0x3f99b27e	1.2007596
38	0x40018459	2.0237029
39	0x3fe596ef	1.7936686
40	0x3fc1f584	1.515305
41	0x3fb2fc3b	1.3983225
42	0x40037d4e	2.054523
43	0x3f9c2310	1.21982
44	0x3fbe4ca8	1.4867144
45	0x3fdc75b8	1.7223425
46	0x3fcfa0ae	1.622091
47	0x3fc23bc3	1.5174488
48	0x3fafb7d3	1.3727974
49	0x3f961ae7	1.172696
50	0x3fa5aa3b	1.2942575
51	0x3fe052bb	1.7525247
52	0x3fd7cf25	1.686009
53	0x3fd0b4f0	1.6305218
54	0x3fb6a9d8	1.4270582
55	0x3ff63a38	1.9236517
56	0x3face1b0	1.3506374
57	0x3f9ad255	1.2095438
58	0x3fa9471d	1.3224827
59	0x3fa3f037	1.2807683
60	0x3f9b7957	1.2146405
61	0x3fafd81a	1.3737824
62	0x3f9d43e3	1.2286342
63	0x3fb0085c	1.3752551

fc2.weight f4 [32, 64]
0	0x3f414d80	0.7550888
1	0x3f098330	0.537158
2	0x3f28cb12	0.6593486
3	0x3f35f704	0.7108004
4	0x3f22c25b	0.6357781
5	0x3f26e869	0.6519838
6	0x3f4272f8	0.7595668
7	0x3f6b8132	0.9199401
8	0x3eaa90b9	0.3331354
9	0x3f47dcaa	0.7807108
10	0x3f16f9bf	0.5897483
11	0x3edfa385	0.43679443
12	0x3f324883	0.69641894
13	0x3f425644	0.7591288
14	0x3f2da8d7	0.67835754
15	0x3efbb548	0.49161744
16	0x3f403799	0.75084835
17	0x3f33742d	0.70099145
18	0x3f239743	0.6390268
19	0x3f2e11dc	0.67996
20	0x3f1b2313	0.60600394
21	0x3ed3dfab	0.41381583
22	0x3ef4ba9d	0.47798625
23	0x3f328742	0.6973764
24	0x3f4c1154	0.7971394
25	0x3eed2fa4	0.4632541
26	0x3f442f79	0.7663494
27	0x3f2bd7fd	0.67126447
28	0x3edae739	0.42754534
29	0x3f482c0e	0.7819222
30	0x3efd9768	0.49529576
31	0x3f4e7b5d	0.8065699
32	0x3ec2e6db	0.38066754
33	0x3f3b7e57	0.73239654
34	0x3eef58e2	0.467475
35	0x3ee78df7	0.45225498
36	0x3ef6ec59	0.48227194
37	0x3f51728a	0.818154
38	0x3ee0a855	0.43878427
39	0x3f0ace2c	0.54220843
40	0x3f2bf97d	0.67177564
41	0x3f24b35f	0.643362
42	0x3edf859c	0.43656623
43	0x3f39e415	0.7261365
44	0x3f269b95	0.6508115
45	0x3f16220f	0.5864572
46	0x3f0cf515	0.55061466
47	0x3f3154a2	0.69269764
48	0x3f4ba2af	0.7954511
49	0x3f434114	0.76271176
50	0x3f55b0d1	0.83472925
51	0x3f287b04	0.65812707
52	0x3f2483ed	0.642638
53	0x3f261bde	0.6488627
54	0x3f149588	0.58040667
55	0x3f18b40d	0.59649736
56	0x3f28e71b	0.6597764
57	0x3f3a8954	0.72865796
58	0x3f46ffad	0.7773388
59	0x3f383f14	0.7197125
60	0x3f41b429	0.7566553
61	0x3f154a2c	0.583163
62	0x3f218e20	0.6310749
63	0x3f3ba11e	0.7329272
64	0xbd3049a5	-0.043038983
65	0xbfb76dfd	-1.4330441
66	0x3fd5eaa5	1.6712233
67	0x3fadaefb	1.3569025
68	0xbd25de77	-0.040495362
69	0x3f2fc17b	0.686546
70	0xbe3ae131	-0.18249966
71	0x3e3889ba	0.18021289
72	0x3ee24f49	0.44201115
73	0x3f27c8d3	0.6554081
74	0xbf8494ac	-1.0357871
75	0xbe6d2244	-0.23157603
76	0xbeef41f0	-0.46729994
77	0x3e8fe994	0.28107893
78	0x3d9c2a71	0.076252826
79	0xbf2a39bf	-0.66494364
80	0x3fbdba7b	1.4822534
81	0xbe1b3a37	-0.15158926
82	0xbf4b5c6d	-0.79437906
83	0x3f16176b	0.58629483
84	0xbd5779e1	-0.052606467
85	0xbf945b46	-1.1590354
86	0x3dbf1702	0.0933056
87	0xbe0c3a51	-0.13694121
88	0x3e07c6b4	0.13259393
89	0xbf44b3c7	-0.7683682
90	0xbf48ed5d	-0.7848719
91	0xbf77f0ee	-0.96852005
92	0xbf798be7	-0.974791
93	0xbe82c575	-0.25541273
94	0xbf23530d	-0.637986
95	0x3ce9db17	0.028546853
96	0x3ee23006	0.44177264
97	0x3f65c64b	0.89755696
98	0x3efbeac7	0.49202558
99	0x3f00fd8d	0.5038689
100	0xbfb806c2	-1.4377062
101	0x3ed8a9ee	0.42317146
102	0xbf5c825a	-0.861364
103	0xbdb79e84	-0.08965781
104	0xbeaa9e07	-0.3332369
105	0xbeee2b3e	-0.46517366
106	0xbf485681	-0.78256994
107	0x3e260b0f	0.16215156
108	0xbeaab947	-0.3334448
109	0x3f974471	1.1817762
110	0xbeea3f6d	-0.45751515
111	0xbf97f68b	-1.1872114
112	0xbecc2e2f	-0.39878985
113	0x3f400c2c	0.7501857
114	0x3ee518b6	0.44745415
115	0xbf9e06e3	-1.2345852
116	0xbf3fa3a3	-0.74859065
117	0xbe4842ca	-0.19556728
118	0x3fa125fc	1.2589717
119	0xbfec6302	-1.8467715
120	0x3ecd5691	0.40105107
121	0xbe582192	-0.21106556
122	0x3f4a4714	0.79014707
123	0x3f236597	0.6382689
124	0x3f30229d	0.68802816
125	0xbeadc898	-0.33942103
126	0x3f33e618	0.7027297
127	0x3df44b08	0.119283736
128	0x3f054384	0.52056146
129	0x3ef6e0f2	0.48218495
130	0x3f2b5e25	0.6694053
131	0x3f4e9c4b	0.80707234
132	0x3eebf724	0.4608699
133	0x3f125125	0.57155067
134	0x3f315704	0.692734
135	0x3f732a7c	0.949867
136	0x3ec79f73	0.38988838
137	0x3f14f4b9	0.5818592
138	0x3f0a3f88	0.5400319
139	0x3e9417fb	0.28924546
140	0x3f34c147	0.7060742
141	0x3f35a8b3	0.7096054
142	0x3f245824	0.6419699
143	0x3f13875c	0.57628417
144	0x3f3e575a	0.7435204
145	0x3f2aa256	0.66653955
146	0x3ee4b57e	0.44669718
147	0x3f09285b	0.535772
148	0x3f24d52c	0.64387774
149	0x3ee58ffc	0.44836414
150	0x3f0265e3	0.50936717
151	0x3f1dc1e2	0.61623967
152	0x3f35d01d	0.7102068
153	0x3ea354f2	0.31900746
154	0x3f31527d	0.6926649
155	0x3f08f38e	0.53496635
156	0x3f003e48	0.50095034
157	0x3f593531	0.8484679
158	0x3f2b96ee	0.67027175
159	0x3f22a683	0.63535327
160	0x3ede9882	0.4347573
161	0x3f0c59ed	0.54824716
162	0x3f147477	0.5799021
163	0x3ea06940	0.313303
164	0x3e7f77a0	0.24947977
165	0x3f5fbda8	0.8739877
166	0x3ed6286b	0.4182771
167	0x3eda8f93	0.42687663
168	0x3f1dde76	0.61667573
169	0x3f21a2e9	0.63139206
170	0x3eec865a	0.46196252
171	0x3f3d5af6	0.7396692
172	0x3f0a5a9b	0.540445
173	0x3ef4b511	0.47794393
174	0x3f1e7a4c	0.6190536
175	0x3f02d409	0.5110479
176	0x3f045014	0.5168469
177	0x3f153b87	0.58293957
178	0x3f382173	0.7192604
179	0x3ed3b334	0.4134766
180	0x3f18e789	0.59728295
181	0x3f23d8df	0.64002794
182	0x3f02f12b	0.51149243
183	0x3ede8adf	0.43465325
184	0x3f008b36	0.5021242
185	0x3f2bb5d1	0.67074305
186	0x3f3865ed	0.72030526
187	0x3f36c63a	0.7139622
188	0x3f2d7a10	0.6776438
189	0x3f0073ab	0.50176495
190	0x3f1fa6a5	0.62363654
191	0x3f1899af	0.596095
192	0x3f3e336f	0.7429723
193	0x3f4019ed	0.7503956
194	0x3f600153	0.8750202
195	0x3f74bc67	0.9559998
196	0x3f1569d9	0.58364636
197	0x3f6c294b	0.9225051
198	0x3f3e94d2	0.7444583
199	0x3f6ccb7d	0.92498
200	0x3f0be5c4	0.5464747
201	0x3f6a7260	0.9158077
202	0x3f35579b	0.708368
203	0x3f32edda	0.6989418
204	0x3f5ef707	0.87095684
205	0x3f58194b	0.84413594
206	0x3f5b7610	0.85727024
207	0x3f35a736	0.7095827
208	0x3f6f17c6	0.9339565
209	0x3f2b9f69	0.67040116
210	0x3f17e3fe	0.59332263
211	0x3f6ede1d	0.9330767
212	0x3f2ff208	0.68728685
213	0x3ecad84b	0.39618143
214	0x3f1ba469	0.60797745
215	0x3f4277be	0.7596396
216	0x3f3efcda	0.7460457
217	0x3eeac361	0.45852187
218	0x3f53706b	0.8259341
219	0x3f3f62d1	0.74760157
220	0x3f256aac	0.64615893
221	0x3f6d9a93	0.92813987
222	0x3f3223d8	0.69585943
223	0x3f71743c	0.94317985
224	0x3f22ca2d	0.63589746
225	0x3f4e8fa0	0.80687904
226	0x3f1a7f13	0.6035015
227	0x3f0dec30	0.5543852
228	0x3ed43e3a	0.41453725
229	0x3f646540	0.89216995
230	0x3ef499b9	0.4777353
231	0x3eea49a5	0.4575931
232	0x3f5f312c	0.87184405
233	0x3f6d898f	0.9278802
234	0x3f14a235	0.5806001
235	0x3f6ede08	0.9330754
236	0x3f63d9eb	0.8900439
237	0x3f417503	0.7556917
238	0x3f25fab4	0.6483567
239	0x3f39cc98	0.7257781
240	0x3f2b04e6	0.6680435
241	0x3f79862a	0.97470343
242	0x3f66c20b	0.90139836
243	0x3f2ea174	0.6821511
244	0x3f242df3	0.6413261
245	0x3f35239c	0.7075746
246	0x3f48000e	0.78125083
247	0x3ecf4f16	0.40490025
248	0x3f59ded3	0.8510563
249	0x3f55c4c7	0.83503383
250	0x3f41a321	0.7563954
251	0x3f782dc7	0.9694485
252	0x3f56569d	0.8372591
253	0x3f4cedc3	0.80050296
254	0x3f3d30d4	0.7390263
255	0x3f317eed	0.693343

fc2.bias f4 [32]
0	0x4018f470	2.3899193
1	0xbebd0d6f	-0.36924312
2	0x400d60c8	2.209032
3	0x4018ba2b	2.3863628
4	0x4005025c	2.078269
5	0x4005e734	2.0922365
6	0x3ea4b05c	0.32165802
7	0x3d4ea6ee	0.050452165
8	0x400b91b8	2.180769
9	0x40234fe9	2.5517523
10	0x40279bff	2.6188962
11	0x400c8803	2.1958015
12	0x400ee819	2.232916
13	0x4010897e	2.2583919
14	0x400cfbc0	2.2028656
15	0x40121d09	2.2830222
16	0x40252f4e	2.5810122
17	0x4010532b	2.2550762
18	0x40182508	2.3772602
19	0x3d72bb7b	0.059260827
20	0x40084475	2.1291783
21	0x40169699	2.3529418
22	0xbd6d1f9b	-0.05789147
23	0x400fe699	2.2484496
24	0xbe959ebc	-0.29222667
25	0x400733a4	2.112527
26	0x40106dc4	2.2566996
27	0xbe0a07b9	-0.13479508
28	0x40089976	2.1343665
29	0x4007d2de	2.1222453
30	0x3e51eb58	0.20499933
31	0x401415f2	2.3138394

fc3.weight f4 [16, 32]
0	0xbef92d10	-0.48667192
1	0xbe7491ad	-0.23883696
2	0x3e8c3344	0.27382863
3	0xbf4bc99c	-0.79604506
4	0x3dd7d5a3	0.10538795
5	0x3ccffc14	0.025388755
6	0xbcc0d1c9	-0.023537533
7	0x3e14ee8a	0.1454412
8	0xbd64152a	-0.055684246
9	0xbf1be262	-0.6089231
10	0x3f118f80	0.5685959
11	0x3f3d3914	0.7391522
12	0xbb679132	-0.0035334346
13	0x3c0ddd02	0.008658649
14	0x3d2e5dd0	0.042569935
15	0x3e16a64b	0.14711873
16	0xbf4a02cd	-0.78910524
17	0x3d25b4ee	0.04045575
18	0x3d047225	0.03233542
19	0x3e075322	0.13215306
20	0x3ea2fa1e	0.3183145
21	0x3d8e894d	0.06959782
22	0x3dc95777	0.09831136
23	0x3da5cf69	0.08096201
24	0x3c1c4aba	0.009539301
25	0xbe18ec03	-0.14933781
26	0x3e74d559	0.2390951
27	0x3cd4c114	0.025970973
28	0x3f0ee707	0.5582127
29	0x3dd64397	0.104621105
30	0x3d7fc165	0.062440295
31	0x3e664a2c	0.22489232
32	0xbc805dee	-0.01566979
33	0xbd43ed54	-0.047833756
34	0x3cce9563	0.025217718
35	0xbc372c60	-0.011180013
36	0xbde10b22	-0.109884515
37	0xbd8a8e5e	-0.06765436
38	0x3d9d8183	0.07690718
39	0xbdf21bb1	-0.11821688
40	0xbb8871a2	-0.0041639367
41	0xbb864c7b	-0.0040984727
42	0xbd925530	-0.071451545
43	0x3cab7107	0.02092792
44	0xbe482c03	-0.19548039
45	0x3ddcae4a	0.107754305
46	0x3cc59035	0.024116615
47	0xbe313738	-0.1730622
48	0xbe40315a	-0.18768826
49	0x3d5f82c6	0.054568075
50	0xbe16e33c	-0.1473512
51	0xbd6004cd	-0.05469208
52	0xbdfa8e57	-0.122341804
53	0x3d38ba63	0.045099627
54	0xbd7d7d5e	-0.061887138
55	0xbdf32660	-0.11872554
56	0x3d56c2dc	0.052431926
57	0xbe33e84e	-0.17569086
58	0xbddcf8ca	-0.1078964
59	0xbdac4b17	-0.0841276
60	0xbd9b7f03	-0.07592585
61	0xbe1970f3	-0.14984493
62	0xbe244fa7	-0.1604601
63	0xbdf67066	-0.12033157
64	0x3f15270d	0.5826271
65	0xc009428c	-2.1446867
66	0x3f19378c	0.5985038
67	0x3f027a22	0.5096761
68	0x3f0d5ec0	0.552227
69	0x3ea7c164	0.32764733
70	0xbf91b955	-1.1384684
71	0xbdc9b342	-0.09848644
72	0x3f11eeaa	0.570048
73	0x3f28e425	0.6597312
74	0x3eae7717	0.34075233
75	0x3f091f5e	0.5356349
76	0x3ec3199c	0.38105476
77	0x3eb2bd77	0.34910175
78	0x3f1144a0	0.5674534
79	0x3e9904d8	0.29886508
80	0x3f1f4bea	0.6222521
81	0x3f091ace	0.53556526
82	0x3ebb6fc5	0.3660871
83	0x3d8832e4	0.066503316
84	0x3ef9c9b2	0.48786694
85	0x3f07ab29	0.52995545
86	0x3ce0be6f	0.027434556
87	0x3f15baa7	0.58487934
88	0xbf8a3048	-1.0795984
89	0x3efab37f	0.4896507
90	0x3f031384	0.51201653
91	0xbd71f2a8	-0.059069306
92	0x3e8059c8	0.25068498
93	0x3f14a25c	0.5806024
94	0xbf260294	-0.64847684
95	0x3f15635b	0.5835473
96	0xbcbbf45a	-0.022943664
97	0xbd4dae3f	-0.050215002
98	0xbdaab59a	-0.08335419
99	0xbd1293c0	-0.035785437
100	0xbd03d23c	-0.032182917
101	0xbd88871c	-0.06666395
102	0xbddbd2d8	-0.10733575
103	0xbd8bb4b5	-0.068215765
104	0xbcf23b50	-0.029569298
105	0xbe555534	-0.20833284
106	0x3dc62cd2	0.096765175
107	0xbc8499e4	-0.016186662
108	0xbde42caa	-0.111413315
109	0xbd24928e	-0.040178828
110	0xbd86bf3e	-0.06579445
111	0x3d659d63	0.0560583
112	0xbd3e07b0	-0.04639405
113	0xbdeb0fb5	-0.11477605
114	0xbdd00c6f	-0.101586215
115	0x3db99924	0.090624124
116	0xbe1489bd	-0.14505668
117	0xbdc55a23	-0.09636333
118	0x3b0b4141	0.002124861
119	0xbe240b74	-0.16019994
120	0xbe0248b4	-0.12723047
121	0x3bc89c52	0.0061221505
122	0xbda306b6	-0.079602644
123	0x3c72b71c	0.0148141645
124	0xbe199c93	-0.15001135
125	0x3cb17c0a	0.021665592
126	0xbe368046	-0.1782237
127	0x3d3bd97a	0.0458617
128	0x3ebe300d	0.37146035
129	0xc00a21f5	-2.1583226
130	0x3e9c68c3	0.30548677
131	0x3f14297c	0.578758
132	0x3f1b6279	0.6069713
133	0x3f0dd102	0.55397046
134	0xbf684476	-0.90729463
135	0x3de747f0	0.11293018
136	0x3edc40d2	0.43018204
137	0x3f32be4e	0.6982163
138	0x3ea585ed	0.3232874
139	0x3ed11090	0.4083295
140	0x3f0d4ab8	0.55192137
141	0x3ee8f0a3	0.4549609
142	0x3f116f63	0.5681059
143	0x3f0b5838	0.54431486
144	0x3f1e5570	0.6184912
145	0x3eba0cde	0.36337942
146	0x3f0fdc6c	0.5619571
147	0xbe3632d8	-0.17792833
148	0x3eb08020	0.34472752
149	0x3ec79194	0.38978255
150	0xbdb4a022	-0.088196054
151	0x3f1942d9	0.59867626
152	0xbf8cf28b	-1.1011518
153	0x3eeb84c3	0.45999727
154	0x3ec0aafd	0.37630454
155	0xbdc403c2	-0.09571029
156	0x3efb7ba0	0.49117756
157	0x3f15c569	0.5850435
158	0xbf2f78db	-0.68543786
159	0x3f11289f	0.5670261
160	0x3f30d172	0.6906959
161	0xbff321d6	-1.8994701
162	0x3ecf15f0	0.40446424
163	0x3f402013	0.7504894
164	0x3eca43f1	0.3950496
165	0x3eececa2	0.46274287
166	0xbf87272b	-1.0558828
167	0x3c911dc0	0.017714381
168	0x3ec5f249	0.3866141
169	0x3f087d9a	0.5331665
170	0x3f1abc1f	0.604433
171	0x3ee87573	0.45402107
172	0x3f0d364c	0.55160975
173	0x3f08c72d	0.5342892
174	0x3f1f4071	0.62207705
175	0x3f1d9c09	0.61566216
176	0x3f314d4b	0.69258565
177	0x3eb82592	0.35966164
178	0x3ed576d8	0.41692233
179	0xbd23fda6	-0.04003682
180	0x3f22c785	0.6358569
181	0x3f110011	0.56640726
182	0xbe0efdb6	-0.1396397
183	0x3f1ce28c	0.61283183
184	0xbf92a8fa	-1.1457818
185	0x3eec6335	0.4616944
186	0x3f032fdd	0.5124491
187	0xbe048eb1	-0.12945057
188	0x3f0b482f	0.5440702
189	0x3ebc16da	0.36736184
190	0xbf366a0d	-0.7125557
191	0x3ec6749c	0.3876084
192	0x3f1bad6c	0.60811496
193	0xc007b14d	-2.1201966
194	0x3f0d308a	0.5515219
195	0x3f396d61	0.72432524
196	0x3f0babae	0.5455884
197	0x3f224f1b	0.63401955
198	0xbf93b14e	-1.1538484
199	0xbd5cbc4c	-0.05389051
200	0x3ed01b5e	0.4064588
201	0x3ed3a675	0.41337934
202	0x3eb2aeca	0.34898978
203	0x3f183c33	0.59466857
204	0x3edfa2fa	0.4367903
205	0x3f0721bc	0.5278585
206	0x3f255ab6	0.6459154
207	0x3f04edf1	0.5192557
208	0x3f1e0aa2	0.61734974
209	0x3f1e093f	0.6173286
210	0x3ee2caaf	0.4429526
211	0x3ce6fd59	0.028196977
212	0x3eeccf09	0.46251705
213	0x3ef3c4c1	0.4761105
214	0xbe06c1ae	-0.1315982
215	0x3f1d9b63	0.61565226
216	0xbf8f6586	-1.1202857
217	0x3eeea780	0.46612167
218	0x3f177a89	0.5917135
219	0xbd469e14	-0.0484906
220	0x3ee64791	0.44976476
221	0x3f04d917	0.5189375
222	0xbf483234	-0.78201604
223	0x3ecf6842	0.4050923
224	0xbe459f92	-0.19299152
225	0x3ca24ed1	0.019812973
226	0xbe5a7b53	-0.21336107
227	0x3bf3a63d	0.0074355886
228	0x3d83f2fd	0.06442831
229	0xbc837aca	-0.016049761
230	0x3dbac6e2	0.09119965
231	0xbe3ccbf8	-0.18437183
232	0x3ca23fae	0.019805755
233	0xbe099da1	-0.13439037
234	0x3cdb02ee	0.026734795
235	0x3ce116fa	0.027476776
236	0xbdffd96f	-0.12492644
237	0xbd805bf1	-0.062675364
238	0xbe55a550	-0.20863843
239	0xbe5fd449	-0.21858324
240	0x3d9fe5de	0.078075156
241	0xbde191cf	-0.11014139
242	0xbd443630	-0.04790324
243	0x3d53af84	0.051681057
244	0xbcec76ad	-0.028865183
245	0xbc8ad220	-0.016945899
246	0xbe3100d8	-0.17285478
247	0xbe58f7cf	-0.21188281
248	0x3c9cab5e	0.019124683
249	0xbe20910f	-0.15680335
250	0x3d6b126c	0.057390615
251	0x3d7152e1	0.05891693
252	0xbdc21866	-0.0947731
253	0xbe01d2a1	-0.12678005
254	0xbe1a46bc	-0.15066046
255	0xbd12de32	-0.035856433

fc3.bias f4 [16]
0	0x3fbf224a	1.4932339
1	0x3cd605f1	0.02612588
2	0x409fdc35	4.9956307
3	0xbe07bb83	-0.13255124
4	0x40a5d6e5	5.1824822
5	0x40ad3ca7	5.413654
6	0x40a193c6	5.0492887
7	0x3d81b314	0.063329846
8	0x3dc81cc7	0.09771114
9	0x3e053110	0.13006997
10	0x40a8130c	5.252325
11	0x40acb5f4	5.397211
12	0x40ad6b01	5.419312
13	0x40a6d949	5.214024
14	0x409f8433	4.9848876
15	0xbe1fe303	-0.15613942

fc4.weight f4 [1, 16]
0	0x4023822f	2.5548208
1	0xbdfa5821	-0.122238405
2	0x3f4012db	0.7502877
3	0xbdd1c884	-0.102433234
4	0x3f347d70	0.705039
5	0x3f0ea603	0.55722064
6	0x3f32329a	0.6960846
7	0xbdba7b84	-0.0910559
8	0xbdebe939	-0.11519093
9	0xbd3a91d6	-0.045549236
10	0x3f206ce6	0.62666166
11	0x3f0b3c21	0.54388624
12	0x3f07c455	0.53033954
13	0x3f03d17a	0.5149151
14	0x3f39bc8d	0.7255333
15	0xbe3a2be1	-0.18180801
