Model/Pre Trained Model/Results/200000 Initial Capital/100 Properties/real_estate_ai_model_valuation.pt (torch, 50708 bytes, 7 tensors)

fc1.weight f4 [128, 10]
00000000: c356 183f 3cfd 04be fae9 9ebd b540 073f
00000010: 52db 21be 8b61 36be d6f2 013e 50a4 e13f
00000020: cef9 8b3f ad92 e3be 3fd1 453f 9388 ad3d
00000030: 080c 89be 4fb5 063d 18d3 8b3e d386 663f
00000040: 81b0 0cbd 8837 f83f a1a1 b03f 4b69 f9be
00000050: c5b9 9c3d 1da5 b8bd 0638 22be fa76 433d
00000060: 3030 d3bc d28f 013e 9fb2 8dbc 8e86 d33f
00000070: 1f0f 443f 04f3 0bbe f2d4 023f d1c2 82bd
00000080: 8cf1 34bc b55c 503f ee2e 233e 0d8c 50be
00000090: 0e52 ddbd 96c1 d13f 3b17 b13f 2db7 3c3e
000000a0: e686 fcbd b6db d5bd 114e e2bc f9ae 903e
000000b0: ffb9 11be 20bb c7bc b336 8f3d da50 9b3f
000000c0: d0e1 c23f 0250 12be d701 403f e0cb eebd
000000d0: 2629 9fbd d93e 593f c211 1f3e 86b1 b6be
000000e0: a7b0 253e f2d9 1740 2e64 fa3f 8910 eabe
000000f0: e9e7 8b3f cd0d 303e 4c98 543e fb1c 4c3f
00000100: 0be6 4b3e d788 d0bc fd21 85bd b994 1d40
00000110: 1a92 d63f f1cf e8be d7d7 71bf ec8e d03c
00000120: 745d f13c 0c68 27bf 1438 72be 66ea f03e
00000130: 3778 12bf bb7e 50c0 cb0f 33c0 71cc bfbe
00000140: f4ad 8bbe ba24 093d a2fd 913d 6420 823d
00000150: ecea be3a 7bd3 aabd 4670 683e 485a 933f
00000160: 3493 b23f 2d82 903e 5770 843f 10cd a33d
00000170: 6cf1 023e eb49 1b3f 846b 163e 5dac 9ebd
00000180: f040 76bd 8882 2840 19eb fe3f a5c0 103f
00000190: 7ea6 0e3f 31b6 4abe 7da5 02be 7930 543e
000001a0: 7835 3bbe 2676 1bbe 557b 2cbe d392 df3f
000001b0: 327a 653f 1a82 58bd 294d 683f c3ab c73d
000001c0: f2a2 133e acd9 513f c43e dd3d b518 c43d
000001d0: be4d c13d 7065 2d40 5cc5 0c40 fe5b cb3d
000001e0: db06 4e3e dc26 04be d549 adbd 01bf 4f3e
000001f0: acfa ddbc f2be 00be dc0c 2abe f256 d53f
00000200: 92c5 663f 1824 35be 84d2 8cbe bb66 253e
00000210: c2ef 593e e2ba 113f 7862 e53d e5fe c3bd
00000220: 603a a53c e19d ba3f 2711 613f 72a0 02be
00000230: de17 4e3e 6303 113e 9859 223e 7816 023f
00000240: 8d7d 8fbe 8e31 eabc bef2 2dbe 4a89 933f
00000250: fd9f b03f d01a a83e 8f6e 153f 8e90 1b3e
00000260: 3868 cbbe 7611 cbbd 9da2 613e 5474 76be
00000270: d06a 1ebd acea e03f 4830 923f b060 d8be
00000280: 0655 a23d 0488 453f 9194 ffbe 5e2f 39be
00000290: be3b a33e 0b74 a13e 87da 233e 76ef c63f
000002a0: 3fe5 933f c0f4 38be 8a02 813f 6dab 193e
000002b0: 57dc 143e 4551 fc3e 104c 703d 7f0c 3c3e
000002c0: 0d04 1d3e 0325 2140 c076 e93f 8511 703f
000002d0: 1032 253f 008f 973d 007a a93d c5be 303f
000002e0: 9d38 2d3e 353e 2f3d b0ff fe3d 90b0 2440
000002f0: c233 0a40 0f6e 613f 141d 343f e7bc 11be
00000300: cbdd b4bd 8e9c dd3e 4580 00be b703 75bc
00000310: a6bd 763e 2d3b e33f ae63 b33f 6808 223e
00000320: 7cbc 11be ef71 22bc 71c0 b33c 4e3e 4b3e
00000330: 6122 613d 618d b0bd 249a 813e 4511 cd3f
00000340: 0114 703f 939b 373e 68de 2c3f 96d5 e23e
00000350: 0c00 fabe 2dbb 6f3e 0421 0bbe 6bc5 89be
00000360: 1ed4 d3bd 9b22 bf3f e691 973f 5cd6 9bbe
00000370: c130 673f a8ff 913e d5d6 9dbe b6ef cebc
00000380: 568d e73e 79b2 053f 70dd 783c b505 f93f
00000390: 70af 933f 79e0 a03e dc73 8abd 1543 84be
000003a0: 31b5 5ebe 2a11 d63e 585f 533b af60 c4bb
000003b0: ceed 953d acbc a73f 8462 9a3f e0a1 9ebd
000003c0: 2607 e83e 400c 57be 28fc 22be 8da2 1d3f
000003d0: 3941 28bd 8655 74bd f9e3 373d 99a6 f83f
000003e0: 50de c63f 3d5c 28be 2bf0 273f 7896 88bd
000003f0: 12a5 f9bc fad5 4d3f 68f8 b93e 84af a03c
0.5950739 -0.12987226 -0.07759471 0.5283311 -0.1580632 -0.17810647 0.12690291 1.7628269
1.0935609 -0.44447842 0.7727241 0.08473315 -0.26766992 0.032887753 0.2730949 0.90049475
-0.034348015 1.9391947 1.3799325 -0.48713145 0.0765262 -0.09015868 -0.15841684 0.047720887
-0.025779814 0.1265252 -0.017297087 1.6525438 0.7658557 -0.13666922 0.5110618 -0.063848145
-0.011043917 0.8139146 0.15935871 -0.20365925 -0.10806666 1.6387203 1.3835214 0.18429251
-0.12330417 -0.10442297 -0.027625116 0.28258494 -0.14231108 -0.02438122 0.06992855 1.2134049
1.5225163 -0.14288333 0.7500281 -0.1165998 -0.0777152 0.8486152 0.15534118 -0.35682315
0.16180669 2.3726773 1.9561822 -0.4571574 1.0930148 0.17192765 0.20761222 0.7973172
0.19911973 -0.025455875 -0.065006234 2.4622023 1.6763337 -0.45471147 -0.9446997 0.025458775
0.029463507 -0.6539314 -0.23654205 0.47053832 -0.57214683 -3.257735 -2.797839 -0.37460664
-0.27281153 0.03348229 0.07128455 0.06353834 0.0014565862 -0.08341118 0.22699079 1.1511927
1.3951173 0.28224316 1.0346783 0.07998097 0.12787408 0.60659665 0.14689451 -0.077477194
-0.060120523 2.632967 1.9915496 0.5654395 0.55722797 -0.19796063 -0.12758441 0.20721616
-0.18282115 -0.15181789 -0.16843922 1.7466682 0.8963958 -0.05285845 0.9074274 0.09749558
0.14417627 0.81972766 0.10802987 0.09575025 0.09438656 2.7093163 2.1995459 0.099296555
0.20119803 -0.12905449 -0.08461348 0.20287706 -0.027097069 -0.1257284 -0.16606468 1.6667159
0.9014522 -0.1768955 -0.2750436 0.1615247 0.21282867 0.56925786 0.11200422 -0.09570102
0.020169437 1.4579431 0.879168 -0.12756518 0.20126292 0.14161448 0.1585449 0.50815535
-0.28025475 -0.028588083 -0.1698713 1.1526272 1.3798825 0.32832956 0.58371824 0.15191862
-0.3972795 -0.0991544 0.22034688 -0.24067813 -0.038676083 1.7571616 1.1420984 -0.42261267
0.07926373 0.7716067 -0.49918035 -0.18084475 0.31881517 0.31533846 0.1600133 1.5541828
1.1554335 -0.18062115 1.00789 0.150068 0.14537178 0.49280754 0.05866629 0.18364142
0.15333577 2.517884 1.8239365 0.9377673 0.64529514 0.07400322 0.08275223 0.6904109
0.16916128 0.042783935 0.12451112 2.5732765 2.159409 0.8805856 0.7035687 -0.14232217
-0.08831366 0.43283504 -0.12548931 -0.014954499 0.24095783 1.7752434 1.4014795 0.15823519
-0.14232057 -0.009914859 0.02194235 0.19847986 0.054964427 -0.08620716 0.25312912 1.6020895
0.93780524 0.1793044 0.67526865 0.44303578 -0.4882816 0.23411246 -0.13586813 -0.2690843
-0.103431925 1.4932436 1.18414 -0.3043698 0.9030877 0.28515363 -0.30827966 -0.025260787
0.45225018 0.5222545 0.015189514 1.9454867 1.1537914 0.3142126 -0.0676038 -0.2583243
-0.21748807 0.4180997 0.0032252874 -0.005992971 0.07320748 1.3104453 1.2061315 -0.07745719
0.45317954 -0.21000767 -0.15916502 0.6157616 -0.041077826 -0.059651874 0.044895146 1.9425842
1.5536594 -0.16441436 0.6560084 -0.06669325 -0.03047422 0.8040463 0.3632233 0.019614942

fc1.bias f4 [128]
00000000: 9a49 6340 62d4 3e40 5d25 5040 4120 2740
00000010: d2ca 4b40 6845 8a3f bf44 be3f f636 5c40
00000020: db8c 3f40 128f 8c3f b794 6340 9c60 42be
00000030: c22d 4c40 0e26 4940 5d56 5440 6fa6 6340
00000040: 2053 6040 d165 233f 4b74 fabc 8d13 4240
00000050: 42f8 4340 b2a1 5d40 3437 4a40 080a 4c40
00000060: bf4a 4e40 c093 ec3f 1ae5 ce3f cfa9 5f40
00000070: dca9 09be f6cb 5140 b28c 9a3f 80be 0940
00000080: 7ebf e03f 9812 2740 803c 5c40 17e1 6540
00000090: 0791 4d40 4985 ae3f d217 9a3f a64d 4840
000000a0: 3d17 6740 653e 5d40 10d2 6a40 9eb4 4740
000000b0: 3f99 6240 e8e0 4b40 9a33 4f40 fbbb 4d40
000000c0: 93d8 5c40 b5ac 2440 016f 5040 c243 2140
000000d0: f2b7 5940 ff40 d63f 5d98 4840 0428 fb3f
000000e0: 2e4e 5a40 7540 1ebf e00c 5a40 5ce0 4740
000000f0: 7b60 6a40 777e 5140 dc00 5d40 f802 5740
00000100: fccb 3540 f970 4840 e163 e03e 1809 5740
00000110: f06a f73f f2d6 3f40 9c9a 5640 eb96 7040
00000120: 4ed5 5a40 cf54 993f bedd 1b40 a267 5040
00000130: bdf7 e7be a92e 1d40 4400 4f40 f2ef f93f
00000140: 9ba1 6c3f ec56 4f40 6001 5f40 2cd8 6d40
00000150: 5b65 5040 561f 5540 9d49 5e40 bee1 4e40
00000160: 0988 4e40 a2fb 5840 82d7 0e40 fa15 5840
00000170: cc7a 5740 f7c2 5840 02b5 4740 945c 5c40
00000180: 5232 5e40 1899 4740 b22c 6140 adfb 7340
00000190: bd8d 4740 97f1 3b40 3486 fd3d cc3a 4940
000001a0: 0771 5440 83df 5640 65f6 de3f e881 8c3f
000001b0: d5a8 3640 2918 5b40 8930 5840 4dfd 1d40
000001c0: 2d8f 793f 5bd3 6440 b0d2 3740 8c6e bc3f
000001d0: 37c7 4a40 d2c9 5c40 69f2 0f40 d92f 4b40
000001e0: 0cbc 6540 b7a5 4140 1363 193f 1652 5240
000001f0: d417 3f40 7f2b 3c40 b000 0d40 0441 6040
3.5513673 2.9817128 3.2522805 2.6113436 3.1842542 1.0802431 1.486473 3.4408545
2.9929721 1.0981162 3.5559518 -0.18982166 3.1902928 3.1429477 3.3177712 3.5570333
3.5050735 0.63827235 -0.030573031 3.0324433 3.0620275 3.462994 3.1596193 3.1881123
3.2233121 1.848259 1.6163666 3.4947393 -0.13443702 3.2780738 1.2074187 2.1522522
1.7558439 2.6105099 3.4411926 3.5918634 3.2119768 1.3634425 1.2038519 3.1297393
3.6107934 3.4569333 3.6690712 3.120399 3.5406034 3.1856022 3.2375245 3.2145984
3.4507186 2.5730412 3.2567751 2.5197606 3.4018521 1.6738585 3.1342995 1.9621587
3.4110217 -0.61817104 3.4070358 3.1230688 3.6621387 3.2733438 3.4531775 3.3595562
2.8405752 3.1318953 0.43826202 3.35993 1.932951 2.9974942 3.3531866 3.7592113
3.419269 1.1979007 2.435409 3.2563252 -0.45306197 2.455973 3.2343912 1.952635
0.9243409 3.2396803 3.484459 3.716319 3.2561862 3.3300376 3.473243 3.2325282
3.227053 3.3903584 2.2319036 3.3763413 3.36687 3.3868997 3.1204228 3.4431505
3.4718213 3.118719 3.518353 3.812236 3.118026 2.9366205 0.12379113 3.1442137
3.3193986 3.357392 1.7418944 1.0977144 2.8540547 3.4233496 3.3779624 2.4685853
0.97484094 3.5754 2.8722343 1.4721236 3.168409 3.4498181 2.2491705 3.1747954
3.5896025 3.0257394 0.599168 3.2862601 2.9858294 2.9401548 2.203167 3.5039682

fc2.weight f4 [64, 128]
00000000: f0da 4d3f fb56 283f 4de7 713f 32b6 ab3f
00000010: 532a d73f 34ce ba3f 1b98 653f 9cb5 8f3f
00000020: f1a5 0940 781c a63f 0b4a 963f bc99 cc3f
00000030: 1d75 d23f f77e f43f 33a5 e03f e21c 473f
00000040: 3d01 433f 72bd da3f 1cc3 cd3f e139 a13f
00000050: 5e2f f23f c820 333f d368 1b3f a3b0 d43f
00000060: e894 c13f ddad 793f cf1d b23f d8ff 473f
00000070: facc 9e3f 34ff e43f 1d84 3e3f bd87 0140
00000080: 271b ab3f 04e5 c63f 7045 c63f 82d7 a73f
00000090: 441c f53f bc20 603f 27e8 223f e944 843f
000000a0: 962e d33f 7465 d83f 3a28 973f 5d9e fe3f
000000b0: 03e4 483f b3fe 603f a283 3e3f dbbb 6c3f
000000c0: fbe3 b53f 3d4c b93f 3289 463f f4a1 363f
000000d0: 1687 db3f b542 2b3f 737c e63f 4f64 2f3f
000000e0: e314 783f 7524 8f3f 6327 bd3f cb32 ec3f
000000f0: ddcc 7f3f ee03 9d3f ad33 793f 001e 813f
00000100: 0809 383f 7678 e83f f560 633f 1ee6 b03f
00000110: 9bf1 6a3f c7a9 2e3f 72e5 cd3f 27eb 6f3f
00000120: 69ba 8d3f b57b 563f 4852 8a3f 5f76 373f
00000130: 3656 c43f 5d3b 383f 9f88 cc3f 8b96 2b3f
00000140: 40e6 5a3f ffaf 613f 83e7 883f abb9 683f
00000150: 76a4 3b3f 9d8f b43f e5e3 d43f 44ae 703f
00000160: 67f4 2f3f 3041 e53f 5341 413f 2b16 bf3f
00000170: 5e85 9f3f 908c c93f cb9d f53f 2750 d93f
00000180: 073a b53f cf4c 783f 1179 613f df65 543f
00000190: 4723 ba3f 0cdf 803f cc64 943f c768 ed3f
000001a0: 63d9 573f 2cd4 b43f c8c7 2b3f 15b4 983f
000001b0: 28f7 d73f 7054 8c3f 754f 2c3f 0057 b83f
000001c0: 92d6 d43f 0f84 c83f 2591 a63f e303 873f
000001d0: a30c ff3f 5fe5 bc3f 1351 b83f 73eb c33f
000001e0: 6c1e 5d3f 4ce2 f23f 775a 793f a745 c53f
000001f0: 6720 8f3f 3b18 9d3f 34a6 4b3f b5fe b53f
00000200: e3d2 123f cfd1 ec3e 2a94 3a3f a1f7 af3f
00000210: 3abf ed3f 99a1 c13f afa7 423f 2616 833f
00000220: ce95 0940 205e a43f a118 863f e1ae d23f
00000230: 7c0b d13f b63b 0440 0dbb dc3f 8e9e d53e
00000240: 02c6 de3e 41b3 e23f 6d08 d73f 66ab 8b3f
00000250: 7ed2 0140 0c8f ba3e 9a4f a33e f594 ca3f
00000260: 4620 cd3f e384 413f 90da bd3f 0516 273f
00000270: 6ff4 903f 7c1f de3f 15ea d43e abeb 0840
00000280: dbb4 8b3f 5065 d33f bf41 b73f fe62 af3f
00000290: 1802 0a40 f76d 1f3f 8887 cb3e 3aee 453f
000002a0: d12f d73f af19 ec3f 4c81 a13f 216c 0840
000002b0: 4932 043f 2b80 453f 57ee d73e c765 353f
000002c0: adb1 be3f 8362 c43f a219 ec3e 2e70 cf3e
000002d0: daca f33f bfcb ed3e c241 f43f fc8e 073f
000002e0: 6ecf 193f edd8 7a3f 6fa8 c53f ad79 fe3f
000002f0: b7ec 3c3f 4b43 813f 75e1 183f 7baf 473f
00000300: c541 ff3e 1dec f43f 44cb 1f3f 3884 a13f
00000310: 4b97 183f 02a1 da3e f11f da3f 7bf6 563f
00000320: a4af 5c3f ff1a e73e dc7f 853f f2b0 083f
00000330: 32e4 ca3f 825b 033f 44d4 db3f 5b75 cf3e
00000340: f145 093f 7ac5 123f ca99 5d3f caee 3c3f
00000350: e02f e43e d0c0 b13f 6f60 e33f d16a 423f
00000360: 20e6 b13e f56c e33f ca1c f23e 13a9 b93f
00000370: eabd 8e3f 05e7 b03f 2e7e 0540 cf1e d83f
00000380: f234 c73f b7d0 1f3f a681 203f c0f4 073f
00000390: e49f b13f cc1d 643f 63f0 513f 8286 0140
000003a0: a925 1c3f d56a b23f 1861 e93e b2c6 873f
000003b0: 07a8 d83f a77d 6e3f b076 003f ffb7 a63f
000003c0: cb8c cd3f 183d cf3f 7be5 bd3f 8aa1 5b3f
000003d0: f1cd 0040 e407 c13f a2b7 ac3f 4357 cb3f
000003e0: 4288 223f b3a6 fe3f a330 323f 3448 c63f
000003f0: 4c8e 563f 17aa a03f fc18 df3e 9eaf a13f
0.804122 0.6575772 0.9449356 1.3414977 1.6809791 1.4594178 0.8968522 1.1227298
2.1507533 1.2977438 1.1741346 1.5984416 1.644199 1.9101247 1.7550415 0.77778447
0.76173764 1.7089064 1.6075168 1.2595788 1.8920705 0.69971895 0.60706824 1.6616405
1.5123568 0.9753092 1.3915347 0.7812476 1.2406304 1.7890382 0.7442034 2.0239098
1.3367661 1.553864 1.5489941 1.3112643 1.9149251 0.8754995 0.63635486 1.033353
1.6498592 1.6905961 1.1809151 1.9892079 0.7847292 0.8788864 0.74419606 0.92474145
1.4210199 1.4476391 0.77553093 0.7134087 1.71506 0.6689866 1.8006729 0.68512434
0.9690687 1.1183001 1.4777645 1.8453001 0.9992197 1.2266824 0.97344476 1.008728
0.7188878 1.8161762 0.8881982 1.3820226 0.9177491 0.6822781 1.6085646 0.9371819
1.1072513 0.8378251 1.080636 0.71664995 1.533881 0.7196558 1.5979193 0.67026585
0.85507584 0.88159174 1.0695652 0.90908307 0.7329782 1.4106327 1.6632048 0.9401591
0.68732303 1.7910519 0.754903 1.492864 1.2462575 1.5746021 1.918878 1.6977586
1.4158334 0.969922 0.8807536 0.8296794 1.4542016 1.0068069 1.1593261 1.85476
0.8431608 1.412725 0.67101717 1.1929957 1.6872301 1.0963268 0.6730874 1.440155
1.6627982 1.5665301 1.3013045 1.0548061 1.9925731 1.4757499 1.4399742 1.5306228
0.86374545 1.897531 0.97403663 1.5411881 1.1181763 1.227302 0.7955048 1.4218355
0.5735304 0.4625382 0.7288233 1.3747445 1.8573983 1.5127441 0.76037115 1.0241134
2.1497684 1.2841225 1.0476266 1.6459619 1.633163 2.0661445 1.7244583 0.4172253
0.43510443 1.7710954 1.6799446 1.0911682 2.0284724 0.3643726 0.3189667 1.5826708
1.6025474 0.75593394 1.4832325 0.65267974 1.1324595 1.7353358 0.4158484 2.139384
1.0914568 1.6515293 1.4316939 1.3702085 2.1563778 0.6227717 0.3975184 0.7731663
1.6811467 1.8445338 1.2617583 2.1315997 0.5163923 0.77148694 0.42174026 0.70858425
1.4897972 1.5342563 0.46113306 0.40515274 1.904628 0.46444508 1.9082568 0.5295255
0.6008214 0.9798725 1.5442027 1.9880883 0.737987 1.0098661 0.5971902 0.78002137
0.49854866 1.9134556 0.62419534 1.2618475 0.59605855 0.42700964 1.7040998 0.8396985
0.86205506 0.45137784 1.0429645 0.53395 1.585089 0.51311505 1.7174153 0.40519223
0.5362235 0.57332575 0.8656279 0.73801863 0.44567776 1.3886967 1.7763804 0.7594424
0.34745884 1.7767626 0.4728759 1.4504722 1.1151707 1.3820502 2.0858264 1.6884402
1.5563033 0.6242785 0.6269783 0.53107834 1.387692 0.89107966 0.82007426 2.0238347
0.60994965 1.3938853 0.4558189 1.0607512 1.6926278 0.9316048 0.501811 1.3024901
1.6058592 1.6190519 1.4835657 0.85793364 2.0125697 1.5080533 1.349354 1.5886005
0.6348916 1.9894623 0.69605464 1.5490785 0.8381088 1.2551907 0.4357375 1.2631719

fc2.bias f4 [64]
00000000: 2a08 3440 f990 5840 a0f0 2740 400d 2e40
00000010: 824e 3440 1a7f 3740 b99c 3140 b047 4040
00000020: 0555 3040 78e4 3340 fff3 2f40 acd0 2f40
00000030: 1640 2d40 ec1d 2840 6444 3640 175a 3a40
00000040: de60 3940 423c 3640 e683 3140 064c 3140
00000050: 7924 3a40 08cb 3240 aec8 3740 9847 2e40
00000060: 82e0 2d40 77a5 3440 4ae9 2d40 788d d63b
00000070: 9a1d 4f40 3f20 2d40 3d4e 3140 7ec6 3040
00000080: d29f 2d40 f8c6 2e40 e84f 3640 cecb 3d40
00000090: 2323 3740 21a0 2940 16f3 3440 2d64 2e40
000000a0: eb5f 3440 6c94 3440 623f 0fbd db6c 2e40
000000b0: 7c20 3c40 e6ea 7b40 9cfd 2b40 107a 3e40
000000c0: de57 2e40 1322 2f40 ca91 2a40 91a9 3340
000000d0: 1134 2b40 18db 2d40 9e77 2e40 f085 3140
000000e0: 9987 2b40 8ea8 ffbe cabe 3140 4c23 3140
000000f0: 6df9 3240 1c50 3540 0ee3 3340 087e 3d40
2.8129983 3.3838484 2.6240616 2.7195587 2.8172917 2.8671327 2.7751906 3.0043755
2.7551892 2.8108196 2.7492673 2.7471113 2.7070365 2.6268263 2.8479242 2.9117486
2.8965373 2.8474278 2.7736754 2.770265 2.908476 2.793642 2.8716235 2.7231197
2.7168279 2.8225992 2.7173638 0.006547626 3.2361817 2.7050931 2.7704003 2.762115
2.7128797 2.730894 2.848627 2.9655643 2.8615196 2.6503985 2.8273368 2.7248642
2.8183544 2.821559 -0.034972556 2.725394 2.9394827 3.936212 2.687354 2.9762
2.724113 2.7364547 2.6651483 2.8072245 2.675053 2.7164974 2.7260509 2.7738
2.6801512 -0.49933285 2.7772698 2.7677794 2.7964737 2.8330145 2.8107333 2.9608173

fc3.weight f4 [32, 64]
00000000: ac28 ee3b 3b37 70bd 518a afbd 8642 433d
00000010: 7f08 04be f917 a9bd be51 1e3c d0f1 79bd
00000020: 5a8b 01be af89 57bd 92b0 2ebe 4e18 27be
00000030: c81d 14bd 81a4 473c 5e8e 423d a636 00be
00000040: 0aee 0a3d a67c 1bbe c038 3c3d 065a b5bd
00000050: fb45 52bd 289f af3d 963d 80bd 5b3b 48bc
00000060: 1b11 a93d 788f c6bd f56c 963d 58fd d73d
00000070: 5e31 b13d 1abc af3d 1edd b13c 0d7b 94bc
00000080: 2027 9cbd 820f 14bd c2aa bcbd 571d 0ebd
00000090: 069d 0abc 75ba e33c 76aa 823d 6b87 d0bd
000000a0: 8f2e 923c 1937 b33d 5a0d c5bd 7dc9 de3c
000000b0: 0d1f 7dbd 0194 f2bd 6a75 1dbe 64ad e93b
000000c0: cbdf 26bd 5871 23bd b70b 023d ec46 d33d
000000d0: fd85 4dbd 521a 4d3d 9799 8abc 0100 823c
000000e0: 0001 b1bc e210 8fbd e4f1 acbd ca82 f0bd
000000f0: 93ff d0bc 14e9 07be 6965 4c3c 281d 90bd
00000100: 7228 99bb 13f5 8d3d a5e8 ebbd 48b0 163d
00000110: 9f80 2abd 74ea 7d3d 8274 28be 252f 3bbd
00000120: 5785 f8bd 4107 143c 1c75 9fbd a13d ffbd
00000130: ddcb 82bd 7f3a f6bd a042 c4bd ab6c d6bd
00000140: c926 8bbd c644 3bbd 2833 7ebc 645e b1bc
00000150: 8604 03bd 7357 4c3d a1b2 69bc c5e5 0dbd
00000160: b19b 683d 1164 bbbd 36a5 9fbd c7d0 d03d
00000170: 7589 06be 1359 8bbc 15c6 febd 6560 e3bd
00000180: df42 02bd 4139 8bbd 2855 9d3c 214c 5b3d
00000190: 544d a9bc ef10 53bd a379 52bd 7bf8 fdbd
000001a0: 749d 9abc 89ce febb e156 d33d d2e6 44bd
000001b0: 53e2 9bbb 1ee7 16bd f38f 27be 1d71 e7bc
000001c0: 4c08 503d b6bd e939 f996 723d cb93 41bd
000001d0: a209 33bd f1e2 96bd 17cb 34bd c2cd 7f3c
000001e0: f43a 6b3d 57cb 35bd 4967 aabd 3d77 a1bd
000001f0: f3e6 c2bb 9749 bdbd 9d35 b538 b9b5 51bd
00000200: 307f 6c3f dce9 5b3f 3a11 893f d9fd 7d3f
00000210: 7f14 693f aa6d 6d3f 1add 8c3f 45f6 833f
00000220: ab16 8b3f ac6d 8e3f c628 8a3f 6423 703f
00000230: 54d0 7b3f b860 8d3f a019 7e3f a3a2 833f
00000240: 5191 803f 7db6 843f fa35 833f 4f2b 663f
00000250: fc97 633f 838d 593f 131d 763f d1b4 8c3f
00000260: 16e4 653f 939d 8e3f a56e 843f 747b d13d
00000270: 4e27 893f 0f43 8d3f b1a6 633f bb20 643f
00000280: 1e99 7a3f afc7 833f f98c 763f 0fa8 6b3f
00000290: 238c 7f3f 0150 803f 6bf1 6b3f ec92 883f
000002a0: 6816 6a3f e23f 6b3f 2d9c 5abd f015 753f
000002b0: f9ab 8a3f a917 8d3f f8b9 773f 6734 763f
000002c0: c222 693f b281 893f 9073 913f c017 7d3f
000002d0: 8034 893f 9269 833f 8c19 823f 60d0 713f
000002e0: d3e5 8a3f a3fc aabf a279 7d3f e96d 873f
000002f0: 5628 743f 3acb 763f 5153 8b3f ba44 903f
00000300: ec05 d43d bf85 03be 9afb f5bd bdb8 e4bc
00000310: a9bd dcbc 2d58 52bd 2f22 063d 1c62 8d3d
00000320: 3f1c 48bd 9c66 63bd 6b15 933d 0eca 2dbc
00000330: 24c3 183c 5655 8abc c276 fb3c 7d27 2bbd
00000340: d86a fbbc 177f 07bc 0573 e1bd f5da f13c
00000350: 37d2 10bd 0401 b4bd da39 ba3d e8ac 80bd
00000360: 4969 e3bd d4a8 8d3d fe7c 82bd 1e0b 4ebd
00000370: b5b2 81bd 814b b4bd 821b 333d b57e 263d
00000380: 9bab b53d a929 4f3b 861f f8bd f9f7 93bd
00000390: f74f 733d e95a 9f3d ea7a c83d 6767 72bd
000003a0: 7104 c1bd 79cf aebd f93f 1abb 879e 633d
000003b0: 939c bebd ff40 d8bd 6fcd b3bc 5d72 6bbd
000003c0: 4903 643b 8091 14bd 7ecb a83c 6e73 913d
000003d0: fac0 16be cc90 e8bd c61a 14bc 19f9 ad3c
000003e0: 63fd 2b3c 69cb 1a3d 1ef5 f8bd e195 71bd
000003f0: ed75 33bb bdf8 dcbd 9ca1 a9bd 6749 9cbd
0.007268032 -0.058646422 -0.08571304 0.047670864 -0.12893866 -0.082565255 0.009663044 -0.061021626
-0.12650815 -0.05262154 -0.17059544 -0.16317865 -0.036161214 0.012185217 0.047499053 -0.12520847
0.033918418 -0.15184268 0.04595256 -0.08855061 -0.05133627 0.085752785 -0.062617466 -0.012221183
0.08255216 -0.09695333 0.07345001 0.10546368 0.08651994 0.085807994 0.021711882 -0.018125081
-0.0762465 -0.036147602 -0.09212257 -0.03469595 -0.008460289 0.02779887 0.06380169 -0.10182079
0.017844466 0.087507434 -0.09621687 0.027195686 -0.06179719 -0.11844636 -0.15376821 0.0071312655
-0.04074077 -0.039903015 0.031749453 0.10316262 -0.05017661 0.05007393 -0.01691894 0.015869142
-0.021606922 -0.06985642 -0.084445745 -0.11743696 -0.025512492 -0.13272506 0.01247535 -0.07036811
-0.004674011 0.0693151 -0.11518983 0.03678921 -0.04162657 0.06199117 -0.16450694 -0.045699257
-0.121348076 0.009034933 -0.07786009 -0.12462927 -0.0638654 -0.12022876 -0.0958302 -0.104699455
-0.06794507 -0.045719884 -0.015515126 -0.021651454 -0.031986736 0.049888086 -0.01426378 -0.034642953
0.056789104 -0.091499455 -0.07795183 0.10196071 -0.13138373 -0.017010247 -0.12440125 -0.1110237
-0.031802054 -0.0679803 0.019205645 0.0535394 -0.020666756 -0.05152982 -0.051385533 -0.124009095
-0.018873908 -0.0077760858 0.10319305 -0.04807169 -0.0047572046 -0.036841504 -0.16363506 -0.028252179
0.050789163 0.0004458257 0.05922601 -0.047260087 -0.04371036 -0.073675044 -0.044138994 0.015613021
0.05742927 -0.044383373 -0.08320481 -0.07884071 -0.0059479414 -0.09242552 8.640739e-05 -0.051198695
0.9238157 0.85903716 1.0708382 0.99215466 0.910469 0.9274546 1.1004975 1.030953
1.0866293 1.1127219 1.0793693 0.93804 0.9836476 1.1045141 0.9925785 1.0284008
1.0044347 1.0368191 1.0250847 0.89909834 0.88903785 0.84981555 0.96138114 1.0992681
0.89801157 1.1141838 1.0346266 0.10228625 1.071512 1.103609 0.88926226 0.8911244
0.9788989 1.0295314 0.9630886 0.9205331 0.99823207 1.0024415 0.9216525 1.0669837
0.9144044 0.9189435 -0.053371597 0.957366 1.0833732 1.1022846 0.9676814 0.9617371
0.9106866 1.0742705 1.1363392 0.98864365 1.0719147 1.0266593 1.0164046 0.9445858
1.0851387 -1.3358349 0.9901372 1.0580417 0.9537405 0.9640385 1.0884801 1.1270974
0.10352692 -0.12843989 -0.1201088 -0.027920121 -0.026945906 -0.051353622 0.032747444 0.069034785
-0.048855063 -0.055517778 0.071818195 -0.010607256 0.009323869 -0.016886394 0.030696277 -0.041785706
-0.030690596 -0.008270047 -0.11008266 0.029523352 -0.035356726 -0.08789256 0.090930656 -0.06282979
-0.11104066 0.06916967 -0.063714966 -0.05030357 -0.06332914 -0.08803464 0.043727405 0.04064818
0.08870622 0.0031610525 -0.121153876 -0.072250314 0.059402432 0.077810116 0.09789069 -0.059180643
-0.09424675 -0.08535666 -0.0023536666 0.055571105 -0.09307208 -0.10559272 -0.021948544 -0.057482112
0.0034791997 -0.036271572 0.020604845 0.071020946 -0.14722052 -0.11355743 -0.009039586 0.021236943
0.010497424 0.037791643 -0.121561274 -0.058980826 -0.0027383522 -0.107896306 -0.08282778 -0.07631188

fc3.bias f4 [32]
00000000: b7ae 09be bbcd 0bbe 1d26 8740 51f1 7abd
00000010: 6412 84bd 21b1 8040 0e14 8640 7769 8740
00000020: 90e4 8740 3593 01be 1070 a5bd 4d57 8140
00000030: ad62 8940 a54e 9a3c 739d aebd 61c0 8540
00000040: 5b2f a239 dbc4 8240 649e 8740 b476 9940
00000050: aeff 8340 c67b 1abc 2058 8fbd 2cb6 0dbe
00000060: 911e 00be 1f22 11be 44a1 7d3d a6c3 0dbe
00000070: 14d0 8740 1046 8440 d393 8640 a48b 8940
-0.13445555 -0.13652699 4.2234025 -0.061265294 -0.0644882 4.021622 4.189948 4.231624
4.2466507 -0.12653811 -0.08078015 4.041907 4.2932954 0.018836329 -0.08526125 4.1797338
0.0003093433 4.08653 4.238085 4.79574 4.124961 -0.009428924 -0.069992304 -0.13839024
-0.1251166 -0.14173172 0.061921373 -0.13844165 4.24415 4.1335526 4.205545 4.298296

fc4.weight f4 [1, 32]
00000000: 4b7b 09be 138d ddbd 75c9 883f 4efd 28bd
00000010: de9f c33c ed3b 963f fe55 843f 84e4 913f
00000020: c400 903f e3d8 1bbc 3415 16bc dd0c 983f
00000030: 6d16 8b3f 2ee1 5cbd 48ad eebd 5a43 8a3f
00000040: 1a0a 08bb bf54 913f 877d 963f 68d6 0c3e
00000050: 8f1e 953f 6aa4 3a3c f50d 03be d739 3dbd
00000060: b59b 52bd f5b0 fbbd e2f5 eabd 69b8 d6bc
00000070: ff9b 8b3f ee0d 963f dd25 933f a03c 873f
-0.13425939 -0.108179234 1.068648 -0.041257195 0.023879942 1.1737038 1.0338743 1.1397862
1.1250234 -0.009512159 -0.009160329 1.1878926 1.0866219 -0.053925686 -0.116541445 1.0801804
-0.0020757974 1.1353987 1.1757058 0.13753664 1.1649951 0.011391738 -0.12798293 -0.04619774
-0.051418025 -0.12289611 -0.1147268 -0.02621098 1.0906981 1.1723001 1.149593 1.0565376
